p1_navigation/double_dqn.pth (torch_old, 28463 bytes, 6 tensors)

fc1.weight f4 [64, 37]
-0.15701078 -0.077302575 -0.061282355 -0.113638625 -0.3272194 -0.23333144 0.010676173 0.10855863
0.09986027 -0.17656997 -0.038660135 -0.03941952 -0.030995736 0.11450186 0.12732135 0.007835723
0.015220209 0.060277708 -0.12973213 -0.48360944 -0.1667987 0.019418472 -0.093662895 -0.06928882
0.22954923 0.037640534 -0.21332602 -0.15881535 -0.25319642 -0.7020474 0.036181066 -0.06407138
-0.10071524 0.0015741086 -0.47718686 0.35465127 0.07619769 -0.013052962 0.040464688 -0.052667323
-0.15802418 -0.21954845 0.08943669 0.1530611 0.03762027 0.19623831 0.2584348 -0.008812202
0.10235008 0.056784417 0.017510287 -0.06295971 -0.0026733044 0.033336297 -0.015521606 -0.108058415
0.16676292 0.041004963 0.055708457 0.16820762 0.053589474 0.2230616 0.31380972 -0.118947774
-0.04169696 -0.3274976 -1.1821543 -0.15161492 -0.12793043 0.0026446625 -0.044777736 0.11866522
-0.0014817276 -0.00049090304 -0.07646937 0.02201189 0.14246564 0.15489325 -0.053027797 0.16495815
0.011621557 -0.19279227 -0.09428725 0.13179557 -0.022997627 -0.014233156 0.09362067 -0.20344663
-0.33459046 -0.27781826 0.14595555 0.07791299 0.041933734 0.11320399 0.16052559 -0.005042256
0.04063811 -0.09663793 -0.08124613 0.062198363 -0.17428255 0.12548493 0.0011674034 -0.52226627
-0.265819 0.029073102 0.083273426 0.04580147 0.10203515 -0.11937183 -0.047545616 -0.15657103
-0.02758806 -0.2371338 0.108926125 0.20177041 -0.6519669 -0.17791778 0.22736767 -0.16241793
-1.6486919 -0.14213595 -0.028941847 0.07528969 -0.7427119 -0.2791362 -0.16775708 -0.22626007
0.027655972 -0.12701273 -0.03637325 0.08928915 -0.02352596 0.089006744 -0.47901732 -0.06671632
-0.06321394 -0.037404153 -0.18518978 -0.8230369 -0.24307658 -0.20801447 -0.45321062 0.28900787
-0.37976614 -1.6600718 -0.17118645 0.03298712 -0.010706582 -0.016102683 -0.011630159 -0.047162015
-0.02600736 0.033577755 -0.034921058 -0.0927474 0.06161884 0.16309288 -0.2039253 -0.21216391
0.14642382 0.21517633 0.04242838 -0.21522202 0.0005879442 -0.081724755 -0.23155147 -0.22012278
-0.13649164 0.16496259 -0.0039885687 0.062097866 0.33289963 -0.05141762 0.018909547 0.046709035
-0.054589923 0.25434038 0.05774865 -0.11054069 0.09329715 0.054328013 0.2735973 0.014067522
0.0015843824 -0.00088860886 0.0802175 0.10857158 -0.11957469 -0.25318256 -0.10509023 -0.066276096
0.07241779 0.005383736 -0.15925191 0.11924186 -0.1254133 0.2665123 -0.16445206 -0.06741484
-0.06955388 0.14360651 0.2104195 -0.12568052 -0.21898805 -0.32973662 -0.14540592 0.10225408
0.15347594 -0.01805021 -0.13446349 -0.011675552 -0.093130186 0.15240367 -0.11598957 -0.0143244285
-0.2673274 0.1938797 0.090232246 -0.09576119 0.018370584 -0.024594832 0.13021775 -0.20344248
-0.05778049 0.012455618 -0.053127836 -0.08258943 0.030759543 -0.019464934 0.20666389 -0.25035638
-0.044336606 0.01833374 -0.06694789 -0.08106974 -0.0058517517 -0.16354671 0.27915123 0.08052992
0.07788902 0.15241447 -0.20028068 -0.060116403 0.07753527 0.17992207 0.4845817 0.05268672
0.019047005 -0.01579564 -0.03506212 0.013839357 0.17237146 0.11015805 -0.053763565 -0.3230134
00000000: 6fc7 20be d050 9ebd 3503 7bbd 5ebb e8bd
00000010: 4d89 a7be 70ee 6ebe 1deb 2e3c fd53 de3d
00000020: 8b83 cc3d c2ce 34be 175a 1ebd 5d76 21bd
00000030: c5ea fdbc f47f ea3d 8760 023e 6861 003c
00000040: 2f5e 793c c2e5 763d 80d8 04be a89b f7be
00000050: 47cd 2abe 7d13 9f3c 55d2 bfbd 4ce7 8dbd
00000060: f40e 6b3e f62c 1a3d 2372 5abe 7ea0 22be
00000070: f6a2 81be 61b9 33bf 9932 143d db37 83bd
00000080: cb43 cebd 5252 ce3a d651 f4be da94 b53e
00000090: 890d 9c3d 17dc 55bc 4dbe 253d b1b9 57bd
000000a0: 17d1 21be 4fd1 60be 952a b73d 0dbc 1c3e
000000b0: b617 1a3d b2f2 483e 9151 843e 0e61 10bc
000000c0: eb9c d13d c796 683d bc71 8f3c 05f1 80bd
000000d0: 9b32 2fbb a48b 083d 564e 7ebc bb4d ddbd
000000e0: e6c3 2a3e d2f4 273d 8d2e 643d 9e3e 2c3e
000000f0: a380 5b3d 436a 643e abab a03e e49a f3bd
00000100: 6eca 2abd c4ad a7be d550 97bf f140 1bbe
00000110: 3200 03be 1352 2d3b dc68 37bd c006 f33d
00000120: 8736 c2ba f2af 00ba f99b 9cbd 4752 b43c
00000130: 83e2 113e 569c 1e3e ad33 59bd caea 283e
00000140: 5868 3e3c 566b 45be ac19 c1bd 6bf5 063e
00000150: 8565 bcbc 2f32 69bc 32bc bf3d 5054 50be
00000160: 714f abbe 323e 8ebe 5f75 153e d890 9f3d
00000170: b5c2 2b3d 7ed7 e73d d260 243e 8239 a5bb
00000180: 2674 263d 1bea c5bd 5f64 a6bd b6c3 7e3d
00000190: 2077 32be 1f7f 003e 8f03 993a 3eb3 05bf
000001a0: 6e19 88be b72a ee3c 428b aa3d 529a 3b3d
000001b0: cef7 d03d 3879 f4bd 31bf 42bd 2854 20be
000001c0: 5b00 e2bc 34d3 72be a914 df3d e79c 4e3e
000001d0: 4ee7 26bf 1430 36be 12d3 683e e350 26be
000001e0: 5608 d3bf 168c 11be 7417 edbc 7b31 9a3d
000001f0: 5e22 3ebf f1ea 8ebe 83c8 2bbe b8b0 67be
00000200: c78e e23c a00f 02be 1efc 14bd 3bdd b63d
00000210: 84b9 c0bc 2b49 b63d c241 f5be 91a2 88bd
00000220: 4f76 81bd 1935 19bd 64a2 3dbe 8cb2 52bf
00000230: 11e9 78be bf01 55be 390b e8be d7f8 933e
00000240: b570 c2be 3c7d d4bf 804b 2fbe 811d 073d
00000250: a96a 2fbc c6e9 83bc 6c8c 3ebc f52c 41bd
00000260: 630d d5bc d488 093d 6209 0fbd 59f2 bdbd
00000270: 0964 7c3d d201 273e cbd1 50be 7f41 59be
00000280: 20f0 153e 2f57 5c3e 62c9 2d3d 2963 5cbe
00000290: 4420 1a3a 4f5f a7bd d41b 6dbe de67 61be
000002a0: 77c4 0bbe f4eb 283e 8ab2 82bb 555a 7e3d
000002b0: d271 aa3e 489b 52bd 32e8 9a3c f951 3f3d
000002c0: af99 5fbd e738 823e d989 6c3d 2863 e2bd
000002d0: 9412 bf3d 0d87 5e3d f214 8c3e 777b 663c
000002e0: 0dab cf3a 88f1 68ba 1349 a43d c75a de3d
000002f0: 93e3 f4bd 25a1 81be 8c39 d7bd c3bb 87bd
00000300: c74f 943d 0d6a b03b ef12 23be 1435 f43d
00000310: 586c 00be 4d74 883e 1f66 28be cb10 8abd
00000320: 4472 8ebd 960d 133e 3678 573e 65b2 00be
00000330: 673e 60be 3dd3 a8be 4ae5 14be 966a d13d
00000340: cc28 1d3e 09de 93bc ccb0 09be d14a 3fbc
00000350: 0abb bebd b50f 1c3e f18b edbd 02b1 6abc
00000360: 23df 88be 6688 463e afcb b83d 711e c4bd
00000370: e87d 963c 1a7b c9bc cd57 053e 3a53 50be
00000380: 3cab 6cbd a612 4c3c 939c 59bd a624 a9bd
00000390: 70fb fb3c ed74 9fbc b39f 533e b62e 80be
000003a0: 4d9a 35bd a430 963c fa1b 89bd e407 a6bd
000003b0: 0dc0 bfbb ca78 27be e9ec 8e3e dfec a43d
000003c0: 4784 9f3d 8a12 1c3e 6116 4dbe 9e3c 76bd
000003d0: d0ca 9e3d 7e3d 383e 181b f83e 08ce 573d
000003e0: 7708 9c3c dc65 81bc 4c9d 0fbd 78be 623c
000003f0: 2582 303e 8b9a e13d 2f37 5cbd 0362 a5be

fc1.bias f4 [64]
-0.12027194 0.05994843 -0.07493477 0.0015763622 -0.09907603 -0.023953293 0.13758723 0.048014607
-0.053246252 0.20310678 0.08231447 -0.10878443 -0.013760217 -0.0126964655 0.11342844 0.15210418
0.057181187 -0.079896115 0.051582534 0.12338594 0.12489679 0.030022068 0.0086804945 0.120531134
-0.07996967 0.069409706 -0.07877402 0.020706255 0.017242583 0.11780119 -0.12729223 -0.032078523
-0.16104636 0.077785276 -0.09834414 -0.020377962 0.06855723 0.069529064 0.0663684 -0.086077265
0.11252954 -0.14533862 0.0198921 -0.0065198946 -0.20097235 0.0062937187 -0.1360101 -0.15161236
-0.19748999 0.12741135 0.21055941 -0.02392446 0.09191234 0.035087943 0.15362908 -0.016954089
0.11843175 0.05192182 0.17193975 0.258321 0.20124364 -0.0126270205 0.13177723 0.018637309
00000000: 2351 f6bd 7c8c 753d 6777 99bd f09d ce3a
00000010: 60e8 cabd b239 c4bc abe3 0c3e f7aa 443d
00000020: be18 5abd 39fb 4f3e 7d94 a83d 5fca debd
00000030: 8972 61bc d604 50bc 2c4d e83d 33c1 1b3e
00000040: d236 6a3d 93a0 a3bd 3548 533d c5b1 fc3d
00000050: e3c9 ff3d d7f0 f53c a238 0e3c 07d9 f63d
00000060: 23c7 a3bd ad26 8e3d 4654 a1bd 2aa0 a93c
00000070: 5140 8d3c c041 f13d e558 02be c564 03bd
00000080: 56e9 24be e34d 9f3d a768 c9bd afef a6bc
00000090: bc67 8c3d 4165 8e3d 28ec 873d 4749 b0bd
000000a0: e375 e63d a6d3 14be c2f4 a23c d7a4 d5bb
000000b0: b2cb 4dbe 8a3b ce3b 3b46 0bbe 4540 1bbe
000000c0: d13a 4abe 1f78 023e e39c 573e 3bfd c3bc
000000d0: 893c bc3d 60b8 0f3d f150 1d3e 4de3 8abc
000000e0: 588c f23d f9ab 543d f910 303e a642 843e
000000f0: d012 4e3e 90e1 4ebc 9cf0 063e 45ad 983c

fc2.weight f4 [64, 64]
-0.009262676 0.19644073 0.05624063 -0.09893399 -0.3066108 0.040597055 0.2366045 0.21343455
0.0147878565 0.03594353 -0.22334716 0.031968016 0.07841959 0.060223296 -0.04244723 -0.31360787
0.15659755 -0.017490637 -0.11452129 -0.07207195 -0.09866701 -0.2768638 0.089541785 -0.061523113
-0.08594014 -0.17097093 0.13205194 -0.041857243 0.039545413 -0.07163011 0.10126213 0.39354667
0.049399875 -0.3443382 -0.23377019 0.079776004 0.06741543 -0.24005829 0.021599576 -0.28243545
-0.031786416 -0.08855298 0.06462153 0.092017144 -0.39560038 -0.04875739 -0.13494575 0.15072894
-0.002201685 0.05623733 0.19495647 0.01587451 0.11037165 0.0032711076 -0.077792384 -0.06316859
0.09765091 -0.3678373 -0.25426677 0.07213214 -0.020763747 -0.047821727 0.093755305 -0.12898697
0.05432988 -0.018707681 0.07407167 0.0065004886 0.03180137 -0.16653933 -0.07954909 0.17032698
-0.01236447 0.01734489 -0.23115124 -0.0017985608 -0.1818092 -0.08882923 -0.04359999 0.0028364104
-0.101722516 -0.025548678 -0.10569138 -0.096829236 -0.22541015 -0.017695956 0.12699045 -0.28331152
-0.095183164 0.023768792 -0.13563296 -0.023966739 0.118424445 0.06112968 -0.038644988 -0.20763454
-0.32547817 0.14951007 -0.2870677 -0.10717385 0.068946004 0.04764359 -0.05806491 0.118843324
0.34373006 -0.14776763 0.10386552 0.0021761986 -0.053977214 0.011162488 0.14718688 -0.13828163
-0.006388987 -0.012495711 0.11079282 0.19567607 0.019868493 -0.025274392 0.18601586 -0.12293491
0.0021910204 -0.19140832 0.22731265 -0.06676653 0.0996594 -0.21883285 0.35581872 0.32821995
-0.041521277 -0.05808891 0.16674578 -0.20196198 -0.03866852 -0.063359715 -0.044056296 -0.15362579
-0.15791558 -0.1216244 0.09091563 0.020720167 -0.16373247 -0.061052855 0.17953102 -0.43167755
0.18537055 -0.15134391 0.09307139 0.034602627 -0.27287436 -0.13516147 0.053870954 0.21832144
-0.16658175 -0.2448379 -0.34809858 -0.034577392 -0.22726989 -0.054447025 -0.018795924 0.16752326
-0.12004714 -0.109358415 -0.0153434295 0.048233237 -0.2281941 -0.49130836 -0.098700635 -0.2365043
-0.30923218 0.19289044 -0.01547954 -0.06891858 -0.060484435 -0.2475972 -0.22551645 -0.08308844
-0.02827097 -0.13134488 -0.12758008 -0.11207406 -0.009360921 -0.17652708 0.058066424 -0.17016284
0.03474949 -0.1410173 -0.15920255 0.20309752 -0.16935544 -0.0357876 -0.019439049 -0.059752304
0.09360087 -0.025126887 0.046581794 0.3850922 0.040183373 0.012598986 0.026987521 0.076606296
-0.222961 -0.08480585 0.27569047 -0.27173313 -0.07044484 -0.22826533 0.09355281 -0.04258763
-0.026454385 -0.40133733 0.07857272 0.047590144 0.00014918085 0.009433569 -0.030864336 -0.0059538973
0.037125282 0.052051064 -0.36568758 -0.035296258 -0.11029287 -0.21103294 0.07443146 0.1869095
-0.009022794 -0.048478562 0.11716994 0.23909223 0.25684696 0.20551494 -0.17977217 0.1421056
-0.0038989484 0.19328693 -0.08982826 -0.027089922 0.17491573 -0.0615621 -0.12224077 -0.0020138847
0.068880014 -0.047450766 -0.16182496 -0.0016694689 0.21669006 0.2322079 -0.18311462 0.017211199
0.17434223 -0.3316039 0.06869529 0.08640142 -0.111017466 0.19102229 0.09689453 0.08465472
00000000: 7bc2 17bc c227 493e 935c 663d e79d cabd
00000010: 17fc 9cbe 1949 263d 7348 723e 968e 5a3e
00000020: c448 723c 8639 133d 1eb5 64be e5f0 023d
00000030: 739a a03d b4ac 763d 26dd 2dbd 3691 a0be
00000040: 1c5b 203e 8648 8fbc 238a eabd 759a 93bd
00000050: ee11 cabd 18c1 8dbe af61 b73d a9ff 7bbd
00000060: 6201 b0bd 0113 2fbe a038 073e 8072 2bbd
00000070: 5ffa 213d cfb2 92bd 8562 cf3d f37e c93e
00000080: 8657 4a3d 194d b0be 7461 6fbe 9a61 a33d
00000090: 1a11 8a3d d7d1 75be 98f1 b03c 619b 90be
000000a0: 7932 02bd 445b b5bd 4b58 843d 7c73 bc3d
000000b0: 228c cabe d4b5 47bd 382f 0abe b058 1a3e
000000c0: 254a 10bb 1d59 663d aba2 473e 430b 823c
000000d0: 880a e23d 1460 563b 9d51 9fbd 895e 81bd
000000e0: 33fd c73d 2c55 bcbe 412f 82be 04ba 933d
000000f0: bc18 aabc b7e0 43bd c802 c03d 2915 04be
00000100: 0289 5e3d da40 99bc e3b2 973d 0d02 d53b
00000110: 2742 023d 4989 2abe a2ea a2bd 326a 2e3e
00000120: 5994 4abc df16 8e3c e9b2 6cbe b0bd ebba
00000130: 312c 3abe 19ec b5bd e795 32bd 12e3 393b
00000140: e553 d0bd 764b d1bc b974 d8bd 684e c6bd
00000150: ebd1 66be 1cf7 90bc c909 023e 350e 91be
00000160: 64ef c2bd c5b6 c23c 5ee3 0abe e555 c4bc
00000170: 8488 f23d 1e63 7a3d 354a 1ebd 269e 54be
00000180: 13a5 a6be 2b19 193e 8afa 92be f77d dbbd
00000190: 9033 8d3d ed25 433d 79d5 6dbd 2164 f33d
000001a0: 63fd af3e 6650 17be 72b7 d43d 8e9e 0e3b
000001b0: 3617 5dbd dee2 363c 28b8 163e b399 0dbe
000001c0: b55a d1bb d0ba 4cbc 59e7 e23d 4f5f 483e
000001d0: 40c3 a23c 3e0c cfbc f17a 3e3e 4cc5 fbbd
000001e0: 3997 0f3b 8b00 44be a6c4 683e e4bc 88bd
000001f0: 3a1a cc3d b815 60be df2d b63e 720c a83e
00000200: 3712 2abd a3ee 6dbd 68bf 2a3e 1fcf 4ebe
00000210: e262 1ebd bdc2 81bd 6074 34bd 1450 1dbe
00000220: 9fb4 21be 3716 f9bd f931 ba3d 57bd a93c
00000230: 7ca9 27be 8f12 7abd fbd6 373e d704 ddbe
00000240: c7d1 3d3e e6f9 1abe 379c be3d 7cbb 0d3d
00000250: 30b6 8bbe c567 0abe caa7 5c3d a88f 5f3e
00000260: 6894 2abe c9b6 7abe fa39 b2be 06a1 0dbd
00000270: 70b9 68be d803 5fbd e9f9 99bc 388b 2b3e
00000280: 46db f5bd 4ef7 dfbd 0263 7bbc 3790 453d
00000290: b7ab 69be c58c fbbe 8f23 cabd 2f2e 72be
000002a0: ae53 9ebe 1285 453e e69d 7dbc 2f25 8dbd
000002b0: 87be 77bd 1f8a 7dbe c9ed 66be 462a aabd
000002c0: 8598 e7bc 467f 06be 5aa4 02be 1687 e5bd
000002d0: 8c5e 19bc 84c3 34be 0fd7 6d3d 2b3f 2ebe
000002e0: 7b55 0e3d d766 10be fe05 23be ccf8 4f3e
000002f0: 836b 2dbe 0596 12bd a43e 9fbc d5be 74bd
00000300: d0b1 bf3d e7d6 cdbc 8dcc 3e3d ce2a c53e
00000310: 5297 243d fa6b 4e3c ef14 dd3c c3e3 9c3d
00000320: e34f 64be b1ae adbd 4d27 8d3e 9b20 8bbe
00000330: 6245 90bd 63be 69be 9e98 bf3d 5e70 2ebd
00000340: deb6 d8bc 167c cdbe bcea a03d e2ed 423d
00000350: 6e6d 1c39 428f 1a3c 34d7 fcbc e918 c3bb
00000360: ae10 183d 7f33 553d 673b bbbe cf92 10bd
00000370: 3ae1 e1bd 0519 58be 856f 983d 3465 3f3e
00000380: 57d4 13bc 7591 46bd cbf6 ef3d 98d4 743e
00000390: 7281 833e 8272 523e 3216 38be 2184 113e
000003a0: 8085 7fbb 02ed 453e e1f7 b7bd afeb ddbc
000003b0: 1c1d 333e 8a28 7cbd 5e59 fabd 61fb 03bb
000003c0: f710 8d3d bc5b 42bd 71b5 25be 15d2 daba
000003d0: 00e4 5d3e e8c7 6d3e 6682 3bbe 80fe 8c3c
000003e0: c586 323e fdc7 a9be 1eb0 8c3d 3af3 b03d
000003f0: 205d e3bd 599b 433e a470 c63d 745f ad3d

fc2.bias f4 [64]
-0.10153199 0.089007445 0.10415262 -0.14316806 0.08358592 -0.062414188 -0.12433412 -0.058879394
-0.052880157 -0.08325016 0.30162933 0.011119852 0.09973805 0.04406381 0.09987933 -0.07624161
0.07836174 0.12815677 0.061312772 0.004729072 -0.015817331 -0.08179635 0.113932915 -0.042911466
0.06745026 0.39172122 0.008637432 0.024980182 0.10518772 0.019931942 -0.072779834 -0.12291764
0.042049997 0.03224259 -0.02898481 0.07997447 0.034531508 0.082192965 0.1495622 0.25977474
0.024825538 -0.14548783 0.132964 -0.105305575 0.033055842 0.15574127 -0.061561015 0.48876667
-0.10270392 -0.018899668 -0.054935466 -0.10085715 0.049439058 0.07224401 0.08417438 0.054357577
-0.017545128 0.02435485 0.20895298 0.14682439 0.114351794 -0.17070414 0.00603267 -0.07812994
00000000: 01f0 cfbd 8949 b63d f84d d53d a69a 12be
00000010: 182f ab3d 05a6 7fbd e3a2 febd 852b 71bd
00000020: dd98 58bd 0f7f aabd 296f 9a3e 0a30 363c
00000030: 7643 cc3d 417c 343d 898d cc3d 9024 9cbd
00000040: 1f7c a03d 873b 033e 1a23 7b3d 55f6 9a3b
00000050: 5993 81bc d884 a7bd a955 e93d efc3 2fbd
00000060: 5d23 8a3d af8f c83e 0484 0d3c 3da3 cc3c
00000070: a96c d73d 5048 a33c 980d 95bd 3ebc fbbd
00000080: 9e3c 2c3d ce10 043d 8d71 edbc a8c9 a33d
00000090: e970 0d3d c954 a83d d526 193e 3201 853e
000000a0: ed5e cb3c c3fa 14be b727 083e 73aa d7bd
000000b0: 9065 073d a47a 1f3e 6727 7cbd a03f fa3e
000000c0: 6f56 d2bd 7ad3 9abc 0304 61bd 328e cebd
000000d0: 9c80 4a3d abf4 933d 9e63 ac3d 0da6 5e3d
000000e0: cdba 8fbc d383 c73c c5f7 553e 2259 163e
000000f0: 4631 ea3d 11cd 2ebe b4ad c53b 9702 a0bd

fc4.weight f4 [4, 64]
0.06085316 0.19798219 0.117563345 -0.18337598 0.39163417 -0.17750888 -0.07552762 -0.03703745
-0.31375107 -0.16977102 0.13009846 -0.20638587 0.24318457 -0.19900677 0.3086218 -0.055430695
0.19773819 0.13534936 0.25594524 0.065907784 -0.020367524 0.38057154 0.11654818 0.08029709
0.24443676 0.21042359 -0.42695737 0.33769816 0.20689012 0.063747294 0.22551988 -0.06408898
-0.10744057 -0.10788209 0.05038467 -0.0371369 0.18609016 -0.03157224 -0.048848525 0.18596983
0.23510088 -0.011136566 -0.14635424 0.20023808 0.27417263 0.28161964 -0.38562614 0.16635472
-0.0053261938 -0.07259084 0.0895015 -0.30767834 -0.20323555 0.06756165 0.12735887 0.26727
0.31571215 0.15547976 0.15382475 0.14745606 0.44946635 -0.07217208 -0.17484266 -0.18945585
0.009928944 0.20950782 -0.20837788 0.036262874 0.16037497 -0.08958303 -0.17521222 0.044104382
0.009771282 -0.23094587 0.10742063 -0.08798148 0.21775143 -0.113938615 0.20625879 -0.08606908
0.17210183 0.12416516 0.257021 0.11140248 0.32847366 0.35631585 0.012499981 0.22215283
0.27303338 0.17579943 -0.3141939 0.103514016 0.17151348 0.14561026 0.11855798 0.040285718
-0.032746136 -0.06670076 -0.23544714 -0.1875484 0.20871937 0.094444096 -0.025935685 0.11688851
0.33239794 -0.03317191 0.16039507 0.16901918 0.25627434 0.3144321 -0.08239313 0.20965166
0.20348525 0.16449894 -0.05600906 -0.15548018 -0.15168567 0.19396682 0.15245628 0.2604676
0.224383 0.28913566 0.095760845 0.14646149 0.23480944 -0.2026744 -0.238122 -0.11780432
0.29428333 -0.030167159 -0.39578903 -0.17856337 0.14066982 -0.20316872 -0.13233617 0.3404782
0.05717157 -0.08232691 0.14377835 -0.21280922 0.23802812 -0.13703917 0.5339857 -0.29497465
-0.007871665 0.20249957 0.14937459 -0.05270908 0.13553847 0.4940771 -0.123217486 0.47352377
0.12496749 0.102559 0.07675668 0.1568953 0.33447304 0.040680286 -0.11482904 -0.04241937
-0.38262653 -0.3136397 0.48381883 -0.30305353 0.095821425 0.09313595 0.029935688 0.1305389
0.27148488 0.16084483 0.060451385 0.18133809 0.15641944 0.11458898 -0.29370517 0.17580375
0.17218225 -0.14058922 0.22494863 -0.05790381 -0.2242182 0.17333536 0.11253737 0.22770211
0.17573906 0.29494074 0.012835604 0.18477677 0.4580608 -0.15427564 0.011009708 0.11824713
-0.043483954 0.21204397 0.15209429 -0.30122238 0.09582209 -0.21585079 -0.20788324 -0.035149477
-0.1640551 -0.47368956 0.15155752 -0.04907157 0.16063613 0.28349805 0.19150735 -0.14713652
0.008242631 0.03537539 0.21808897 0.15885557 0.53268844 -0.017868895 -0.10340632 -0.007480007
0.037294585 0.1597673 -0.3025735 0.45563805 0.18545762 0.39797616 0.4866017 0.16181955
0.31008518 -0.6307307 0.10305525 0.073589444 0.13753723 0.16447006 0.24628606 0.15271978
0.11268156 -0.0547581 0.09921293 0.16481358 0.3152098 0.24959968 0.110277094 0.20681217
0.23610161 0.24918039 0.11638282 0.05326193 -0.5683069 0.15594843 0.10863037 0.48464203
0.27341682 0.25352716 0.16904645 0.17810172 0.10585589 -0.22221157 -0.32219884 -0.12883405
00000000: 2a41 793d d8bb 4a3e 0dc5 f03d eac6 3bbe
00000010: 4684 c83e e3c4 35be 3aae 9abd 95b4 17bd
00000020: fba3 a0be 74d8 2dbe 8838 053e d156 53be
00000030: 6005 793e 6ec8 4bbe ad03 9e3e 4c0b 63bd
00000040: e17b 4a3e 0699 0a3e 410b 833e a9fa 863d
00000050: cbd9 a6bc 46da c23e d0b0 ee3d cd72 a43d
00000060: a14d 7a3e 4879 573e 289a dabe c6e6 ac3e
00000070: 01db 533e f18d 823d afee 663e 1541 83bd
00000080: cd09 dcbd 49f1 dcbd 2860 4e3d dd1c 18bd
00000090: 6b8e 3e3e e551 01bd 6415 48bd e06e 3e3e
000000a0: 49be 703e 2576 36bc e3dd 15be 360b 4d3e
000000b0: 5b60 8c3e 7330 903e ca70 c5be e458 2a3e
000000c0: 5a87 aebb 82aa 94bd 904c b73d 0488 9dbe
000000d0: fb1c 50be c35d 8a3d 5d6a 023e 9dd7 883e
000000e0: 06a5 a13e 1636 1f3e 3c84 1d3e b9fe 163e
000000f0: 7420 e63e f5ce 93bd f409 33be b700 42be
00000100: 02ad 223c 3889 563e 0361 55be 6188 143d
00000110: 5639 243e 4f77 b7bd d56a 33be cca6 343d
00000120: ba17 203c 137d 6cbe 59ff db3d a22f b4bd
00000130: 3bfa 5e3e a658 e9bd 8135 533e fc44 b0bd
00000140: 763b 303e 4e4a fe3d 4298 833e fc26 e43d
00000150: b32d a83e 086f b63e b8cc 4c3c 087c 633e
00000160: 08cb 8b3e c404 343e 06de a0be 28ff d33d
00000170: 3ba1 2f3e db1a 153e 87ce f23d a302 253d
00000180: d020 06bd 689a 88bd 0e19 71be b00c 40be
00000190: 88ba 553e e86b c13d 1377 d4bc 3e63 ef3d
000001a0: 1030 aa3e 45df 07bd 9b3e 243e 5d13 2d3e
000001b0: 6436 833e 3ffd a03e bbbd a8bd edae 563e
000001c0: 705e 503e 6972 283e c269 65bd 3236 1fbe
000001d0: 7d53 1bbe 3d9f 463e 801d 1c3e 025c 853e
000001e0: a8c4 653e 9709 943e 431e c43d 00fa 153e
000001f0: e371 703e e189 4fbe 41d6 73be 6443 f1bd
00000200: 4eac 963e 1e21 f7bc dca4 cabe 51d9 36be
00000210: c00b 103e 760b 50be 2283 07be 2953 ae3e
00000220: bc2c 6a3d 039b a8bd a23a 133e a9ea 59be
00000230: a5bd 733e ff53 0cbe 49b3 083f eb06 97be
00000240: 28f8 00bc 0c5c 4f3e a7f5 183e 7ae5 57bd
00000250: 99ca 0a3e acf7 fc3e 7359 fcbd b571 f23e
00000260: f5ee ff3d 740a d23d 9b32 9d3d 29a9 203e
00000270: 0d40 ab3e 5fa0 263d 7d2b ebbd efbf 2dbd
00000280: a0e7 c3be 6295 a0be 1ab7 f73e d529 9bbe
00000290: 063e c43d 10be be3d b03b f53c fdab 053e
000002a0: 1100 8b3e 82b4 243e df9b 773d b1b0 393e
000002b0: 6b2c 203e a1ad ea3d 8660 96be e605 343e
000002c0: 8b50 303e 9ff6 0fbe ef58 663e 8c2c 6dbd
000002d0: 7599 65be d37e 313e fe79 e63d be2a 693e
000002e0: f1f4 333e 7902 973e 6d4c 523c 1f36 3d3e
000002f0: f286 ea3e 6ffa 1dbe 1062 343c 8d2b f23d
00000300: 3b1c 32bd 0e22 593e 9bbe 1b3e d239 9abe
00000310: 5f3e c43d fd07 5dbe 58df 54be e6f8 0fbd
00000320: 0ffe 27be 7087 f2be e531 1b3e 45ff 48bd
00000330: cc7d 243e a826 913e 811a 443e f5aa 16be
00000340: 1a0c 073c c9e5 103d b752 5f3e 09ab 223e
00000350: 455e 083f ca61 92bc b1c6 d3bd d91a f5bb
00000360: 35c2 183d 0a9a 233e eaea 9abe 6449 e93e
00000370: 9ae8 3d3e 88c3 cb3e dc23 f93e 06b4 253e
00000380: 7cc3 9e3e 9177 21bf a20e d33d 10b6 963d
00000390: 8fd6 0c3e d76a 283e 6a32 7c3e 9362 1c3e
000003a0: 97c5 e63d 084a 60bd 2630 cb3d e4c4 283e
000003b0: 2e63 a13e 0f97 7f3e f5d8 e13d 92c6 533e
000003c0: 9fc4 713e 2529 7f3e 1e5a ee3d 2e29 5a3d
000003d0: 907c 11bf f2b0 1f3e 9979 de3d 0023 f83e
000003e0: 4afd 8b3e 50ce 813e 831a 2d3e 4c60 363e
000003f0: f9ca d83d 6e8b 63be 3ff7 a4be 13ed 03be

fc4.bias f4 [4]
0.23552115 0.19179331 0.3381255 0.14520246
00000000: 752c 713e 7765 443e c91e ad3e f4af 143e
