p1_navigation/dqn.pth (torch_old, 28463 bytes, 6 tensors)

fc1.weight f4 [64, 37]
0	0x3c1a92f5	0.009434451
1	0xbbf10162	-0.007354901
2	0x3c07b9df	0.008284061
3	0x3d95eaa1	0.073201425
4	0x3dc90eb9	0.09817261
5	0x3d617419	0.05504236
6	0x3c0cce7e	0.008594153
7	0x3dadb622	0.08482005
8	0x3d9df0f9	0.077119775
9	0x3df2c5e0	0.11854148
10	0xbcd8b95b	-0.026455572
11	0x3ca76ac1	0.020436646
12	0x3d91ba46	0.07115607
13	0x3d78b9e7	0.060724165
14	0x3d63823c	0.055544123
15	0xbda3f085	-0.0800486
16	0x3d4db8d4	0.050225094
17	0x3cfa90c9	0.030586617
18	0xbd9db318	-0.07700175
19	0xbe208ee4	-0.15679508
20	0xbe054012	-0.13012722
21	0x3d1acd06	0.03779318
22	0xbbb89cba	-0.0056339176
23	0x3def4cd9	0.116845794
24	0x3e26d01e	0.16290328
25	0x3eb6eed5	0.3572909
26	0xbf14da9a	-0.5814606
27	0xbf0b8f59	-0.54515606
28	0xbead7b9e	-0.33883375
29	0xbfe37a5f	-1.777172
30	0xbe277244	-0.16352183
31	0x3d1c4e67	0.038160708
32	0x3da685bb	0.08130976
33	0x3d625b21	0.05526269
34	0x3e132fd2	0.14373711
35	0x3bfdace4	0.0077415574
36	0xbbce00ce	-0.006286717
37	0x3ea5be57	0.3237178
38	0xbeb48dbc	-0.35264385
39	0xbd4da5c7	-0.050206926
40	0xbe8bfa2c	-0.27339303
41	0xbf82dc40	-1.0223465
42	0x3d875898	0.06608695
43	0xbdb14881	-0.08656407
44	0xbc6783c2	-0.014130535
45	0xbcd624a2	-0.026140515
46	0xbdbcbc7a	-0.092156366
47	0x3da75bf4	0.081718355
48	0xbc229d46	-0.009925192
49	0xbc67c103	-0.014145139
50	0xbd8f55e7	-0.069988064
51	0xbe1e048f	-0.15431426
52	0xbe1a66c3	-0.15078263
53	0xbda9de97	-0.08294409
54	0x3d664773	0.056220483
55	0x3db70dae	0.08938156
56	0x3e3bfdea	0.1835858
57	0xbd234bca	-0.0398672
58	0xbd5cf643	-0.05394579
59	0xbd6c2a4a	-0.057657517
60	0xbd39168f	-0.04518753
61	0x3d3e2b32	0.046427913
62	0x3d339369	0.043841753
63	0x3c0b8204	0.008514885
64	0xbc046139	-0.00807982
65	0x3dd7b760	0.10533023
66	0x3e3a3ab7	0.1818646
67	0x3d8decae	0.06929909
68	0x3d4a720c	0.04942517
69	0x3c4dca49	0.012560436
70	0xbc5a3bac	-0.013319891
71	0xbcd74663	-0.02627868
72	0xbcaf1609	-0.021372812
73	0xbc097b26	-0.008391177
74	0x3ed387cc	0.41314542
75	0xbf005f09	-0.5014501
76	0xbf041e46	-0.51608694
77	0xbe1decad	-0.15422316
78	0xbfa1adff	-1.2631224
79	0xbd0ff2f5	-0.03514381
80	0x3db00a2e	0.085956916
81	0x3da150eb	0.07876762
82	0x3dca74de	0.09885572
83	0x3d92a09f	0.07159542
84	0xbd707693	-0.05870683
85	0x3da4d3b9	0.080481954
86	0x3ca8e37b	0.020616284
87	0xbd88f301	-0.06686974
88	0x3e1e3f9d	0.15453954
89	0xbcb17dbc	-0.0216664
90	0xbd5aab60	-0.053386092
91	0xbcddcf6c	-0.027076446
92	0xbe31b29b	-0.17353289
93	0xbdaa26e7	-0.08308201
94	0x3e29b8a9	0.16574349
95	0x3dbd8bca	0.09255178
96	0x3ca0c4b6	0.01962505
97	0x3dcd8136	0.10034411
98	0xbb44b39d	-0.0030014284
99	0xbdb70725	-0.089369096
100	0xbdcb6289	-0.099309035
101	0xbdf5929a	-0.11990853
102	0x3db5827f	0.08862781
103	0x3e351066	0.17682037
104	0x3d909cbf	0.07061147
105	0xbe1e0040	-0.15429783
106	0x3d691932	0.056908794
107	0xbd497cd1	-0.0491913
108	0xbd7495cf	-0.05971318
109	0x3bf65e79	0.0075185862
110	0xbbb6b2f3	-0.0055755316
111	0xbd1b4ef0	-0.037917078
112	0xbe74f892	-0.23922947
113	0x3dcc6c2b	0.09981569
114	0x3d0e7722	0.034781583
115	0x3dae1010	0.084991574
116	0x3e034f84	0.12823302
117	0xbf24dc6a	-0.64398825
118	0xbd5652f2	-0.052325197
119	0xbe79b18b	-0.24384134
120	0xbfcd7a6d	-1.6052986
121	0x3ac5aac2	0.0015080797
122	0xbd399e0c	-0.04531674
123	0xbd2ce8ea	-0.04221431
124	0x3cf88a3d	0.030339355
125	0xbe031548	-0.12801087
126	0xbdd17c67	-0.10228806
127	0x3e38916e	0.18024227
128	0xbca75146	-0.020424496
129	0x3d0ad237	0.033891883
130	0x3d883c00	0.06652069
131	0xbce2f841	-0.027706267
132	0x3dbbf7e0	0.09178138
133	0xbcb40f9a	-0.021980096
134	0xbe0ebf15	-0.1394008
135	0x3ba85e16	0.005138169
136	0xbc1bdfbd	-0.009513793
137	0x3c562455	0.013070186
138	0xbb8e91b9	-0.0043508676
139	0xbd80cdb4	-0.06289235
140	0x3db66f40	0.08907938
141	0x3d343986	0.04400017
142	0x3dc3077b	0.09522911
143	0x3c262bd4	0.010142285
144	0xbe0e80e2	-0.13916352
145	0xbe39723c	-0.18109983
146	0xbc828791	-0.015933784
147	0x3ceb21ff	0.028702734
148	0x3dacec96	0.08443563
149	0x3daafd3e	0.08349083
150	0xbdb3a49f	-0.08771633
151	0xbe9c028c	-0.30470693
152	0xbb8a5e1f	-0.004222646
153	0xbe92f5da	-0.28703195
154	0xbe5acfeb	-0.21368377
155	0x3eb11d83	0.34592828
156	0xbda796e7	-0.08183079
157	0xbd896674	-0.067089945
158	0xbd089dc7	-0.033353593
159	0x3d9c7c4b	0.076408945
160	0xbde7215f	-0.11285662
161	0xbe8da88e	-0.2766766
162	0xbd6c81c6	-0.05774095
163	0x3d964af5	0.07338516
164	0xbeeac217	-0.45851204
165	0xbe5c51b3	-0.21515541
166	0xbd20db7f	-0.039271828
167	0xbcfa41eb	-0.03054901
168	0x3c9154c1	0.01774061
169	0xbdae86fd	-0.08521841
170	0xbd7df326	-0.061999463
171	0xbd7b4c1c	-0.06135188
172	0xbe655ecb	-0.22399442
173	0xbd9bf5a3	-0.07615211
174	0x3d274318	0.04083547
175	0x3d4b2019	0.049591158
176	0xbd93f10e	-0.07223712
177	0xbd48bff6	-0.049011193
178	0x3e846f49	0.25866154
179	0x3e1498ff	0.14511488
180	0xbe50d318	-0.20393026
181	0xbe1754b7	-0.1477841
182	0x3e263d2d	0.16234274
183	0x3c8e4ba9	0.017370062
184	0xbd12623c	-0.035738215
185	0xbdc10bb9	-0.09426064
186	0xbddc0d7e	-0.10744761
187	0xbe23a23a	-0.15979853
188	0x3d08a040	0.03335595
189	0xbc728fcb	-0.014804791
190	0x3e1b2c3d	0.15153594
191	0xbeea881d	-0.4580697
192	0xbe3fc3de	-0.18727061
193	0xbe987248	-0.2977469
194	0xbf9687eb	-1.1760229
195	0xbcea8145	-0.028626094
196	0x3d89675e	0.06709169
197	0x3e263f85	0.16235168
198	0x3d2c459b	0.04205857
199	0xbb68101c	-0.0035409993
200	0xbe0ed3b5	-0.13947947
201	0x3dc70120	0.097170115
202	0x3bbe4171	0.005806141
203	0x3d9da353	0.07697167
204	0x3e7a00dc	0.2441439
205	0xbe57b6dd	-0.2106585
206	0xbe643b8d	-0.22288342
207	0xbce91302	-0.028451446
208	0xbcfd390d	-0.030910993
209	0x3d00dce6	0.031460665
210	0x3d8e55c8	0.06949955
211	0x3cb7d2cf	0.022439389
212	0x3e149369	0.14509358
213	0x3e709243	0.23493294
214	0x3e1807b1	0.14846684
215	0x3e6c8451	0.2309735
216	0x3e7f321c	0.24921459
217	0xbdd137df	-0.10215735
218	0xbe504297	-0.20337902
219	0xbed6e00b	-0.41967806
220	0x3b83e7fd	0.004025458
221	0x3c0e447f	0.008683323
222	0xbd15a054	-0.036529854
223	0x3d8f22a2	0.069890276
224	0x3ceea874	0.02913306
225	0x3d903a2d	0.07042346
226	0x3e04e8ae	0.12979385
227	0xbd81ab06	-0.06331448
228	0x3c2cd9f1	0.010550008
229	0xbd768b5d	-0.0601915
230	0xbcf9bfee	-0.030487027
231	0xbce37d2c	-0.027769648
232	0x3df8ffb7	0.12158149
233	0x3dbb2a73	0.09138956
234	0x3db1b04b	0.08676203
235	0x3cf177d5	0.029476086
236	0xbc59615f	-0.013267844
237	0xbd53aaca	-0.05167655
238	0xbd0d70bb	-0.034531336
239	0x3c0d849f	0.008637576
240	0x3d7c4ed5	0.061598618
241	0x3e427744	0.18990809
242	0x3d885ad2	0.066579476
243	0x3b8de111	0.0043298085
244	0x3bef8811	0.0073099216
245	0xbd86c706	-0.065809295
246	0xbdfb0d05	-0.12258343
247	0x3ee5b572	0.44864994
248	0xbeec5e58	-0.4616573
249	0xbedde344	-0.43337452
250	0xbeb4b9ad	-0.3529791
251	0xbfe08a84	-1.7542272
252	0x3d3c04a8	0.045902878
253	0xbd4aa45d	-0.049473155
254	0xbdedbbbb	-0.11608072
255	0xbdc2a190	-0.09503472

fc1.bias f4 [64]
0	0x3c2623db	0.010140385
1	0x3dbc78b9	0.092027135
2	0x3bfde41a	0.007748139
3	0x3e018188	0.12647069
4	0xbd8c56e9	-0.06852514
5	0x3db4047a	0.08789916
6	0x3dec779f	0.115462534
7	0x3cf9d2d1	0.030496033
8	0x3d4ebead	0.05047481
9	0xbd345923	-0.04403032
10	0x3da10adf	0.078634016
11	0xbe17954b	-0.14803044
12	0xbe281229	-0.16413178
13	0x3d15b955	0.0365537
14	0x3e04cd75	0.12969
15	0x3de023c0	0.10944319
16	0xbd8041a3	-0.06262519
17	0xbd21be6a	-0.039488234
18	0xba87b53b	-0.0010353694
19	0x3d9b87b4	0.07594243
20	0x3cc9fae4	0.024655767
21	0xbdb92cef	-0.090417735
22	0x3dfbbe00	0.12292099
23	0x3da57a19	0.08079929
24	0x3db62436	0.088936254
25	0x3e035a52	0.12827423
26	0x3d0dd94c	0.03463106
27	0xbe33ed1d	-0.1757092
28	0x3df555ef	0.11979281
29	0xbdc88643	-0.097912334
30	0x3da13bf6	0.07872765
31	0x3e1e7c83	0.15477185
32	0xbdb70762	-0.08936955
33	0x3bb0ddc5	0.0053975307
34	0xbd9361d7	-0.07196396
35	0x3dfd6632	0.12373008
36	0x3e345dd0	0.17613912
37	0xbcb63b84	-0.022245176
38	0x3e00d89f	0.12582634
39	0x3daebd6b	0.08532222
40	0xbe554130	-0.20825648
41	0xbd70bd80	-0.05877447
42	0x3e49522f	0.19660257
43	0xbe418ffc	-0.18902582
44	0x3d9abef1	0.075559504
45	0x3bdc96ad	0.006731829
46	0x3e2c5867	0.16830598
47	0x3d159388	0.03651765
48	0xbd8a07fa	-0.06739803
49	0xbd609e98	-0.054838747
50	0xbe2b8281	-0.16749002
51	0x3a70f1d3	0.0009191308
52	0x3c8cfc4b	0.017210146
53	0x3d29feef	0.04150289
54	0xbe1796ac	-0.1480357
55	0x3b0a3239	0.0021087064
56	0xbcd073c7	-0.025445832
57	0xbd14528f	-0.036211547
58	0xbe22791d	-0.15866514
59	0x3dcca5ef	0.09992587
60	0xbe5391e3	-0.2066112
61	0xbd78905e	-0.060684554
62	0xbd8ce9d4	-0.06880537
63	0xbe56a2a6	-0.20960483

fc2.weight f4 [64, 64]
0	0xbe829289	-0.25502422
1	0x3c91d879	0.017803418
2	0x3dbea23f	0.0930829
3	0x3e4f7811	0.20260645
4	0xbd0ce6fd	-0.034399975
5	0x3e48b2fd	0.19599529
6	0xbd840001	-0.06445313
7	0xbe900b19	-0.28133467
8	0x3dadadfe	0.08480452
9	0xbd31bc43	-0.04339243
10	0xbe457f90	-0.19286942
11	0x3e244f65	0.16045912
12	0x3e1e0466	0.15431365
13	0xbd1415a3	-0.036153447
14	0xbdcbd317	-0.099523716
15	0x3d74c414	0.059757307
16	0xbcc0d865	-0.023540685
17	0x3d697dcd	0.05700474
18	0xbd53960e	-0.051656775
19	0xbdb751a4	-0.089511186
20	0xbd7a506a	-0.061111845
21	0x3d7ff161	0.062486056
22	0x3c35f221	0.011105091
23	0x3d017226	0.031603
24	0xbea5c734	-0.32378542
25	0xbe415384	-0.18879515
26	0xbda8ad2c	-0.08236155
27	0x3e6e2303	0.23255543
28	0xbe4b3240	-0.19843388
29	0xbeab7470	-0.33487272
30	0x3e82f620	0.25578403
31	0xbd99fcc8	-0.07518917
32	0x3d2a09e5	0.041513342
33	0x3d66fa48	0.05639103
34	0x3e8fee5d	0.28111544
35	0x3daf76e1	0.08567596
36	0x3c58ca7c	0.01323187
37	0x3db77ca9	0.08959324
38	0x3c729403	0.014805797
39	0x3e293ba7	0.16526662
40	0xbd8267cd	-0.06367455
41	0x3d81efe3	0.06344583
42	0xbd041a49	-0.03225163
43	0xbe60c7bc	-0.21951193
44	0xbdba5024	-0.09097317
45	0x3da441bb	0.080203496
46	0xbe4054bd	-0.18782325
47	0x3d20006b	0.0390629
48	0x3e920008	0.2851565
49	0x3d0d4466	0.034489058
50	0x3df7db5a	0.12102385
51	0xbda93b1f	-0.082632296
52	0x3e533557	0.20625816
53	0xbe3dfd43	-0.18553643
54	0x3ddc1253	0.107456826
55	0xbdb9eaf6	-0.09078018
56	0xbdc15049	-0.09439141
57	0x3e31ec1d	0.17375226
58	0x3d77c745	0.060492773
59	0x3d8b4284	0.06799796
60	0xbc1df71d	-0.009641436
61	0x3e0c70df	0.13714932
62	0x3c569cad	0.013098878
63	0xbd9f90ce	-0.07791291
64	0xbebcf57f	-0.3690605
65	0x3dbc60ee	0.09198175
66	0xbe80ce0e	-0.25157207
67	0x3d83a6b9	0.06428284
68	0x3cdb921b	0.026803067
69	0xbda4cc15	-0.08046738
70	0xbe0c74e1	-0.13716461
71	0xbd078f19	-0.033095453
72	0xbdd2e416	-0.1029741
73	0x3e271ade	0.16318843
74	0x3d66fa06	0.056390785
75	0xbde1a5c5	-0.11017946
76	0x3da72b2a	0.0816253
77	0xbe246b20	-0.1605649
78	0xbe0b3425	-0.1359411
79	0xbda0bd9f	-0.07848667
80	0x3eab982b	0.33514532
81	0xbd5723d4	-0.052524403
82	0x3d8953ca	0.067054346
83	0xbf1b97ca	-0.60778487
84	0xbed0fa63	-0.4081603
85	0x3c870c4a	0.016485352
86	0x3dcecb49	0.10097367
87	0xbdf96a89	-0.12178523
88	0x3e11dbe8	0.14244044
89	0xbe8ef9b0	-0.2792487
90	0x3db55af2	0.08855237
91	0x3e89c21e	0.26905912
92	0x3daa6a53	0.08321061
93	0x3e263c54	0.16233951
94	0x3dfd2c43	0.12361958
95	0x3e4d8b61	0.200727
96	0xbdf07d8a	-0.11742695
97	0xbe785f52	-0.24255112
98	0xbd1e8271	-0.038698617
99	0x3d001839	0.0312731
100	0x3d785f8d	0.060638
101	0xbe119887	-0.14218341
102	0xbd8be85d	-0.06831429
103	0x3df44fd1	0.11929286
104	0xbd982ad7	-0.07430046
105	0x3c7a673f	0.015283405
106	0xbe8498a8	-0.25897717
107	0x3e05319b	0.13007204
108	0x3e036b70	0.12833953
109	0x3e28b87b	0.16476624
110	0xbd223252	-0.03959877
111	0xbb41aec6	-0.0029553636
112	0x3ca3c8af	0.019993154
113	0xbe8381d6	-0.25684994
114	0xbdc9ef22	-0.09860064
115	0xbeb3a8c2	-0.3508969
116	0xbdbc34e2	-0.09189774
117	0x3d365597	0.04451522
118	0xbdfff336	-0.12497561
119	0xbc77de1d	-0.0151286395
120	0xbd9c33f7	-0.07627099
121	0xbed8f6f1	-0.423759
122	0x3c818bad	0.015813673
123	0xbc84724b	-0.01616778
124	0x3e9fd647	0.31218168
125	0x3e990479	0.29886225
126	0xbebec803	-0.37261972
127	0x3e52c54e	0.20583078
128	0xbe89e461	-0.26932052
129	0x3c08f16b	0.00835834
130	0xbe85b6f7	-0.26116154
131	0xbe12481b	-0.14285319
132	0xbe837486	-0.25674838
133	0xbe068fa0	-0.13140726
134	0xbd1ac07f	-0.037781235
135	0xbdafaac0	-0.0857749
136	0xbe4236d5	-0.1896623
137	0xbeb58533	-0.35453185
138	0xbf0ea13a	-0.5571476
139	0xbe9dfa53	-0.30855045
140	0xbd29445f	-0.04132497
141	0xbea98aaa	-0.33113605
142	0xbe587404	-0.21138006
143	0xbddd270f	-0.107984655
144	0xbdb6ecb3	-0.089318655
145	0xbe08e140	-0.13367176
146	0x3e035790	0.12826371
147	0xbe02d62f	-0.12777017
148	0x3da85133	0.082186125
149	0x3d7c5d1b	0.06161223
150	0x3ce7819c	0.028260045
151	0x3dd3fd18	0.10351008
152	0xbe962fe5	-0.29333416
153	0xbdc8e7db	-0.09809848
154	0xbd923d76	-0.07140629
155	0xbcaa7f7f	-0.020812748
156	0xbd9e1c82	-0.07720281
157	0x3d8ef6f0	0.06980693
158	0xbea209f7	-0.31648228
159	0xbe147585	-0.14497955
160	0x3d9af942	0.075670734
161	0x3c99372a	0.018703062
162	0xbd8218bc	-0.06352374
163	0xbeb7edea	-0.35923702
164	0xbe15a094	-0.14612037
165	0x3eceb5a5	0.4037296
166	0xbe724a31	-0.23661114
167	0xbd34153f	-0.043965574
168	0x3d15550d	0.036458064
169	0x3cc288f2	0.023746941
170	0xbe3d4758	-0.18484247
171	0x3e16406d	0.14673014
172	0xbe88ef9f	-0.26745316
173	0xbe63e73c	-0.22256178
174	0x3d971d2b	0.0737861
175	0x3e3369bd	0.17520805
176	0xbd7d5f2c	-0.06185834
177	0xbe585dbe	-0.2112951
178	0xbeff1629	-0.49821594
179	0xbd3f3c35	-0.046688277
180	0xbebdcd90	-0.37070894
181	0x3d13df00	0.03610134
182	0x3dc04565	0.09388236
183	0xbef9a126	-0.4875576
184	0xbe56bd55	-0.20970662
185	0xbe68b300	-0.22724533
186	0xbe51cdf6	-0.20488724
187	0xbe8ca7b9	-0.27471712
188	0xbd5985b8	-0.05310604
189	0xbddcae34	-0.10775414
190	0xbf36431c	-0.7119615
191	0x3e0fa164	0.1402641
192	0x3e72163d	0.23641296
193	0x3e2f4466	0.17115936
194	0xbd1f14ae	-0.03883808
195	0xbc4cf6de	-0.01251003
196	0x3dae9b30	0.085256934
197	0xbe4db9ad	-0.20090361
198	0x3e10008f	0.14062713
199	0x3e2029b1	0.15640904
200	0x3e1d1348	0.15339386
201	0xbbe2187a	-0.0068998905
202	0x3e46a9c5	0.194007
203	0x3dae244d	0.085030176
204	0xbd815744	-0.06315473
205	0xbd6bc2f7	-0.05755898
206	0xbe2931bc	-0.16522878
207	0x3d8d1bd9	0.06890077
208	0x3e141832	0.14462355
209	0x3df195cd	0.1179615
210	0x3dc3e5bb	0.09565302
211	0x3e3c653c	0.18397993
212	0x3d71f6d8	0.0590733
213	0x3da74407	0.08167272
214	0xbe177f85	-0.14794739
215	0x3db623ab	0.08893522
216	0x3dad23bf	0.08454084
217	0xbe4e2271	-0.20130326
218	0x3da95e08	0.08269888
219	0x3dbea5c8	0.09308964
220	0x3d8b8c06	0.06813817
221	0x3d00b658	0.031423897
222	0x3ca55ee7	0.020186855
223	0x3e336754	0.17519885
224	0xbe05f9df	-0.130836
225	0x3e3539a1	0.17697765
226	0xbe8b4139	-0.27198198
227	0x3e03954a	0.12849918
228	0xbe7f1031	-0.2490852
229	0x3e4f4d90	0.20244431
230	0xbcdc8cb8	-0.026922569
231	0xbdd8c69b	-0.10584756
232	0xbce3e6df	-0.027820049
233	0xbdcbb23d	-0.09946106
234	0xbe321a2d	-0.17392798
235	0x3dfd0500	0.12354469
236	0x3d6eaf12	0.05827243
237	0x3e6344ff	0.22194289
238	0x3ceca5b5	0.028887609
239	0x3d326352	0.04355175
240	0xbe3c4c4f	-0.18388484
241	0x3e147541	0.14497854
242	0x3daec1bd	0.085330464
243	0x3d829ef9	0.06377978
244	0x39fb6a62	0.00047953712
245	0x3ed07fbd	0.40722457
246	0xbc7c934f	-0.0154159805
247	0xbe1633c2	-0.14668182
248	0xbd2855bc	-0.041097388
249	0xbe157829	-0.14596619
250	0x3ddc9371	0.1077031
251	0xbd921f3c	-0.07134864
252	0xbdc187c9	-0.09449727
253	0x3e7b2f6d	0.2452981
254	0xbc1b8d26	-0.009494102
255	0xbde248a9	-0.11049015

fc2.bias f4 [64]
0	0xbcfa26a8	-0.03053601
1	0xbc2c4c9e	-0.010516314
2	0x3df3c436	0.11902659
3	0x3e92d1bd	0.28675643
4	0xbc6fd63d	-0.014638481
5	0xbdcc0d3b	-0.09963461
6	0x3e9e542e	0.309236
7	0x3af47e5a	0.0018653378
8	0x3d8d390b	0.06895646
9	0x3e008328	0.12550032
10	0x3ded87b5	0.1159815
11	0xbd4aab42	-0.04947973
12	0xbe05ca02	-0.13065341
13	0xbe0e7c49	-0.13914599
14	0xbe38de52	-0.18053558
15	0x3eafa810	0.3430791
16	0xbc18d635	-0.009328415
17	0x3d17498c	0.036935374
18	0x38e52cc6	0.000109279106
19	0xbdb41b56	-0.087942764
20	0x3ec7ed8c	0.3904842
21	0xbc2d334b	-0.010571311
22	0xbdee3ebe	-0.11633061
23	0x3c8d7623	0.017268246
24	0x3db6ac91	0.08919633
25	0xbdb33547	-0.08750396
26	0x3e556ab9	0.20841493
27	0xbd03b01d	-0.032150377
28	0x3be26e59	0.006910127
29	0xbe0d925f	-0.13825367
30	0x3e9db698	0.3080337
31	0xbdfd1735	-0.12357942
32	0xbdb01ef6	-0.08599655
33	0x3e4db25f	0.20087574
34	0x3d2e1a82	0.04250575
35	0xbe57caaf	-0.21073411
36	0xbd6d6189	-0.057954345
37	0x3d44b0c5	0.048020143
38	0xbd7d055b	-0.061772685
39	0x3ac2abdf	0.0014852247
40	0x3ea547b3	0.32281265
41	0xbd770246	-0.060304902
42	0x3e506fc0	0.20355129
43	0xbdae9779	-0.08524985
44	0xbcd5076e	-0.02600452
45	0xbdfc72a2	-0.12326552
46	0xbdaefea2	-0.08544661
47	0x3dfdb7e8	0.12388593
48	0x3d592e06	0.053022407
49	0x3cab9e12	0.020949397
50	0xbdbf4f71	-0.09341324
51	0xbd588dcb	-0.0528696
52	0xbde587d2	-0.11207546
53	0x3ea30011	0.31835988
54	0x3e060002	0.1308594
55	0xbcf720bf	-0.030166982
56	0x3d75d634	0.060018733
57	0xbdccd855	-0.100021996
58	0xbd8f9484	-0.07010749
59	0x3ddbad11	0.10726369
60	0x3dca0baa	0.09865506
61	0x3ed1f47c	0.4100684
62	0xbc905bd8	-0.01762192
63	0x3e33db38	0.17564094

fc4.weight f4 [4, 64]
0	0xbe14d139	-0.14532937
1	0x3d028704	0.031867042
2	0x3ee14058	0.43994403
3	0x3e21d7e2	0.15805009
4	0xbd17dd92	-0.03707654
5	0x3d590fff	0.05299377
6	0x3dfaa9c1	0.12239409
7	0xbe08319e	-0.13300177
8	0xbefc0de2	-0.49229342
9	0x3e0af289	0.13569082
10	0x3e11a8ff	0.14224623
11	0x3d5d23a6	0.053989075
12	0x3e5de2db	0.2166857
13	0x3dadb588	0.0848189
14	0xbdd3178e	-0.10307227
15	0x3e1e1e7c	0.15441316
16	0xbe0fcac8	-0.14042199
17	0x3df820b2	0.12115611
18	0x3e38cb8d	0.18046398
19	0xbe5284c6	-0.20558462
20	0x3e4c4ff2	0.19952372
21	0x3da2e32c	0.07953486
22	0x3e1b6323	0.15174536
23	0xbb23ed76	-0.0025013364
24	0x3e699752	0.2281163
25	0x3bdab34f	0.0066742073
26	0xbdd01dad	-0.1016191
27	0xbe9662b4	-0.2937218
28	0x3d94b9af	0.07261979
29	0x3cec6154	0.028855003
30	0x3d813d37	0.06310504
31	0x3da864ee	0.08222376
32	0x3d462f8d	0.04838519
33	0x3e8e4493	0.27786693
34	0x3e2b7356	0.16743216
35	0xbddd2a96	-0.10799138
36	0x3cc8a036	0.024490457
37	0x3e2108cd	0.15726013
38	0xbe8f5110	-0.27991533
39	0xbe23628b	-0.1595556
40	0x3e21f6c5	0.15816791
41	0x3d5639f6	0.05230137
42	0x3e3cdee3	0.184444
43	0xbe9151b8	-0.2838266
44	0x3eb70b2f	0.3575072
45	0xbe9d3124	-0.30701554
46	0x3d9a3194	0.075289875
47	0x3e14c41e	0.14527938
48	0x3e04551f	0.12923096
49	0xbea86872	-0.32892185
50	0x3d21a150	0.03946048
51	0x3edbb381	0.42910388
52	0x3e5e8a9a	0.2173256
53	0x3dd57b4e	0.10423909
54	0x3dc4d9a2	0.09611823
55	0x3e13f45c	0.14448684
56	0x3d24eca8	0.040264755
57	0xbdd9ed09	-0.10640914
58	0x3e4a4ea1	0.19756557
59	0x3ee0762b	0.43840155
60	0x3e663a0f	0.22483085
61	0x3deda7fc	0.11604306
62	0x3e021ead	0.12707014
63	0x3e1c19db	0.15244238
64	0x3db29e84	0.08721641
65	0x3e14fe10	0.14550042
66	0xbea0ae3c	-0.3138293
67	0x3e1d5fb5	0.1536854
68	0x3ed965b3	0.42460403
69	0xbf0b0b87	-0.54314464
70	0x3d977dea	0.07397063
71	0xbec5bbbc	-0.38619792
72	0xbda14002	-0.07873537
73	0x3db83498	0.089944065
74	0x3dffb6cf	0.1248604
75	0xbd47cb36	-0.04877778
76	0xbe5e3415	-0.21699555
77	0x3db292c6	0.08719401
78	0xbd36d092	-0.044632502
79	0x3e288aa8	0.16459143
80	0x3d87782d	0.066147186
81	0x3ef097da	0.46990854
82	0x3e15846f	0.146013
83	0xbe35de35	-0.17760547
84	0x3e82d52a	0.25553256
85	0x3df90282	0.121586815
86	0xbebc9eaf	-0.36839816
87	0x3e477600	0.19478607
88	0x3e699bc7	0.2281333
89	0xbe2943ec	-0.16529816
90	0x3e04d53c	0.12971967
91	0xbc24fd2b	-0.010070126
92	0x3da91ec9	0.08257825
93	0xbd99bfb2	-0.07507266
94	0x3d9dbb46	0.07701735
95	0xbed97863	-0.4247466
96	0x3db13de1	0.086543806
97	0x3e8b9227	0.27259943
98	0x3e36a136	0.17834935
99	0xbdec43b5	-0.115363516
100	0xbefcb6a1	-0.49358085
101	0x3dd4396b	0.10362514
102	0xbe1288b2	-0.14309958
103	0xbe88b93f	-0.26703832
104	0x3e05d4e1	0.13069488
105	0xbd20de22	-0.039274342
106	0x3e378ee1	0.17925598
107	0xbdd168be	-0.10225056
108	0x3ed7a453	0.42117557
109	0xbe478701	-0.19485094
110	0xbc75b617	-0.014997027
111	0x3e488129	0.1958052
112	0x3ce0a01c	0.027420096
113	0x3e916def	0.28404185
114	0xbe5077e4	-0.20358235
115	0x3ed8c5ff	0.4233856
116	0x3e438d78	0.19096935
117	0x3e5d7fd6	0.21630797
118	0x3dac43c2	0.08411361
119	0x3e298104	0.16553122
120	0x3d9728da	0.07380839
121	0x3c268ef0	0.010165915
122	0xbc34bf40	-0.011031926
123	0x3e97d7b4	0.29656756
124	0xbf1b88a1	-0.60755354
125	0x3e0d5fc1	0.13806058
126	0x3e14311a	0.14471856
127	0x3da77f6c	0.08178601
128	0x3e0a8fd4	0.13531429
129	0x3e258c13	0.16166715
130	0x3e3fb7f1	0.18722512
131	0x3e234755	0.1594518
132	0xbdccb5a0	-0.0999558
133	0xbbad5013	-0.0052890866
134	0x3de5406e	0.111939296
135	0x3d559cd9	0.052151535
136	0xbdc8c52e	-0.09803234
137	0x3dfdc51e	0.12391113
138	0xbc2b78ef	-0.0104658445
139	0x3ebf054d	0.37308732
140	0xbc23238a	-0.009957204
141	0x3db0e1f6	0.08636849
142	0xbd3d93fc	-0.046283707
143	0x3ea1fee7	0.31639788
144	0xbdb6a062	-0.08917309
145	0xbdfa86ac	-0.12232718
146	0x3e8ff0c7	0.28113386
147	0x3d8092c9	0.06277997
148	0x3e0f8913	0.14017133
149	0x3da6b901	0.081407554
150	0x3e4ca6b3	0.19985466
151	0x3e4ef9f3	0.20212536
152	0x3e86d3c8	0.2633345
153	0xbe43eed5	-0.19134076
154	0x3e25cd2d	0.1619155
155	0x3e009205	0.12555702
156	0x3e85e16d	0.2614855
157	0xbda204fe	-0.079111084
158	0x3e2ecb65	0.17069776
159	0xbe045536	-0.1292313
160	0xbd6f5d05	-0.05843832
161	0x3e69bbe4	0.22825581
162	0x3ebcd7df	0.36883447
163	0xbe5daaaa	-0.21647134
164	0x3df7e901	0.12104989
165	0x3de54eac	0.11196646
166	0xbd3de055	-0.046356518
167	0xbe81da85	-0.2536203
168	0x3da00cf2	0.07814969
169	0xbdedad64	-0.11605337
170	0x3d9e1ae6	0.07719974
171	0xbe37c7e6	-0.17947349
172	0x3e2c25c8	0.16811287
173	0xbe275e6c	-0.16344613
174	0xbdd456d9	-0.103681274
175	0xbd4e6c69	-0.050396357
176	0x3c8b8f8f	0.017036228
177	0xbecb7183	-0.3973504
178	0xbeb31686	-0.34978122
179	0x3e5d1131	0.21588589
180	0x3eff0946	0.49811763
181	0x3e08891d	0.13333555
182	0x3e158f02	0.14605334
183	0x3e85272f	0.26006457
184	0xbd616c00	-0.055034637
185	0x3e3229fd	0.1739883
186	0xbe89b955	-0.2689921
187	0x3eaa8bfc	0.33309925
188	0x3e56069b	0.20900957
189	0x3e86d50c	0.26334417
190	0xbda6f87a	-0.08152862
191	0x3e03b55b	0.1286215
192	0xbe731e08	-0.23741925
193	0xbedaf1ad	-0.4276251
194	0xbe85147f	-0.259922
195	0x3e03923e	0.12848756
196	0xbd6f7828	-0.0584642
197	0x3e9b6b88	0.30355477
198	0x3e227849	0.15866198
199	0xbea267c0	-0.3171978
200	0xbebec821	-0.3726206
201	0x3e767499	0.24067916
202	0x3e2c793b	0.16843121
203	0x3d561756	0.05226835
204	0x3ea11403	0.3146058
205	0x3d37610c	0.044770285
206	0xbe9ba5d2	-0.30399948
207	0x3e1c94a5	0.15291078
208	0xbec4ec94	-0.38461745
209	0x3ed0c9f0	0.40779066
210	0xbda3d958	-0.080004394
211	0x3d342cf9	0.0439882
212	0x3df24572	0.11829652
213	0x3e6780df	0.22607754
214	0xbe89a5fb	-0.26884446
215	0xbd691348	-0.056903154
216	0x3c5a4653	0.013322431
217	0xbc3560d4	-0.011070449
218	0x3e1a5327	0.15070783
219	0xbe0c6bcf	-0.13713
220	0x3e430376	0.19044289
221	0xbe4e1321	-0.20124485
222	0x3e506603	0.20351414
223	0xbf0106c2	-0.50400937
224	0xbe982fd0	-0.29723978
225	0x3e317cf8	0.17332828
226	0x3dbcc72e	0.09217678
227	0xbe97d553	-0.2965494
228	0x3e674cd7	0.22587906
229	0x3ddf6b67	0.10909157
230	0xbc03ee34	-0.0080523975
231	0xbe59c3ed	-0.21266146
232	0x3dc4a09f	0.096009485
233	0x3d7e43d9	0.062076423
234	0x3e1501f1	0.14551522
235	0xbe6b5d19	-0.22984733
236	0x3ed275f6	0.41105622
237	0xbe2788bd	-0.16360755
238	0xbd09816a	-0.033570684
239	0x3e52a410	0.20570397
240	0x3dcae287	0.09906488
241	0x3e3563b8	0.17713821
242	0x3c777130	0.01510267
243	0x3f1c509a	0.6106049
244	0xbd8d2ccb	-0.06893309
245	0x3e1cfa13	0.1532977
246	0x3f08b565	0.53401786
247	0x3e67fe99	0.22655715
248	0x3e1b5cd5	0.15172131
249	0x3e59cf97	0.21270595
250	0x3e45cc9e	0.19316337
251	0x3ebcab37	0.36849377
252	0xbedc81d1	-0.43067792
253	0x3e0ffbb9	0.14060868
254	0xbdddc008	-0.10827643
255	0x3e0f0b50	0.13969159

fc4.bias f4 [4]
0	0x3eacb333	0.33730468
1	0x3e3e8e94	0.18609077
2	0x3de5a686	0.112134025
3	0x3e50cc52	0.20390442
