p1_navigation/dqn.pth (torch_old, 28463 bytes, 6 tensors)

fc1.weight f4 [64, 37]
00000000: 88f0 0abd c3ee 043b 248b c83b ee05 a6bc
00000010: 354a 32bc ffb5 bcbc 79b5 c33a b44d 983c
00000020: eb76 ba3d 3633 193e 738f 92bd ca34 12bd
00000030: ebe2 b0bd 7512 debd 2046 d9bc 1b3f 873b
00000040: 92e1 e13d e909 ca3d 2ddb 453e 627b 4f3e
00000050: c7f3 a0bc 86aa 96bc dfb8 513c 5eda e9bb
00000060: d9d5 333d 0227 a83e f21d e9be ae56 e5be
00000070: 3854 1dbf 58f5 0fc0 9365 6c3d 5921 c73c
00000080: 5355 4e3d 6796 5c3d 54a5 1b3d d481 93bb
00000090: b56f 1d3b 1638 123e d1d0 8b3d 756e e9bc
000000a0: b8d3 eb3d 3d66 603d 46ed 88bd 7465 1dbd
000000b0: 4519 9fbc d38b cabe ed29 79bf 1d9d 1bbc
000000c0: 99e0 283d 7104 ed3d 4728 dfbd 1633 b8bd
000000d0: 72a6 803c 3241 df3d ac03 82bc 6524 a1be
000000e0: 6577 513d 38e0 3b3d d3d2 87bb 54bf 503e
000000f0: beb6 37be 53ec 80be dffd f23d 720a a63c
00000100: de61 10be 96f4 f3be 6a2e babe a57f 03be
00000110: d326 b3bd 5eee 083e 11bb 21bf f865 9dbf
00000120: d460 20bd 7165 363b 7ae6 023d 8afe e5be
00000130: d52d 283e 492d 1c3d 4b0a 05bd 2f75 c9bd
00000140: 5e28 343e 54a7 a83d e836 1bbd 882b 1f3e
00000150: 74d3 ff3c 00c6 8e3d 64b5 323e 1bf7 383d
00000160: f1cd 45bd 4f0b 543e 1554 413e f820 16bf
00000170: 324e 7ebe b312 a3bf 6688 b3bc b337 aa3c
00000180: f56d d5bc 7ed9 cf3c 1c7e 0fbe 95cb c63d
00000190: 0178 89be a6dc f33d 65d4 233e a364 413e
000001a0: 1aa8 ecbc e385 cabd 7fb1 813b bf71 ccbd
000001b0: 4339 333e d2ac 393d e752 beb7 cec1 233e
000001c0: 3d9c 05bc 4917 0abc 5eb9 04be 91ea 76bd
000001d0: dde2 093e be7e a7be fae5 9cbe f92d 17bf
000001e0: 4757 94bf d95e c6bc 7785 2ebe 95e9 a53b
000001f0: 2f6c 4dbe 6de8 83bd f5fc ee3c 3784 bcbc
00000200: dbc8 dfbd 48d2 c03d 3419 45be 50a6 533e
00000210: d325 183d da83 643c a972 03bf 1a3b 6a3d
00000220: 6775 dd3d 6c52 9e3c eee9 5bbd b26a f0be
00000230: 0190 e6bd f775 51bd c8b3 b93d 8956 ccbc
00000240: 21eb 93bd 7288 833d 7bab 873d c4d0 9bba
00000250: 2242 32be 04f4 fabd f866 893d 569f b7bd
00000260: 6e12 243c 8402 68be 00fd 623d 5863 b4bd
00000270: 81da 8c3d 77c0 983e 25e1 e0bd c716 8a3d
00000280: 010a f8bd a8f7 173d 937d f9bd cd62 40be
00000290: 4244 9ebd 575d adbd 8c17 3e3e b300 b83e
000002a0: e3d3 4dbd a6ae c1bd 60bf a2bd b7aa e3bb
000002b0: f360 5e3e 2a5d 6ebe 9554 2abb 770f 433e
000002c0: 63e7 e23c 6679 a53d ef1d ae3d 71dd 1e3d
000002d0: 23ac a53d fb3d dcbc 6bc8 973e 68fb bdbd
000002e0: 832b d53c bd13 f73d ec92 75bb 48dc 063c
000002f0: b59e 2b3e ff7a e2be 4711 f33d 3dd3 37be
00000300: 6640 ef3d 435d 333d 142c 99be 7f78 2bbc
00000310: 14f1 19be 7f1a 723d fd93 39be 3606 46be
00000320: 1d64 063e a4e4 0dbe 1949 b73c 6eab b0bc
00000330: d809 24bf dad2 3b3e e5c3 67be 019f 4f3d
00000340: 0b6f a93c 03c4 1bbe 3602 3c3e c380 bf3d
00000350: f6b4 cf3b b440 003e 9013 ecbd 519d 28be
00000360: 78de 793d c64b 48be d808 0d3e 31e0 a1be
00000370: 6e8d 503b 36e7 bbbc 1ee7 e43d d72c c6bd
00000380: bed6 3b3c f376 cd3d 8b50 efbd 3748 2c3e
00000390: 60ca 813d bdde a0bd cfea 82bd f976 b0bd
000003a0: 99ee 0cbd 00e0 b53c 2763 263e 55bd f73c
000003b0: dc3e c7bd 1579 763d e1e1 afbd 4877 09be
000003c0: a8d8 66bd 7cd5 2d3c 76f1 59bd 4b9b 3e3e
000003d0: 8979 b6bc 7ac1 2b3d a1be 503e 5b31 9f3e
000003e0: 9b36 72bd 7976 30be 3e02 95bd 6979 a3be
000003f0: 4292 0b3e ea94 07bc e086 163e 0c8d 543e
-0.033920795 0.0020283915 0.0061201025 -0.0202665 -0.01088195 -0.023036001 0.0014931402 0.01859174
0.09104713 0.14960942 -0.07156267 -0.035694875 -0.08637031 -0.10843364 -0.026522696 0.004127396
0.11029352 0.098651715 0.1932189 0.2026191 -0.019647492 -0.018391859 0.012800424 -0.007136627
0.043905113 0.3284226 -0.4553066 -0.44792694 -0.6145663 -2.2493496 0.057714056 0.024307894
0.05037434 0.053854372 0.037999466 -0.0045015607 0.0024022881 0.14279208 0.06826938 -0.028495053
0.115149915 0.054785002 -0.06685881 -0.03842683 -0.01942123 -0.39559802 -0.973296 -0.009497908
0.041229818 0.11573113 -0.10896354 -0.08994119 0.015704367 0.10901107 -0.015870892 -0.3147308
0.051139254 0.04586813 -0.0041450053 0.20385486 -0.17940804 -0.251803 0.11864828 0.020268653
-0.14099833 -0.47647542 -0.36363536 -0.12841661 -0.087476395 0.1337218 -0.63176066 -1.2296743
-0.039154842 0.002783146 0.03195808 -0.4492076 0.16423734 0.038129125 -0.03248052 -0.09836804
0.17593524 0.0823504 -0.03789416 0.1554395 0.031228758 0.06971359 0.17452008 0.045157533
-0.048292104 0.20707439 0.18879731 -0.58644056 -0.24834517 -1.2740082 -0.021915626 0.020778513
-0.026053408 0.025372263 -0.1401295 0.09706799 -0.26849368 0.1190732 0.15998991 0.18886046
-0.02888875 -0.09888818 0.0039579268 -0.09982633 0.17502312 0.04533083 -2.268837e-05 0.159919
-0.008154926 -0.008428403 -0.12961337 -0.060282294 0.13465448 -0.32713884 -0.30644208 -0.59054524
-1.1589135 -0.024215149 -0.170431 0.0050632455 -0.200608 -0.06440816 0.029173354 -0.023012264
-0.10926982 0.09415108 -0.19247895 0.20668912 0.037145447 0.0139474515 -0.5134683 0.05718527
0.10813408 0.019326411 -0.05368989 -0.46956402 -0.11257935 -0.05113789 0.09067494 -0.024943607
-0.07222582 0.06422509 0.06624504 -0.0011887779 -0.1740804 -0.122535735 0.06709093 -0.08965938
0.01001416 -0.2265721 0.05541706 -0.08808011 0.06877614 0.2983434 -0.10980443 0.06742626
-0.12111283 0.037101418 -0.121821545 -0.1878769 -0.07727863 -0.08465069 0.1856367 0.35938033
-0.0502509 -0.0945714 -0.07946658 -0.006947841 0.2171667 -0.23277727 -0.0025990356 0.19048868
0.027698224 0.080797955 0.08501803 0.0387854 0.08089473 -0.026885023 0.29645094 -0.092764676
0.026021725 0.12064312 -0.0037471605 0.00823123 0.1675976 -0.44234464 0.1186853 -0.17951675
0.11682205 0.043790113 -0.2991644 -0.01046574 -0.1503337 0.0591073 -0.1812286 -0.19338307
0.13124128 -0.1385675 0.022373723 -0.021566119 -0.6407752 0.18342152 -0.22633322 0.050688747
0.020682832 -0.15211491 0.18360218 0.09350731 0.006338711 0.12524682 -0.11527169 -0.16466261
0.06100318 -0.19560155 0.13772905 -0.31616357 0.003182258 -0.022937398 0.111768946 -0.09676521
0.011464773 0.100324534 -0.11685284 0.16824423 0.06337428 -0.07854984 -0.063924424 -0.08616442
-0.034407232 0.022201538 0.16248761 0.030241648 -0.09728786 0.060174067 -0.08588005 -0.13424408
-0.056358963 0.010609981 -0.05320879 0.18613927 -0.02227475 0.04193256 0.20385219 0.31092343
-0.059134107 -0.17232694 -0.07275818 -0.31928566 0.13630012 -0.00827525 0.14699888 0.2075693

fc1.bias f4 [64]
00000000: f18d 3f3e 28f3 5e3e c98b aebd b058 833c
00000010: bf90 f0bd a843 253d 9cb5 1f3c 22a4 c43c
00000020: 844e 46bd 0977 d53c dd3f 7b3c 637d e7bd
00000030: 5477 06bb d28e 27be 151a 5cbe 4eab 38be
00000040: b97f f3bc f1ff 48bc 0ddb 4ebd a8a9 483d
00000050: 4843 3a3d b0ac 29bc ebf8 003e e990 983c
00000060: b9a9 45be 9b9b 27be 503b 10be 1fdf 52be
00000070: f258 8dbd 325c e2ba b78d 18bd 25d7 3a3e
00000080: b691 9fbd 5d64 9cbd b6a5 953d ec85 4ebe
00000090: 2f5d 993d 9782 293e a03e 67be 561c 2b3e
000000a0: 52eb 2abe 2f04 303d 8cb4 5bbd 6f9f 0bbe
000000b0: 490c 363d 74f5 e43d b93a 3f3d 03d0 a9bd
000000c0: ba2a 563e 00cf 08be 7689 b33d bd8f 4c3e
000000d0: 6417 f03c 6a68 d2bd 5ac7 1e3e 7932 2dbd
000000e0: e23e e3bd fc04 edba 522c bebd 0ee0 a3bc
000000f0: 972b 1abd 23a5 7d3d 1968 953c 2974 8fbd
0.1870649 0.21772444 -0.08522756 0.0160335 -0.11746358 0.040347725 0.009747889 0.024004046
-0.048414722 0.026057737 0.01533505 -0.113032125 -0.0020517902 -0.16363075 -0.21494325 -0.18034098
-0.029723989 -0.012268052 -0.05050187 0.04898992 0.04547432 -0.010356113 0.12594955 0.018623786
-0.19303025 -0.16367953 -0.14085126 -0.20592926 -0.069017306 -0.0017269908 -0.037244525 0.18246134
-0.07791464 -0.0763633 0.073069975 -0.20168275 0.074884765 0.16553722 -0.22582483 0.16710028
-0.1669133 0.04297274 -0.05363898 -0.13635038 0.04444531 0.11179629 0.04668686 -0.08291628
0.20914736 -0.13360214 0.08766453 0.19976707 0.029308029 -0.10273822 0.15505734 -0.042284463
-0.11095978 -0.001808315 -0.09285797 -0.020004299 -0.037639227 0.061925065 0.018238114 -0.07004578

fc2.weight f4 [64, 64]
00000000: ab17 28bd cfd1 683e 82df 23be a1cf f1bd
00000010: acfa 7ebe 3404 d53d 1da9 80be 5b27 2cbe
00000020: 9432 8c3e c9aa d5bc c5e0 f3bb 41bb e3bc
00000030: 4145 dd3c be19 61be 88a8 76be b634 c6bc
00000040: d166 4d3e 64ed b63d 718d 8c3e 54cf 60bf
00000050: 7d1e 54bf 74dd fd3d 392a 60be 9c05 36be
00000060: 0294 00bf 8e30 f1bc dafc bdbc 838d 54bd
00000070: 462f 01be 546e 5ebe fa8a 593e a238 02bf
00000080: 30b1 08bf e25e 333c 9252 513e 4b68 b4be
00000090: 43f3 f2bd 2798 8f3d c097 d63d 0df6 ea3b
000000a0: c9f1 d23c 814b 51bd 7a70 3ebf d4ad a9be
000000b0: b3aa dc3d fb74 ca3d e304 d0be 3697 68be
000000c0: b856 833a e81b 513e 91a6 2bbf cb03 993d
000000d0: f1b8 0bbe a950 94bd 630c 28be 6296 9a3e
000000e0: 7245 6ebd 933b 993d 9fb8 6f3e 03f1 6c3e
000000f0: 4c52 c5be f51d ebbe 3158 323e 0b40 13be
00000100: f0b5 3ebe 00ad 813d 36e9 f23d b12c 6cbe
00000110: b965 bfbe c4c1 573d a97e bfbe 2f96 cd3d
00000120: bcec f3be 7ea9 963d ab01 f43d 154b cdbe
00000130: 9302 303d 6d55 f1bd 8fc4 c33e f496 2c3e
00000140: 597f 21be 1cce c8bd 8a57 f9be 3f4f 95bd
00000150: 2393 893d 2488 cc3d 4b60 af3e aad8 9bbe
00000160: aedd 01be ba7a 32bc fa80 d53d bb2b 94bd
00000170: d871 39be 0142 c2bd 5513 aebd 3ab0 28be
00000180: 89e8 d9bc 6f79 1bbe 031b 9dbd e8f8 bbbe
00000190: 791f 8b3e 43ae b73e fb45 1b3e b8e2 473c
000001a0: 5349 b7bd 57e2 c03c efdc 81be 384e 213e
000001b0: 61a3 9dbe 1de7 23bd 3828 3a3d 2ee7 3b3d
000001c0: 1aef 31be 3998 2bbd e279 a4bc 32d3 1d3e
000001d0: dade c5be 6430 6fbe 9221 75bd 4ec2 8c3e
000001e0: 61a8 febd 875d d63d de21 4abe ccc4 c63d
000001f0: 11f6 4ebc 7b0d f73a 485f b73d 9dc3 aebd
00000200: cf0c 023f f204 e73c a2e2 4b3e a335 b6be
00000210: 18c6 63bd 9b1e 0e3c 4c92 74bd 39fa c3bc
00000220: 596b 433d e129 e53d 889a bdbc 12c5 0ebe
00000230: 9550 3dbe 866d 81bd 990c 113d fbee a4bd
00000240: 9c56 c53d 701c 97be c2ef ba3d d4de b0bd
00000250: 3bc7 3dbb 54ad 6dbd 514e 0f3c 0905 95bd
00000260: 4301 fdbd e3c4 0bbd 6cc6 cfbd 597d 89bb
00000270: f68f 173b f56a fa3d d974 fd3e e4b3 423d
00000280: 3257 5f3c 3348 93be 8078 24be f1ed b63d
00000290: 3bbd 0cbe 4336 003f 1250 1dbd 57b3 0bbf
000002a0: 2667 ab3d 7a91 0bbe ca89 0d3d 5fc5 153c
000002b0: 988b edbe 19ed 4b3c ea7b d5be f865 083d
000002c0: 892b 86be f442 10bd c370 173b 65d3 a3bd
000002d0: 8ed7 d63d ba29 ca3d 2b16 1bbc e269 9fbc
000002e0: d0ac 98bd f522 b93b 7bff 75bd 99fb cc3c
000002f0: 0fad 093e 1616 313d c78d 6f3e 8f72 103e
00000300: c1c5 b43e 9872 9b3c 7b59 6f3d 6583 353e
00000310: 9ec2 23be 186e 02bd 8ad9 253e 9491 9e3d
00000320: 5a19 bbbd 8e8b 59bd f4cd b7bd 59f4 6f3d
00000330: a187 0abe 90c1 cfbe 74c8 073e 1e09 32be
00000340: 528f 693d 32bb 213c 03ed 253e 9148 1cbe
00000350: 701d 923d 3dd9 5abe cf0b 12be bb0c b33b
00000360: 0da7 9f3b 0181 233e 77a4 a33b 7ff3 763d
00000370: aafc 01be d1fd 023e e4d7 1abf 1660 253e
00000380: 3f84 62be 8ccb c0bd b2ca 233e 871f 893c
00000390: 92bc 35bd a626 913e 3e63 46bb be64 8c3e
000003a0: 3a4a 313e b219 a6be 15bd 60bd e7d0 44be
000003b0: 452d b2b9 631d 85bd 1483 77be 0e71 41bc
000003c0: 0810 08be e214 95bc b3f8 a8be 3227 5f3d
000003d0: 0ed4 1cbe a3b4 503e d311 203b 80f3 93be
000003e0: 335c 9f3c c437 debc d37b 7c3d 5cad 9dbd
000003f0: 1546 ba3d 2f17 05be e859 803e 9830 41bd
-0.041038197 0.22736286 -0.1600323 -0.1180718 -0.24900311 0.10401192 -0.25129023 -0.16811888
0.27382338 -0.026082413 -0.007442566 -0.02779925 0.027010562 -0.21982476 -0.24087727 -0.024195056
0.20058753 0.089319974 0.2745166 -0.8781636 -0.8285902 0.123957545 -0.21891107 -0.17775577
-0.5022584 -0.029442098 -0.023191858 -0.05189277 -0.1261569 -0.21721774 0.21244422 -0.50867665
-0.53395367 0.010947915 0.20441654 -0.3523582 -0.11862805 0.07011443 0.10478163 0.007170445
0.025750058 -0.051097397 -0.74390376 -0.33140433 0.10774746 0.098855935 -0.40628728 -0.22713932
0.0010020351 0.20420802 -0.67051035 0.074714266 -0.13644768 -0.07241947 -0.16410975 0.30192858
-0.058171697 0.07482066 0.23410271 0.23138814 -0.3853935 -0.45921293 0.17416455 -0.14379899
-0.18624091 0.06331825 0.11860888 -0.23063923 -0.37382296 0.052675024 -0.37401322 0.10038411
-0.47641551 0.07356547 0.11914381 -0.40096346 0.042971205 -0.11783872 0.382359 0.16854459
-0.15771236 -0.09804937 -0.486996 -0.072905056 0.06717517 0.09986904 0.34253153 -0.3043874
-0.1268222 -0.010893518 0.10424991 -0.072349034 -0.18109834 -0.094852455 -0.08499781 -0.16473475
-0.02660014 -0.15183042 -0.07671168 -0.36713338 0.2717245 0.3587514 0.15163414 0.01220005
-0.08949532 0.023545427 -0.2536387 0.15752494 -0.3078871 -0.04001533 0.04544851 0.045874767
-0.17376366 -0.041893218 -0.02007765 0.15412596 -0.38646585 -0.23358303 -0.05984647 0.27491993
-0.124344595 0.10467058 -0.19739482 0.09705505 -0.012631909 0.0018848622 0.0895372 -0.08533404
0.50800794 0.0282006 0.19910672 -0.35587797 -0.05560884 0.008674289 -0.059709832 -0.023923026
0.047709797 0.111896284 -0.023144975 -0.13942364 -0.18487771 -0.06319718 0.035412405 -0.080533944
0.0963566 -0.29513884 0.091277614 -0.08636251 -0.0028957862 -0.058026627 0.008746699 -0.07276351
-0.12353756 -0.034123313 -0.10145268 -0.004195851 0.002312658 0.12227432 0.4950321 0.04753484
0.013631629 -0.2876602 -0.16061592 0.089321025 -0.1374406 0.50082797 -0.03840644 -0.54570526
0.083692834 -0.13629714 0.034555234 0.009141295 -0.46395564 0.012446665 -0.416961 0.03330037
-0.2620509 -0.0352201 0.0023107983 -0.07999305 0.104903325 0.0987124 -0.0094657345 -0.019459669
-0.07454836 0.005649919 -0.0600581 0.025022315 0.13444923 0.043233953 0.23393928 0.141062
0.35307124 0.018975541 0.058434945 0.17725904 -0.1599221 -0.031843275 0.16196266 0.077426106
-0.09135695 -0.053111605 -0.08974829 0.058582637 -0.13528301 -0.40577364 0.1326006 -0.1738629
0.057021447 0.009871291 0.16203694 -0.15262057 0.07134521 -0.21371932 -0.14262317 0.005464164
0.004872209 0.1596718 0.004993971 0.06029081 -0.1269404 0.12792136 -0.6048567 0.16149935
-0.2212076 -0.094138235 0.15995291 0.016738666 -0.044369288 0.283498 -0.0030271555 0.2742061
0.17313471 -0.3244148 -0.054867823 -0.19220315 -0.00033984534 -0.06499746 -0.24171096 -0.0118067395
-0.13287365 -0.018198434 -0.33002242 0.05448074 -0.15315267 0.20381407 0.0024424687 -0.28896713
0.019453144 -0.0271262 0.061641525 -0.07699081 0.09095398 -0.12997125 0.25068593 -0.047165483

fc2.bias f4 [64]
00000000: a569 3d3d fd28 e93b 5dd2 943d f192 a33d
00000010: 8dbe 22bd 4229 3bbd daab 00be 2449 cabd
00000020: 4c10 8e3e 7407 023f b259 e13e 59f5 90bc
00000030: 15a9 623e 728f bcbd 1e0f 50bd 9970 ce3d
00000040: 3380 5dbd d254 ff3c dd7b 973d 9eed a93b
00000050: e13e 9dbd d6c1 1e3d be5a ce3e 7fad 863e
00000060: 96ce 803e b550 513e 4b93 87be 170e f03d
00000070: e6cb 943c 047a 023f 37b9 c43e 695c d73c
00000080: 5960 5b3c 3336 873d 5fb2 14bd ff4c 983c
00000090: 184e 56bd 9c45 843e 85ec 343c 74b4 5d3d
000000a0: 109b 19be f3e6 cb3e cd91 3bbd 5b9a 09be
000000b0: 2be4 c4bc c53f 363e df36 1cbe 3f3d a53c
000000c0: 1f25 d7bd 25b8 923d 2acb 08be e321 00be
000000d0: 4d8a 773d 145c 6fbd cab0 063c a573 2a3e
000000e0: d269 92bd 9bca 59bd 75c8 7dbd 921a 993e
000000f0: e366 163e 4ae1 f63c a022 d2bd f668 3dbe
0.04624333 0.007115482 0.07266686 0.07987011 -0.039732505 -0.045693643 -0.12565556 -0.09877232
0.2774681 0.5079262 0.44013745 -0.017695116 0.22134812 -0.092070475 -0.050795667 0.1008007
-0.05407734 0.031168375 0.07396672 0.005185797 -0.07678009 0.038759075 0.40303606 0.26304242
0.25157613 0.20440944 -0.26479563 0.117214374 0.018163633 0.5096743 0.38422558 0.026289182
0.01338967 0.066021346 -0.03630292 0.018591402 -0.05232057 0.25834358 0.011042719 0.05412717
-0.15000558 0.39824638 -0.045793343 -0.13437788 -0.02403458 0.17797764 -0.15255307 0.020170806
-0.10505127 0.07164029 -0.13358751 -0.12512927 0.06043463 -0.058437422 0.008220861 0.16645677
-0.0714909 -0.053171735 -0.06195875 0.29903084 0.14687686 0.030136723 -0.102605104 -0.1849707

fc4.weight f4 [4, 64]
00000000: 0bf0 be3c e685 963d 8f1f e13e 5083 fe3d
00000010: 1a60 303e e5fb 453e b76f ca3d 802c 283f
00000020: 167a 003e d69e 5c3e 2de2 473e 9af9 46be
00000030: d853 163d 616c 1bbe 4e8d 88bd df18 95be
00000040: 9976 d43e 9a9c 193e c456 043e c660 d93d
00000050: 7b23 763d e93c 0fbe a6df 353e 0833 fc3e
00000060: d6e7 a43e 0e66 393e 1f0e 5fbe 936c 353d
00000070: 2024 12bb 1803 2f3e 4682 e13d 8e8e c13d
00000080: 6ef8 a13e 9691 013e e789 e43e e4dd 83bd
00000090: 4fac e03d 4dea 373e 353a 1a3e 9420 453d
000000a0: a3e6 a2bd dbce 1a3e 0522 c9bd 7495 febe
000000b0: 6c61 2dbd e298 b13e 0ae2 3dbb adbb f53d
000000c0: 0140 d33d 7325 ec3d 1180 aabe b186 02bd
000000d0: 5fc0 423e b703 dc3d 1af8 2cbe e6dc bb3e
000000e0: 7778 1dbd fd43 8bbe edfb 0b3e 205a cc3d
000000f0: 33d7 163e 8b11 833d 6267 5dbe 27ec c1be
00000100: ffc5 00bf c97c 293d f927 7d3e 21d4 d43d
00000110: c842 093f 5c24 c03e 8072 e43c 20c3 013f
00000120: 035e 813d 2b77 593e 01e7 993d 0cc7 583d
00000130: da00 943d 90bd c9bc bc66 8c3d f64f 8ebe
00000140: 73df 8b3e 94e9 44bf e114 4fbe 4a71 733e
00000150: d410 cd3d 6d2b b7be 92f5 483e 5721 c33e
00000160: 8539 903e 6efb 2a3e e2da 02be 8bc4 f63d
00000170: d12d 24bb 24b8 373e 9139 c33d ed6f 1a3e
00000180: 7925 ec3e 2ce9 a4be c477 b83e f042 70bd
00000190: ac6e b23e 9756 033e 85f8 243e 396a ef3d
000001a0: e1d2 16bd 5e7e 163e 33bf 63be b85f ebbd
000001b0: a41e 0bbe 550a 843e cacc d5bd 967a 043e
000001c0: 9bd9 2bbd ac8b 3a3e 1fdf 63be a1d4 463e
000001d0: 878d 253e 6a0b 0bbf f73d 78be 3cc2 cebe
000001e0: c13f 223d ca2c b03d c015 acbe 1824 103e
000001f0: 6471 583e 82be bcbc 4289 5e3e 1ef1 a1be
00000200: c197 a5be f491 983e 08d9 b93d 8598 733e
00000210: c031 fd3e 63cf 3d3f f5bb 2b3d 772a 8e3e
00000220: b02c 3a3e ddbc 293e a910 363e 238d a5be
00000230: 9d86 2e3e f894 2d3e 559f a03e c759 97be
00000240: 110a 2c3d 4a20 1dbf 3f7e f83e 9a70 353d
00000250: 84b5 35bc b28e a73e c7c1 283e 628c a13e
00000260: 0b76 203e 8cd5 053e a7e1 98be 8b14 4f3d
00000270: 3ecf aa3e 8b0a 0a3e a37a 4e3e 8ac2 083e
00000280: 1d91 28be ea4b 3d3d d1b3 883e 0b47 a43d
00000290: c6d1 1b3e e308 1c3e 0767 dc3e cc5f ab3e
000002a0: 56eb a6be e4eb 183e 36d7 633e 7f56 71be
000002b0: 2f4f bbbd 2920 dbbc 2d12 80bb e0c6 df3e
000002c0: 023d cebd ab3b 953e 4a06 763c c134 9c3d
000002d0: 83ee 2d3e b32d cdbd 179c bfbe 48b9 01bf
000002e0: 4246 2b3e 49da 24bd 7fa5 bf3e df37 403e
000002f0: 6f40 c73e d66b e13e 0e8a 24be df5c 4ebe
00000300: e33a 90be c896 c83e 910b 9a3e 1902 523e
00000310: 02a5 a93e 3b90 6cbe 970c 12bd 1cae d93c
00000320: 5f43 cc3c 2f35 e33d bdf9 3f3e 4729 50be
00000330: b7da e8bc 879c d73c 5353 d03e 9d3d 863e
00000340: 4a10 113e ca07 063d c68c cd3c 4701 b0be
00000350: 7d51 f73e dee6 a4be 6b26 2d3e 9ad7 753e
00000360: 0ff1 5c3d 891f 0e3e 191e 023e a82a 643e
00000370: e2ae d53c 8482 643e 1bf3 243e 676f a13e
00000380: 4b34 f03e 6cf0 f83e aa28 993e e658 85be
00000390: aa95 6d3e e91a 3a3d 1fc4 eb3d faa2 723e
000003a0: 70b6 8ebd a06d 443e c2b5 adbe 36ce 3dbe
000003b0: 3437 413e 952f 0d3e b66a 833c 9e2d 743e
000003c0: 61bc 82be d741 4e3e e332 b7be 3141 22bd
000003d0: f671 583e dc50 f8be 89dc 48be 277e 82bd
000003e0: 56d1 cabe 5e4c 183d a61e 30bd 28af 763e
000003f0: 1529 363e 2f19 883e ffa2 b3be c527 a1be
0.02330782 0.07349758 0.4396939 0.124273896 0.1722416 0.19334371 0.09884589 0.656929
0.12546572 0.21544966 0.19519873 -0.19431153 0.036701053 -0.15178062 -0.06667577 -0.29120538
0.41496733 0.15001145 0.12923723 0.10614161 0.06009243 -0.13988079 0.17761096 0.49257684
0.32208127 0.18105337 -0.2178273 0.044292998 -0.0022299364 0.17091024 0.11011176 0.09451018
0.3163485 0.12653193 0.4463646 -0.06438807 0.10970365 0.17960472 0.15061267 0.048126772
-0.07954147 0.15117972 -0.09820942 -0.497234 -0.042329237 0.34686953 -0.002897384 0.11998687
0.10314942 0.1153058 -0.33300832 -0.031866733 0.19018696 0.10742896 -0.16891518 0.3669197
-0.038444962 -0.27200308 0.13670321 0.099781275 0.1473053 0.063998304 -0.21621469 -0.37875482
-0.5030212 0.04137877 0.2472228 0.10392023 0.53617525 0.3752774 0.02788663 0.5068836
0.063167594 0.21236865 0.075147636 0.0529242 0.07226725 -0.024626523 0.068555325 -0.2779538
0.27318916 -0.7691891 -0.20222808 0.23773685 0.10012975 -0.3577532 0.19624928 0.38111374
0.28168884 0.16697475 -0.1277881 0.12049206 -0.0025051723 0.17941338 0.09532464 0.15081759
0.4612234 -0.32209146 0.36028874 -0.058657587 0.3485006 0.12826 0.16110428 0.11690182
-0.036822204 0.14696643 -0.22240905 -0.11492866 -0.13585907 0.25789133 -0.10439451 0.12937388
-0.04195557 0.18217343 -0.22253083 0.19417049 0.1616727 -0.5431429 -0.24242388 -0.40382564
0.03961158 0.08602293 -0.33610344 0.14076269 0.21137005 -0.02304006 0.21732047 -0.3162927
-0.32342342 0.29798853 0.090745986 0.2378865 0.4945202 0.7414457 0.041927297 0.27766773
0.1818111 0.16575952 0.17779793 -0.3233424 0.17043538 0.16951358 0.3137156 -0.29560682
0.042001788 -0.61377394 0.48533818 0.04429684 -0.01109064 0.32726055 0.1648017 0.31552416
0.1567003 0.13069743 -0.2985966 0.0505567 0.33361238 0.13480584 0.2016397 0.13355461
-0.16461606 0.046214975 0.2669969 0.08021363 0.15216741 0.15237765 0.43047354 0.33471525
-0.32601422 0.14933735 0.22250065 -0.23568152 -0.091459624 -0.026748734 -0.0039084167 0.43706417
-0.1007023 0.29147086 0.015016148 0.076272495 0.16985516 -0.10018482 -0.37423775 -0.5067334
0.1672602 -0.040247235 0.3743095 0.18771313 0.38916346 0.44027585 -0.16068289 -0.20152615
-0.28169927 0.39177537 0.3008695 0.20508613 0.33133703 -0.23101895 -0.035656538 0.02657228
0.024934469 0.11094128 0.18747611 -0.20328246 -0.028424604 0.026319755 0.4068857 0.26218882
0.1416637 0.032722272 0.02509154 -0.34375975 0.48304358 -0.32207388 0.16909187 0.24008027
0.05394083 0.13879217 0.12706794 0.22281897 0.026084367 0.22315413 0.16108362 0.31530306
0.46914896 0.48620927 0.29913837 -0.26044387 0.23201624 0.04543582 0.115120165 0.23694983
-0.06968391 0.19182444 -0.33927733 -0.18535694 0.18868715 0.13787682 0.016042095 0.23845527
-0.25534347 0.20142303 -0.3578101 -0.039612953 0.21137223 -0.4849919 -0.19615377 -0.06371718
-0.39612836 0.037182204 -0.04299798 0.24090254 0.17789109 0.26581714 -0.35085294 -0.31475654

fc4.bias f4 [4]
00000000: b3cb 873e e4f5 973e 6719 6b3e b68b a93e
0.26522598 0.29679787 0.22958909 0.33114403
