p1_navigation/dualing_dqn.pth (torch_old, 29039 bytes, 7 tensors)

fc1.weight f4 [64, 37]
0.041343354 -0.015440268 0.001389785 -0.08379567 -0.1501891 0.10711844 0.018054532 0.05813623
-0.057836644 -0.00089462555 0.12029535 0.07096891 0.1188068 0.033227887 0.019975564 0.09056903
0.015448032 0.10078384 0.044084862 0.0047597266 0.35179123 -0.23703732 -0.24917 -0.3459988
-1.4506005 -0.025690787 -0.04161834 -0.09557725 -0.039877113 0.22704081 -0.051242236 -0.058194965
-0.032804336 -0.095275626 0.09538156 -0.038087726 0.0040240656 -0.040635273 -0.227814 -0.10254948
0.027841797 -0.104797944 0.16706002 -0.004538137 -0.050272953 0.008617096 -0.056579288 0.06445463
-0.1351845 -0.06508804 -0.074533485 -0.012229152 0.1528344 0.0023082178 -0.035391465 -0.14052396
-0.46328345 0.07939943 -0.15512624 -0.11798232 0.04614934 0.25558907 -0.04868282 -0.010672532
0.022145241 0.028137004 0.33730814 0.065907635 -0.11438725 -0.058403224 0.04846439 0.013791825
-0.015278355 0.0070695467 0.05188639 -0.05868117 0.11963517 -0.055098828 -0.15716073 -0.032319162
0.1224346 0.09807593 0.11272298 0.075375706 0.37484658 -0.44677976 -0.14970718 -0.27527797
-1.38936 0.016740622 0.051893026 0.128871 -0.1043042 -0.21787329 -0.072393894 -0.034287523
-0.002680461 -0.025676036 0.27661726 -0.038494352 -0.026584672 0.0020127022 -0.028638765 -0.07953423
-0.120421626 -0.07749412 0.008638489 -0.07561085 0.07968154 0.0061326874 -0.006596988 -0.09533008
0.053574428 -0.059655618 0.09192239 0.19251615 -0.016092144 -0.069469295 -0.1872955 -0.15671144
0.0480577 0.205919 -0.52015007 -0.27883235 -0.31688473 -0.7935779 -0.1622017 0.077510096
-0.030472472 0.04949396 0.18408981 0.19262287 -0.0452134 -0.13975893 -0.17431329 -0.49827144
0.09975606 0.032188185 0.012071675 0.057117272 -0.025832811 -0.077190034 -0.04472421 -0.18844804
-0.0856246 -0.070538536 -0.09243807 0.001518728 -0.034291983 -0.05133761 -0.16670962 -0.22189842
-0.21294862 -0.05189556 -0.2967076 -0.059781417 0.10503072 0.1740672 0.1650895 -0.08002423
0.008918431 -0.017732207 0.10434934 -0.14633474 0.08437347 -0.035955407 -0.12764105 -0.039823536
0.04823321 0.038053382 -0.015136686 -0.05296664 -0.0822392 0.21982388 -0.13233383 -0.26097697
-0.0671932 -0.72447 0.19524501 -0.38483283 -0.025124092 -0.07257835 0.025364125 0.00056527974
-0.0036360116 0.08824034 0.10150886 0.14190535 0.04679199 -0.025898904 -0.03176719 0.03932841
0.17962514 -0.009774998 0.19413133 -0.114873596 0.077847496 0.046637345 0.048901062 -0.07469309
0.013684272 0.0032222918 -0.07861862 0.013904868 -0.081682034 0.21890453 0.016407197 -0.16496515
-0.031968765 -0.61927474 0.0071423273 0.113104545 0.18542434 0.21152279 -0.063764304 -0.12276166
-0.10324498 0.07595844 0.0050773686 0.08934659 -0.013654939 0.0033822497 -0.00064417964 0.043814346
-0.060221486 -0.00015557992 0.037610926 -0.04921597 0.031239064 0.08763244 0.17666562 0.2002234
0.33669177 -0.46700665 -0.3810273 -0.4734444 -1.6282355 0.055910707 -0.036240052 0.0142783085
0.055126518 -0.035556816 -0.11354713 0.074319676 0.028893592 0.12019617 -0.006126913 -0.056928277
0.06491548 0.063497365 -0.016742786 -0.07486649 0.112409435 0.20777628 0.077089705 0.21018684
00000000: a657 293d 2ef9 7cbc 7229 b63a 109d abbd
00000010: 2ccb 19be ea60 db3d 19e7 933c 4120 6e3d
00000020: 1ee6 6cbd 4e85 6aba 695d f63d 2658 913d
00000030: fb50 f33d f719 083d cba3 a33c 417c b93d
00000040: be19 7d3c c267 ce3d 5492 343d 7bf7 9b3b
00000050: fb1d b43e e9b9 72be 6c26 7fbe c126 b1be
00000060: 47ad b9bf 7c75 d2bc fe77 2abd 01be c3bd
00000070: 2f56 23bd 637d 683e 61e3 51bd d85d 6ebd
00000080: d75d 06bd de1f c3bd 6857 c33d e001 1cbd
00000090: 4fdc 833b 2c71 26bd 1348 69be 7605 d2bd
000000a0: 7b14 e43c 4ea0 d6bd c811 2b3e a7b4 94bb
000000b0: 03eb 4dbd b82e 0d3c afbf 67bd ca00 843d
000000c0: ce6d 0abe e14c 85bd 03a5 98bd c85c 48bc
000000d0: 9f80 1c3e 7845 173b a4f6 10bd 83e5 0fbe
000000e0: 7d33 edbe 2b9c a23d 6ad9 1ebe b7a0 f1bd
000000f0: 1707 3d3d 92dc 823e a367 47bd d8db 2ebc
00000100: f069 b53c 937f e63c a7b3 ac3e 95fa 863d
00000110: dd43 eabd 3838 6fbd 9982 463d 1bf7 613c
00000120: 1152 7abc a8a7 e73b d386 543d ab5b 70bd
00000130: 4903 f53d 4faf 61bd beee 20be 1961 04bd
00000140: febe fa3d 08dc c83d 4edb e63d 945e 9a3d
00000150: e4eb bf3e 51c0 e4be d74c 19be 3cf1 8cbe
00000160: 8cd6 b1bf a123 893c c88d 543d c2f6 033e
00000170: 719d d5bd 2d1a 5fbe 4043 94bd 1371 0cbd
00000180: acaa 2fbb 8d56 d2bc c7a0 8d3e 41ac 1dbd
00000190: 19c8 d9bc 8ae7 033b d89b eabc d8e2 a2bd
000001a0: 9d9f f6bd 3db5 9ebd 7388 0d3c dcd9 9abd
000001b0: 1330 a33d b6f4 c83b 8c2b d8bb 6b3c c3bd
000001c0: dc70 5b3d 7359 74bd ce41 bc3d f422 453e
000001d0: acd3 83bc eb45 8ebd 64ca 3fbe f778 20be
000001e0: 27d8 443d 6edc 523e 8e28 05bf 1dc3 8ebe
000001f0: b73e a2be ec27 4bbf 3418 26be 9dbd 9e3d
00000200: 68a1 f9bc 2eba 4a3d 0a82 3c3e ee3e 453e
00000210: b031 39bd f71c 0fbe 2f7f 32be 6f1d ffbe
00000220: e84c cc3d c2d7 033d 46c8 453c cdf3 693d
00000230: 559f d3bc cf15 9ebd bc30 37bd 86f8 40be
00000240: f35b afbd 8276 90bd 2c50 bdbd 0e10 c73a
00000250: c075 0cbd 6347 52bd edb5 2abe 5739 63be
00000260: 340f 5abe 7090 54bd 0fea 97be 5cdd 74bd
00000270: 591a d73d ac3e 323e 390d 293e bee3 a3bd
00000280: 9c1e 123c 2243 91bc 1bb5 d53d c6d8 15be
00000290: ffcb ac3d fa45 13bd 56b4 02be 011e 23bd
000002a0: 3090 453d dddd 1b3d ddff 77bc 8cf3 58bd
000002b0: 076d a8bd 8319 613e 8582 07be c69e 85be
000002c0: 979c 89bd de76 39bf 4fee 473e cf08 c5be
000002d0: 0ad1 cdbc f5a3 94bd 6dc8 cf3c 482f 143a
000002e0: 274a 6ebb 5ab7 b43d e1e3 cf3d a34f 113e
000002f0: f5a8 3f3d f029 d4bc 501e 02bd d416 213d
00000300: a7ef 373e 5027 20bc 5dca 463e d942 ebbd
00000310: 826e 9f3d cd06 3f3d 7b4c 483d b1f8 98bd
00000320: ff33 603c 162d 533b cd02 a1bd 3ed1 633c
00000330: e948 a7bd 8228 603e 6368 863c a0ec 28be
00000340: aef1 02bd ca88 1ebf 2f0a ea3b 5ba3 e73d
00000350: e1df 3d3e 6e99 583e dc96 82bd 776a fbbd
00000360: 1b72 d3bd 1990 9b3d 0e60 a63b 58fb b63d
00000370: f7b8 5fbc bca8 5d3b 2ade 28ba ac76 333d
00000380: ceaa 76bd 2b23 23b9 ea0d 1a3d af96 49bd
00000390: 11e9 ff3c a378 b33d d5e7 343e 5d07 4d3e
000003a0: dd62 ac3e 7f1b efbe 0316 c3be 4e67 f2be
000003b0: 056a d0bf a002 653d 7370 14bd 91ef 693c
000003c0: 58cc 613d 06a4 11bd 668b e8bd ea34 983d
000003d0: 41b2 ec3c 6929 f63d 45c4 c8bb a02d 69bd
000003e0: 68f2 843d e80a 823d 2b28 89bc 9a53 99bd
000003f0: eb36 e63d 4ec3 543e 35e1 9d3d 383b 573e

fc1.bias f4 [64]
-0.0063191475 0.09887186 0.17137475 0.096815564 -0.009111437 -0.012924902 -0.080329 -0.13713531
0.00033934932 -0.031573113 0.063006274 -0.06977421 -0.10700863 0.13497503 -0.13798292 -0.18364912
-0.07957728 -0.19479561 -0.06631981 -0.12772399 0.008955042 0.026789133 -0.08148288 0.1262067
0.015361681 0.010167087 -0.00061759015 0.057933554 0.053274084 -0.09589532 0.04545513 -0.10191963
0.09798179 0.010643791 0.098256886 0.032821342 -0.09828283 0.017902454 0.034425985 -0.00049791724
-0.11868681 9.678087e-05 -0.077080555 -0.068384156 -0.019039014 -0.057710595 -0.12040584 0.026207715
0.057751607 -0.123435795 -0.14770852 0.031907342 -0.04946795 -0.111600146 0.11671375 -0.14144354
0.009772544 -0.060594615 0.10129404 0.01805596 -0.18939686 -0.018123284 -0.027848305 0.10891241
00000000: da10 cfbb 547d ca3d dd7c 2f3e 3d47 c63d
00000010: 2348 15bc f8c2 53bc 8883 a4bd 336d 0cbe
00000020: b2ea b139 cf52 01bd 6f09 813d c8e5 8ebd
00000030: 5727 dbbd e536 0a3e 654b 0dbe 840e 3cbe
00000040: 6af9 a2bd 8078 47be aed2 87bd 14ca 02be
00000050: 2bb8 123c e274 db3c 7fe0 a6bd 543c 013e
00000060: 8faf 7b3c db93 263c c6e5 21ba bc4b 6d3d
00000070: ed35 5a3d c464 c4bd 292f 3a3d 3dbb d0bd
00000080: adaa c83d 4c63 2e3c e83a c93d ac6f 063d
00000090: 8248 c9bd 2ba8 923c 4302 0d3d a986 02ba
000000a0: 1212 f3bd d5f6 ca38 69dc 9dbd fe0c 8cbd
000000b0: b5f7 9bbc f261 6cbd 5697 f6bd 90b1 d63c
000000c0: f38c 6c3d e8cb fcbd e740 17be 46b1 023d
000000d0: e89e 4abd 9e8e e4bd 9e07 ef3d 93d6 10be
000000e0: 051d 203c 0f32 78bd 4073 cf3d 18ea 933c
000000f0: 40f1 41be 4877 94bc 2122 e4bc 780d df3d

fc2.weight f4 [64, 64]
0.07711773 0.17511734 -0.09353241 0.20641083 -0.038159262 0.0058470066 0.049825322 0.1453773
0.034332227 0.123025574 -0.013213121 0.1268067 0.17899007 0.11781034 0.06424845 0.10180581
0.046866883 -0.010216567 0.0054649464 0.028528614 0.14260897 0.24793087 -0.35490286 0.120661534
0.048357997 0.27572265 0.12493901 0.18155229 -0.058415182 0.12040315 -0.026919642 -0.067721926
-0.09047255 0.102021396 0.047025096 0.187472 0.10846111 0.20910105 0.03321352 0.14685114
0.008765506 0.08767639 0.13137801 0.10970943 -0.05815384 -0.22302134 0.119047396 0.12700962
-0.033826303 0.060744926 0.04074907 0.13823974 0.028533166 0.06858526 0.16441764 -0.096181035
0.073914774 -0.013864759 0.018860776 0.2205113 0.101120345 0.040289048 0.40351412 0.14485992
-0.2852258 -0.52662706 0.34327838 0.12746184 0.105273776 -0.22315268 -0.08678901 0.035833556
-0.01146683 -0.021842513 0.0350027 0.09321754 -0.071287215 -0.06685672 -0.0062617185 -0.11885631
0.05982853 -0.23004946 -0.13516897 -0.08081476 0.08718912 -0.00044283105 0.011403631 -0.20539013
-0.25939056 0.05045092 -0.012260799 -0.17608151 -0.40388998 0.10080796 -0.05258022 -0.07936776
-0.10858296 -0.071126655 -0.06308018 -0.08262277 -0.08134088 0.0420065 -0.014235709 0.12192882
-0.09565149 -0.22802371 -0.0027926718 -0.3057613 -0.056315094 -0.24802758 -0.14642201 -0.04220434
0.12717724 0.03448454 -0.45292324 -0.26259476 -0.101817556 0.10682324 -0.05298846 -0.005951405
-0.23308448 -0.070858866 -0.258789 -0.078108 0.106000945 0.18121417 -0.09369679 -0.5550227
0.070480645 0.020055614 0.058571022 -0.09040232 -0.030471275 -0.123907804 0.12833378 0.15134442
0.05726559 -0.05574143 -0.010439252 0.033977684 -0.005814555 0.16142295 0.06595307 -0.031880386
0.1692878 -0.011121084 0.08934443 0.08447959 -0.06713311 0.037906703 -0.02223702 0.121487655
-0.24924822 -0.10119127 0.24603142 -0.13172306 -0.028222442 0.11233221 -0.15784428 0.04237055
0.09967409 0.21375893 -0.11148948 -0.06895722 -0.37862405 0.0046467967 0.02121016 0.083921075
-0.03437146 0.032879416 -0.025684992 0.04551503 0.026594045 -0.40300918 -0.037896376 -0.0607608
0.008874288 -0.25546673 0.06685502 -0.0750562 0.10148352 -0.06700119 0.16872254 0.09212821
-0.016802708 -0.03027129 -0.15990417 0.22290723 -0.04571884 -0.5080107 -0.0047141067 0.097483054
0.08059397 0.18307565 0.11484387 0.08124338 0.051078178 0.012943097 0.19126846 0.027818006
-0.055125147 0.07398014 -0.13311087 0.12877941 -0.041727822 -0.11184742 0.19403245 0.048159856
0.13205793 -0.07782213 0.019179186 0.13321105 -0.03265452 -0.009521651 -0.050281145 -0.059685983
0.18494688 0.19665794 0.18271044 0.03860737 0.026519746 0.06913589 0.2145741 0.0039369366
0.14445703 0.013572392 -0.09076656 0.0055904933 0.12531355 0.107626505 0.060976017 0.11089035
0.18559507 0.09567351 0.08927634 -0.06739793 -0.11208735 -0.39332896 0.011280928 0.18418138
0.24585769 0.086451784 0.0059800684 0.17391981 0.11015691 -0.044152115 0.33168998 -0.14097117
0.0003779631 0.1381933 0.09314849 0.0859356 -0.026327616 0.09919663 0.25059652 0.026685636
00000000: e7ef 9d3d f651 333e ec8d bfbd 5c5d 533e
00000010: e34c 1cbd 3f98 bf3b a315 4c3d c9dd 143e
00000020: f39f 0c3d d5f4 fb3d d97b 58bc 9ed9 013e
00000030: 2c49 373e 8c46 f13d b194 833d 917f d03d
00000040: 7df7 3f3d 6363 27bc 4b13 b33b d7b4 e93c
00000050: 1608 123e 97e1 7d3e d4b5 b5be 651d f73d
00000060: 0913 463d 852b 8d3e 06e0 ff3d d8e8 393e
00000070: c244 6fbd ed95 f63d 9586 dcbc cbb1 8abd
00000080: ac49 b9bd 98f0 d03d 639d 403d a9f8 3f3e
00000090: dc20 de3d 961e 563e e60a 083d 2560 163e
000000a0: 329d 0f3c ae8f b33d f587 063e 56af e03d
000000b0: b932 6ebd b55f 64be 1fcf f33d cf0e 023e
000000c0: 738d 0abd accf 783d 7fe8 263d b88e 0d3e
000000d0: 63be e93c 6e76 8c3d 195d 283e 90fa c4bd
000000e0: a160 973d 0429 63bc ea81 9a3c b7cd 613e
000000f0: 2f18 cf3d 2106 253d 6799 ce3e 2956 143e
00000100: 1e09 92be 08d1 06bf 2fc2 af3e 5b85 023e
00000110: c799 d73d 2382 64be 70be b1bd 35c6 123d
00000120: 5fdf 3bbc 12ef b2bc fe5e 0f3d d6e8 be3d
00000130: 08ff 91bd 2dec 88bd 1a2f cdbb f06a f3bd
00000140: c30e 753d 1692 6bbe bc69 0abe 3582 a5bd
00000150: 3690 b23d c72b e8b9 4cd6 3a3c ca51 52be
00000160: d7ce 84be a0a5 4e3d 85e1 48bc b64e 34be
00000170: abca cebe 6774 ce3d 5b5e 57bd 908b a2bd
00000180: be60 debd daaa 91bd 2e30 81bd 2036 a9bd
00000190: 0c96 a6bd 020f 2c3d e43c 69bc d1b5 f93d
000001a0: eee4 c3bd 0c7f 69be 4205 37bb bf8c 9cbe
000001b0: a8aa 66bd f1fa 7dbe a7ef 15be 75de 2cbd
000001c0: c03a 023e a93f 0d3d 8ee5 e7be d272 86be
000001d0: b985 d0bd 25c6 da3d 6d0a 59bd 0104 c3bb
000001e0: b3ad 6ebe 741e 91bd fe7f 84be 16f7 9fbd
000001f0: 0617 d93d 3590 393e 1ae4 bfbd f815 0ebf
00000200: 2858 903d ac4b a43c 2be8 6f3d da24 b9bd
00000210: e59e f9bc 60c3 fdbd ee69 033e 08fa 1a3e
00000220: 538f 6a3d 2051 64bd 6509 2bbc 2f2c 0b3d
00000230: 0688 bebb 0f4c 253e 6712 873d 0295 02bd
00000240: c859 2d3e 3535 36bc 36fa b63d a303 ad3d
00000250: 157d 89bd 0f44 1b3d 692a b6bc 85ce f83d
00000260: ed3a 7fbe 5e3d cfbd a9ef 7b3e 69e2 06be
00000270: c032 e7bc 6e0e e63d eea1 21be be8c 2d3d
00000280: ee21 cc3d 9fe3 5a3e 9954 e4bd 7139 8dbd
00000290: 03db c1be 2844 983b eec0 ad3c d0de ab3d
000002a0: 17c9 0cbd 91ac 063d 5569 d2bc f86d 3a3d
000002b0: c1db d93c 3857 cebe 3b39 1bbd 51e0 78bd
000002c0: 7665 113c 89cc 82be 49eb 883d 11b7 99bd
000002d0: 97d6 cf3d eb37 89bd 9ac5 2c3e b7ad bc3d
000002e0: d5a5 89bc 7ffb f7bc ebbd 23be cb41 643e
000002f0: ae43 3bbd fd0c 02bf cb78 9abb 32a5 c73d
00000300: 740e a53d 2f78 3b3e 4333 eb3d ee62 a63d
00000310: 5a37 513d 490f 543c e1db 433e 96e2 e33c
00000320: e8ca 61bd e682 973d 374e 08be c0de 033e
00000330: cbea 2abd 4310 e5bd 71b0 463e 4543 453d
00000340: 323a 073e 3561 9fbd ab1d 9d3c 7a68 083e
00000350: bfc0 05bd b300 1cbc 9af3 4dbd 4a79 74bd
00000360: b762 3d3e b360 493e 7218 3b3e c322 1e3d
00000370: f03f d93c 1e97 8d3d 50b9 5b3e 6b01 813b
00000380: 8bec 133e bd5e 5e3c d1e3 b9bd 7530 b73b
00000390: 3252 003e 496b dc3d fdc1 793d 7b1a e33d
000003a0: a20c 3e3e 79f0 c33d 84d6 b63d ed07 8abd
000003b0: 0d8e e5bd 6a62 c9be a4d3 383c 0b9a 3c3e
000003c0: 1ec2 7b3e a20d b13d 73f4 c33b 0918 323e
000003d0: f299 e13d d9d8 34bd 45d3 a93e bf5a 10be
000003e0: 5929 c639 8b82 0d3e a3c4 be3d 01ff af3d
000003f0: 03ad d7bc 9a27 cb3d 304e 803e d69b da3c

fc2.bias f4 [64]
0.25675887 0.06801219 0.18085425 0.29845273 0.12905528 -0.035353273 0.116612464 -0.09598596
-0.024365813 -0.13905556 -0.06384148 0.13451944 -0.0757294 -0.21503796 0.009003138 0.0886338
-0.040403146 -0.1561092 -0.03846846 0.10031772 -0.09887816 -0.15039982 -0.031932082 0.083333224
-0.083496235 0.14639808 0.036656428 -0.047431204 0.053393006 -0.019713137 0.07850175 -0.15394121
-0.081730135 0.08792344 -0.1292039 -0.060770206 -0.031814016 -0.03212086 -0.022637818 -0.009643073
0.057205983 -0.077635445 0.0102031585 -0.01929207 0.015284123 0.24523856 0.03488092 0.13054067
0.11900834 0.11363991 -0.12680031 0.22898832 0.072395295 -0.12593572 -0.016151724 -0.061417412
-0.13403797 0.0036240732 0.019909965 0.10344588 0.017711854 0.035815172 0.09257445 -0.113706
00000000: e675 833e fa49 8b3d db31 393e ccce 983e
00000010: 1127 043e 98ce 10bd 84d2 ee3d 4994 c4bd
00000020: d09a c7bc 9564 0ebe 52bf 82bd 77bf 093e
00000030: 0418 9bbd e932 5cbe e681 133c a385 b53d
00000040: c57d 25bd 17db 1fbe 1b91 1dbd 6073 cd3d
00000050: a280 cabd 6902 1abe 37cb 02bd 9caa aa3d
00000060: 1300 abbd 61e9 153e 0d25 163d 3947 42bd
00000070: a0b2 5a3d 727d a1bc 87c5 a03d c4a2 1dbe
00000080: 2162 a7bd 3411 b43d 074e 04be 2eea 78bd
00000090: 6a4f 02bd 2a91 03bd f272 b9bc fbfd 1dbc
000000a0: d250 6a3d 55ff 9ebd 262b 273c 670a 9ebc
000000b0: 426a 7a3c d11f 7b3e 4cdf 0e3d 74ac 053e
000000c0: a5ba f33d 0bbc e83d f1d7 01be ea7b 6a3e
000000d0: fc43 943d 4bf5 00be 9f50 84bc d390 7bbd
000000e0: 4041 09be dc81 6d3b 391a a33c 6fdb d33d
000000f0: 7318 913c eeb2 123d ac97 bd3d b1de e8bd

value_stream.weight f4 [1, 64]
0.23213986 -0.2261417 0.2704062 0.2619082 0.096484 -0.138355 0.3274466 0.16283982
0.03165393 -0.122848995 0.2892482 0.050072987 -0.19324908 -0.18060006 0.14090343 0.18275599
0.23811245 -0.29012135 0.17938833 0.33502594 -0.09208728 -0.026100697 0.11435015 0.121504925
-0.194404 0.2931369 0.20077026 -0.16008429 0.19758981 0.11897111 -0.007039723 0.0488652
-0.3114867 0.08811111 -0.03792617 0.0654814 0.37905926 0.20941181 -0.159124 0.33454672
0.18682265 -0.0098413285 0.058036335 -0.08520785 0.16280769 0.19227032 0.36441463 0.11853097
0.19713365 -0.0478184 -0.07837979 0.1818615 0.08245868 -0.13717394 -0.07939985 -0.031168722
0.44993377 0.3249546 0.2575674 0.0143595245 -0.5882863 0.18857604 0.047062762 -0.089601435
00000000: 12b6 6d3e b191 67be ae72 8a3e d518 863e
00000010: 6799 c53d efac 0dbe 15a7 a73e 7bbf 263e
00000020: 8da7 013d 4198 fbbd 5718 943e 5519 4d3d
00000030: 16e3 45be 39ef 38be fd48 103e 6324 3b3e
00000040: c0d3 733e c98a 94be 93b1 373e 8588 ab3e
00000050: 4198 bcbd 21d1 d5bc 6930 ea3d 93d7 f83d
00000060: d811 47be 0a16 963e b896 4d3e 23ed 23be
00000070: fc54 4a3e 20a7 f33d 7aad e6bb e026 483d
00000080: 2f7b 9fbe 9973 b43d 7958 1bbd 1d1b 863d
00000090: 0e14 c23e 0d70 563e 67f1 22be b549 ab3e
000000a0: 704e 3f3e 863d 21bc 82b7 6d3d 7481 aebd
000000b0: 0fb7 263e 83e2 443e 8e94 ba3e 5dc0 f23d
000000c0: 67dd 493e 3add 43bd 9585 a0bd e739 3a3e
000000d0: 19e0 a83d 5377 0cbe 639c a2bd 8c55 ffbc
000000e0: b85d e63e 7360 a63e e0df 833e 3644 6b3c
000000f0: ee99 16bf 141a 413e e2c4 403d f580 b7bd

advantage_stream.weight f4 [4, 64]
-0.0752202 0.24027121 0.15875329 0.05695675 -0.0003952695 -0.021419568 0.087163135 0.045637827
0.017566813 0.008775307 -0.03613833 -0.21192163 -0.026705459 0.05292444 -0.13934645 -0.023760844
0.027525255 -0.03814743 -0.003798795 -0.06045621 -0.1685262 -0.24696547 -0.22371377 -0.040447105
-0.49977553 0.17138691 -0.03460983 -0.1662514 -0.09785472 -0.006850673 -0.24858445 0.008379977
-0.051454123 0.08041327 -0.0772124 -0.04906858 0.24496716 -0.08616355 -0.109306246 0.07048148
0.044299234 0.06024697 -0.059270952 -0.15306565 0.09062764 0.06022469 -0.010689412 0.004678359
0.27812725 -0.32716468 0.12685998 0.24726644 -0.0728184 -0.29602364 -0.09560434 -0.2835794
0.12785023 0.38072923 -0.030193394 0.072343804 0.27203473 -0.18326324 0.030985143 -0.097918764
0.0006828572 0.19319555 0.10301169 -0.0990432 -0.04978306 -0.07899987 0.08264117 -0.24488854
-0.23722534 -0.12958479 0.0501576 -0.079938345 -0.0690217 -0.038704906 -0.10848422 0.07893792
0.13617602 -0.018828558 0.06744271 0.076497756 0.008857279 -0.19018452 -0.087617256 -0.05753807
-9.6031865e-05 0.10552806 -0.12652205 -0.12989144 -0.09952446 -0.028837709 -0.05494649 -0.04556848
-0.060211405 0.14124231 -0.0074116997 0.018810427 0.0948597 -0.09533876 -0.104804724 -0.044511132
0.19819061 0.06961296 -0.031556036 -0.19478174 0.13259107 0.021034151 0.095819905 -0.016854988
0.06252045 -0.13218279 -0.265456 0.05252054 0.033621997 -0.15999094 0.02937286 0.23943663
0.4146691 -0.0044308803 0.03560651 -0.18295255 -0.20268248 0.048447188 -0.013964206 0.15403678
-0.10160245 -0.3341436 -0.051520605 -0.010940067 -0.15829223 -0.260994 0.004528006 0.063454024
0.3748886 -0.0014860731 0.2635073 -0.21053597 -0.007163881 0.24402441 0.06468115 0.1398212
-0.17103131 -0.103523366 0.15110691 -0.14753652 -0.09599601 0.22965282 0.034746006 0.0147752585
0.23995532 0.087516814 0.13879806 -0.2063161 0.11673232 -0.022006204 0.034655288 0.057338648
-0.21252912 0.0013353194 -0.09235619 0.3077007 0.019492235 0.107116245 -0.06828135 -0.061928116
0.2861748 -0.0077429935 0.139064 -0.2513671 -0.3865652 0.03373982 0.20485835 -0.12498443
-0.057007574 -0.1860938 0.45577437 -0.13320348 -0.116975315 -0.0605511 -0.062215358 -0.06757443
0.49624094 0.13327831 -0.07871056 -0.024435794 0.050881073 0.32894084 -0.24161969 -0.2261737
0.017513087 -0.19351664 -0.041506674 -0.052817218 0.10203444 0.03158623 0.07657151 0.115097344
-0.06738386 0.110216334 0.20507708 0.106705956 -0.164692 -0.38561627 0.005739624 0.054375805
0.23983513 0.050185356 -0.060199086 0.2550097 -0.0782491 -0.11165549 0.21240525 -0.12683572
-0.14864759 0.069973074 0.09775078 -0.10411148 0.09919673 -0.12777744 -0.19817747 0.0055084443
-0.10375443 -0.13241251 -0.079316854 -0.16829053 0.36122394 0.26095805 -0.20607641 0.21940416
-0.071493946 -0.09345126 -0.09925344 -0.19339584 0.035177615 -0.012653664 -0.029526932 -0.08793011
0.034468655 0.030027183 -0.13996749 -0.028582092 -0.04503151 -0.16042335 0.07423299 -0.2978529
-0.47722986 0.09542968 0.08131363 -0.17732848 -0.3232152 0.1168314 0.0011777945 0.23826873
00000000: 0c0d 9abd a809 763e 3990 223e 7b4b 693d
00000010: 2d3c cfb9 1778 afbc 9682 b23d bbee 3a3d
00000020: 47e8 8f3c 4ec6 0f3c c905 14bd fc01 59be
00000030: 68c5 dabc 4cc7 583d d6b0 0ebe 1aa6 c2bc
00000040: a57c e13c 7b40 1cbd 34f5 78bb eea0 77bd
00000050: 2292 2cbe 84e4 7cbe 3915 65be ddab 25bd
00000060: 94e2 ffbe 0d80 2f3e 09c3 0dbd cf3d 2abe
00000070: 0e68 c8bd 9c7b e0bb ec8c 7ebe 2c4c 093c
00000080: 8fc1 52bd b6af a43d 8921 9ebd 23fc 48bd
00000090: acd8 7a3e 8476 b0bd f4db dfbd 9858 903d
000000a0: 1d73 353d 87c5 763d 19c6 72bd 3ebd 1cbe
000000b0: fc9a b93d 2aae 763d a522 2fbc eb4c 993b
000000c0: b266 8e3e 2182 a7be 95e7 013e 6a33 7d3e
000000d0: d021 95bd 6990 97be 35cc c3bd 5231 91be
000000e0: 2ceb 023e f1ee c23e 2358 f7bc fd28 943d
000000f0: 2348 8b3e 5ca9 3bbe 8ed4 fd3c a289 c8bd
00000100: c501 333a 0ed5 453e cbf7 d23d 29d7 cabd
00000110: 52e9 4bbd afca a1bd c63f a93d 10c4 7abe
00000120: 33eb 72be e0b1 04be 0e72 4d3d b7b6 a3bd
00000130: 405b 8dbd 0989 1ebd fa2c debd 34aa a13d
00000140: ba71 0b3e 593e 9abc 671f 8a3d dbaa 9c3d
00000150: 1f1e 113c bbbf 42be ad70 b3bd 0aad 6bbd
00000160: b764 c9b8 181f d83d ff8e 01be 4302 05be
00000170: 7bd3 cbbd 0f3d ecbc 920f 61bd 04a6 3abd
00000180: 3ca0 76bd d3a1 103e d8dd f2bb 5318 9a3c
00000190: cd45 c23d f840 c3bd dca3 d6bd 4e51 36bd
000001a0: 7bf2 4a3e 3d91 8e3d e740 01bd dd74 47be
000001b0: f4c5 073e d04f ac3c 3a3d c43d 7913 8abc
000001c0: b90a 803d ed5a 07be d9e9 87be c71f 573d
000001d0: 38b7 093d aad4 23be 5a9f f03c e02e 753e
000001e0: 824f d43e eb30 91bb 22d8 113d ea57 3bbe
000001f0: ff8b 4fbe 8f70 463d 20ca 64bc d1bb 1d3e
00000200: f214 d0bd df14 abbe 4507 53bd f73d 33bc
00000210: 5c17 22be 01a1 85be ab5f 943b 2ff4 813d
00000220: 66f1 bf3e 57c8 c2ba 6eea 863e be96 57be
00000230: fdbe eabb 89e1 793e 8d77 843d 4a2d 0f3e
00000240: d522 2fbe 0f04 d4bd c5bb 1a3e d013 17be
00000250: 8e99 c4bd 1c2a 6b3e d451 0e3d ed13 723c
00000260: d9b6 753e 043c b33d 1421 0e3e 8744 53be
00000270: 5b11 ef3d 5b46 b4bc b4f2 0d3d eedb 6a3d
00000280: 3ca1 59be e205 af3a 3e25 bdbd f28a 9d3e
00000290: 2eae 9f3c c35f db3d 18d7 8bbd 56a8 7dbd
000002a0: 8185 923e f0b8 fdbb cb66 0e3e 30b3 80be
000002b0: e0eb c5be c432 0a3d 63c6 513e d6f7 ffbd
000002c0: c680 69bd 608f 3ebe 425b e93e 7e66 08be
000002d0: c190 efbd 6e04 78bd 88d5 7ebd 7664 8abd
000002e0: 4b13 fe3e 1c7a 083e 0133 a1bd 932d c8bc
000002f0: ac68 503d ef6a a83e 276b 77be 149a 67be
00000300: 9b77 8f3c 3a29 46be e702 2abd de56 58bd
00000310: 6ff7 d03d 9060 013d 86d1 9c3d 28b8 eb3d
00000320: 8d00 8abd 1ab9 e13d baff 513e a788 da3d
00000330: 05a5 28be 7f6f c5be 7513 bc3b 2ab9 5e3d
00000340: 5797 753e 298f 4d3d 5193 76bd a290 823e
00000350: 1041 a0bd a2ab e4bd c380 593e 39e1 01be
00000360: 1337 18be 0b4e 8f3d 9031 c83d 6638 d5bd
00000370: a827 cb3d 17d8 02be 09ef 4abe 2e80 b43b
00000380: 347d d4bd 2597 07be e070 a2bd 5a54 2cbe
00000390: 58f2 b83e 4b9c 853e b205 53be 7cab 603e
000003a0: 6b6b 92bd 6063 bfbd 6345 cbbd 8f09 46be
000003b0: 6716 103d 5051 4fbc 77e2 f1bc b414 b4bd
000003c0: 012f 0d3d 91fb f53c a353 0fbe fe24 eabc
000003d0: f672 38bd 0546 24be 7707 983d 2d80 98be
000003e0: 7957 f4be a370 c33d c387 a63d 9995 35be
000003f0: 767c a5be 4d45 ef3d 3a60 9a3a b8fc 733e

advantage_stream.bias f4 [4]
-0.031366568 -0.038189627 0.052114077 -0.047885742
00000000: 3b7a 00bd ba6c 1cbd 9275 553d d723 44bd
