p3_collab-compet/checkpoint_actor.pth (torch_old, 66956 bytes, 12 tensors)

fc1.weight f4 [100, 24]
0	0x3f0b5953	0.5443317
1	0x3f16f9e0	0.5897503
2	0x3bca06f2	0.0061653787
3	0xbe937467	-0.28799745
4	0xbecec29f	-0.4038286
5	0xbf66ea94	-0.9020169
6	0xbc8848f9	-0.016636359
7	0xbea81b62	-0.3283339
8	0x3ef691d0	0.4815812
9	0x3f05a73a	0.5220829
10	0x3e79a4fc	0.24379343
11	0xbcdc8409	-0.026918428
12	0xbeb88711	-0.36040547
13	0xbf8f313a	-1.1186898
14	0x3e93f817	0.28900215
15	0x3b19078a	0.002335044
16	0x3edbe159	0.42945364
17	0x3ed7bbca	0.4213546
18	0x3dc6d634	0.09708825
19	0xbea73517	-0.32657692
20	0xbeacd914	-0.33759367
21	0xbf126b39	-0.5719486
22	0x3d7ceacc	0.061747357
23	0xbe5506f0	-0.20803428
24	0xbeb8c202	-0.36085516
25	0x3f3eb83a	0.7449986
26	0xbd54a42d	-0.051914383
27	0x3f37ff8a	0.71874297
28	0xbf09f5bc	-0.53890586
29	0xbf08439f	-0.5322818
30	0x3c763362	0.015026899
31	0x3f440a9d	0.76578695
32	0x3d922ff3	0.07138052
33	0x3f924710	1.1427937
34	0xbd10279d	-0.03519403
35	0x3e278b07	0.16361628
36	0x3e6728b9	0.22574128
37	0xbffc3b78	-1.9705648
38	0xbe2eb5d2	-0.17061546
39	0x3e8082e4	0.25099862
40	0xbcdede68	-0.027205661
41	0x3f91ccc6	1.1390617
42	0xbdc1b1b8	-0.09457725
43	0x3eb5a5ea	0.35478145
44	0x3e94fd5e	0.29099554
45	0xc0475c0f	-3.1149938
46	0xbc905c03	-0.017622
47	0x3ed7cd74	0.42148936
48	0x3e4d727b	0.20063202
49	0x3f2d0d74	0.6759865
50	0xbee7dc05	-0.4528505
51	0x3d9127a1	0.07087637
52	0x3ed9e520	0.4255762
53	0xbeb433ba	-0.35195714
54	0xbef325d2	-0.47489792
55	0x3dfd92d8	0.12381524
56	0x3eb92615	0.36161867
57	0x3eefa528	0.46805692
58	0x3e957024	0.2918712
59	0xbeed6f02	-0.46373755
60	0x3ef00516	0.4687888
61	0xbda2fe3a	-0.07958646
62	0x3e0e31a8	0.1388613
63	0xbf09fc04	-0.5390017
64	0x3ebc0c38	0.36728072
65	0x3f0a385f	0.53992265
66	0xbdd92890	-0.1060344
67	0xbe83fb70	-0.2577777
68	0x3ed792db	0.4210423
69	0x3d73a7da	0.059486248
70	0x3d3f2a3e	0.046671145
71	0xbec42a66	-0.38313597
72	0xbe1280ad	-0.14306898
73	0xbf09ff7f	-0.5390548
74	0x3bdd3859	0.006751102
75	0xbeefabcd	-0.4681076
76	0x3dc2e861	0.09516979
77	0x3e0fe930	0.14053798
78	0x3da70045	0.08154348
79	0xbedc2839	-0.42999437
80	0xbd516017	-0.05111703
81	0xbf0873df	-0.53301805
82	0xbf8fd6e4	-1.1237454
83	0xbe09e66d	-0.13466807
84	0x3d6d9468	0.05800286
85	0x3ebf6ea4	0.373891
86	0xbf9bbb90	-1.2166615
87	0xbe6a0db3	-0.22856788
88	0xbe0c7ab5	-0.13718684
89	0xbea73708	-0.32659173
90	0xbe2f3d67	-0.17113267
91	0xbe3d6065	-0.18493803
92	0x3e3428fc	0.1759376
93	0x3ea9f9bd	0.33198348
94	0xbc3b7a23	-0.011442694
95	0xbd6c7b4a	-0.057734765
96	0x3f6e958e	0.9319695
97	0x3f00fd49	0.5038648
98	0x3e5fd5f0	0.21858954
99	0xbe8b232a	-0.27175266
100	0x3e7327c9	0.23745646
101	0xbf5710b7	-0.8400988
102	0x3e297510	0.16548562
103	0xbe567c0a	-0.20945755
104	0x3f30826a	0.68948996
105	0x3ecdad40	0.40171242
106	0xbd89b41a	-0.06723805
107	0xbe33bed5	-0.17553265
108	0x3eabf61e	0.3358621
109	0xbf1a3c22	-0.60248005
110	0x3d0dc603	0.034612667
111	0xbe4fb169	-0.2028252
112	0x3eaa085e	0.3320951
113	0x3ebdc637	0.37065288
114	0xbe7cdc5d	-0.24693437
115	0x3e5bd242	0.21466926
116	0x3ee23ddc	0.4418782
117	0xbe9f4146	-0.31104487
118	0xbe7a2858	-0.24429452
119	0x3e7054f5	0.23469909
120	0x3f39a118	0.72511435
121	0x3e146b48	0.1449405
122	0xbd77b72e	-0.06047743
123	0x3e7527aa	0.23940912
124	0xbe5ba2ea	-0.21448866
125	0xbed5f70a	-0.41790038
126	0xbdb614c2	-0.08890678
127	0x3e77ed97	0.24211727
128	0x3eee9f8d	0.46606103
129	0xbdde54b8	-0.108560026
130	0x3ee679f7	0.45014927
131	0x3eeb2cbc	0.45932567
132	0xbea27cbe	-0.31735796
133	0xbecd6973	-0.40119514
134	0x3e8ca604	0.2747041
135	0x3ef5a76a	0.4797929
136	0x3ed4ab1d	0.415368
137	0xbc82b1bd	-0.015953893
138	0xbec07f80	-0.37597275
139	0x3eb59dd0	0.35471964
140	0xbe1d4c4e	-0.15361139
141	0xbeaddb49	-0.33956364
142	0xbedc07e9	-0.42974785
143	0x3eac0d17	0.33603737
144	0x3ee2b376	0.44277543
145	0xbe9c2138	-0.30494094
146	0x3d140576	0.03613802
147	0xbf6522ba	-0.89506114
148	0x3fb871b9	1.4409705
149	0xbf182035	-0.59424144
150	0x3de5cd0e	0.11220752
151	0xbf4e73f9	-0.8064571
152	0x3e9707a1	0.29498008
153	0xbf217f8c	-0.63085246
154	0x3ec209f6	0.37898225
155	0xbf0fd3e6	-0.56182706
156	0x3f86f469	1.0543338
157	0xbd91c7cc	-0.07118186
158	0x3e88ba79	0.26704767
159	0xbf0e2258	-0.55521154
160	0xbd124b5c	-0.0357164
161	0xbf289f9d	-0.6586855
162	0xbe52742e	-0.20552132
163	0x3e321d0c	0.17393893
164	0x3f2b7708	0.669785
165	0x3ec81f5b	0.39086422
166	0xbd03b86b	-0.032158297
167	0x3e2922fd	0.16517253
168	0x3f0535ce	0.52035224
169	0xbe974e36	-0.29551858
170	0xbda6654a	-0.08124788
171	0xbf69da00	-0.91348267
172	0x3e6ccbf9	0.23124684
173	0x3e9c878a	0.30572158
174	0xbda72bf4	-0.0816268
175	0xbf76343f	-0.9617347
176	0x3e9f1f20	0.31078434
177	0xbf2c2678	-0.672462
178	0x3ddc4768	0.10755807
179	0xbecb67fa	-0.39727765
180	0xbf332fd6	-0.69994867
181	0x3f97467b	1.1818384
182	0x3ceec5f6	0.02914713
183	0xbef1a299	-0.47194365
184	0x3dc5e43f	0.09662675
185	0xbf5d9c4f	-0.86566633
186	0xbe9121f3	-0.28346214
187	0xbf0c94a1	-0.5491429
188	0xbf8743ce	-1.0567567
189	0x3fa106b1	1.2580167
190	0xbe71c29c	-0.23609394
191	0xbef8aa39	-0.4856737
192	0xbee0c958	-0.43903613
193	0x3f94b318	1.1617155
194	0x3caae49e	0.020860966
195	0x3f52b9ac	0.8231456
196	0x3f1da9c3	0.6158716
197	0x3ecc8797	0.39947197
198	0x3cc31346	0.023812901
199	0x3f50f6c8	0.8162656
200	0xbf23f612	-0.6404735
201	0x3f86039f	1.0469855
202	0xbcd786f0	-0.02630946
203	0x3f0ffa1c	0.5624101
204	0x3f8bd980	1.0925751
205	0x3f63f14a	0.8904005
206	0xbd2a7100	-0.04161167
207	0x3f03b908	0.5145421
208	0xbf009c63	-0.5023863
209	0x3f59eed5	0.85130054
210	0x3c6cc486	0.014451152
211	0xbe0be91b	-0.13663141
212	0x3fad0df0	1.3519878
213	0x3f8c5ea5	1.0966383
214	0xbcf743ce	-0.030183699
215	0xbdef8877	-0.116959505
216	0xbc5d4151	-0.013504342
217	0x3f45fdac	0.773402
218	0x3e9ca319	0.30593184
219	0x3f815bea	1.0106175
220	0xbe838a5f	-0.25691506
221	0xbea3307d	-0.3187293
222	0x3e8960b5	0.26831594
223	0x3f8e8122	1.1133158
224	0xbcf06d7a	-0.029349077
225	0x3f6a56fb	0.9153897
226	0x3c3e4f95	0.0116156535
227	0x3f41de2e	0.75729644
228	0xbd950bdf	-0.07277655
229	0xbf84a136	-1.0361698
230	0x3d19ea27	0.03757682
231	0x3f4a8be6	0.7911972
232	0xbe71bec6	-0.2360793
233	0x3f80cb30	1.0062008
234	0xbebb937c	-0.3663596
235	0x3f4da67c	0.8033216
236	0x3e4fe97c	0.20303911
237	0xbfb35179	-1.4009238
238	0xbeb5d0be	-0.3551082
239	0x3f31a5ca	0.693936
240	0xbe15eaa7	-0.14640294
241	0xbe025ef5	-0.12731536
242	0x3c9be019	0.019027757
243	0xbf733154	-0.94997144
244	0x3faff7c4	1.3747487
245	0x3e2a10f1	0.16608025
246	0x3d8e264f	0.069409005
247	0xbf80d5c0	-1.0065231
248	0xbd7b2f69	-0.06132451
249	0xbc6f24c2	-0.014596166
250	0x3dbede45	0.09319738
251	0xbf0d9255	-0.5530141
252	0x3fae5514	1.3619714
253	0x3f21dd08	0.6322789
254	0x3ddb0c46	0.106957
255	0xbee74fd8	-0.45178103

fc1.bias f4 [100]
0	0xbf3172dd	-0.6931589
1	0xbf175bfc	-0.5912473
2	0xbe48da83	-0.19614606
3	0x3ecd7458	0.40127826
4	0xbe5c6de0	-0.21526289
5	0xbf01bca9	-0.506785
6	0xbe51b2d4	-0.20478374
7	0x3d508e48	0.05091694
8	0xbe0b3d1b	-0.13597529
9	0xbeec86b0	-0.46196508
10	0xbd999c3f	-0.07500505
11	0xbe01a237	-0.12659536
12	0xbf50a3f8	-0.81500196
13	0xbcbb223e	-0.022843476
14	0xbefce9d9	-0.49397162
15	0xbeecda90	-0.462605
16	0xbec2f76a	-0.38079387
17	0xbe95fc64	-0.2929412
18	0xbf3b3720	-0.7313099
19	0xbccce838	-0.025013074
20	0xbcd3d998	-0.025860593
21	0xbe001b37	-0.12510382
22	0xbf03d672	-0.5149909
23	0xbd7f4cbd	-0.062329043
24	0xbddcf632	-0.107891455
25	0xbf620c3a	-0.88299906
26	0x3e354941	0.17703725
27	0xbecb82ef	-0.39748332
28	0xbeee9de3	-0.46604833
29	0x3ef0f224	0.4705974
30	0xbf304899	-0.68860775
31	0xbf094535	-0.53621227
32	0x3b6b46bc	0.0035900315
33	0xbd098dbf	-0.033582445
34	0xbdb9623b	-0.09051939
35	0x3d861128	0.06546241
36	0xbe4c6034	-0.19958574
37	0xbdaefef4	-0.08544722
38	0x3ee1ae3c	0.44078243
39	0x3c0626f5	0.008187999
40	0xbe676948	-0.22598755
41	0x3e91337e	0.28359598
42	0xbeea777e	-0.4579429
43	0xbf0a9ca8	-0.5414529
44	0xbec675b7	-0.38761684
45	0x3cc461c2	0.023972396
46	0x3da8761e	0.08225654
47	0xbd63a3d1	-0.05557615
48	0xbec5a4a3	-0.3860217
49	0xbee06252	-0.43825012
50	0xbea1f362	-0.31631
51	0xbf13f0a0	-0.5778904
52	0xbe7d5400	-0.24739075
53	0xbe3c1d11	-0.18370463
54	0xbeb2c53c	-0.34916103
55	0x3ced1234	0.028939344
56	0xbe6c58ed	-0.23080797
57	0xbe26b764	-0.16280895
58	0xbce9a316	-0.028520148
59	0xbda4a8fa	-0.08040042
60	0xbe984f05	-0.29747787
61	0xbf0b2993	-0.5436031
62	0xbd058f2f	-0.032607254
63	0xbf341630	-0.70346355
64	0xbd2656dd	-0.040610183
65	0xbf51ab8c	-0.81902385
66	0xbecf6878	-0.4050939
67	0x3bf1c26d	0.0073779137
68	0xbe6635f4	-0.22481519
69	0xbf058eec	-0.52171206
70	0xbf5aceba	-0.8547169
71	0xbeb03a73	-0.34419593
72	0xbdc6f7af	-0.09715211
73	0xbe455960	-0.19272375
74	0x3e246272	0.16053179
75	0xbee0dbb5	-0.43917623
76	0xbee09007	-0.43859884
77	0x3e155b60	0.14585638
78	0xbf20ff3c	-0.62889457
79	0xbf4a7356	-0.7908224
80	0xbf27ea5f	-0.65591997
81	0x3d47329e	0.048632257
82	0xbf3cbd0d	-0.7372597
83	0x3e9775b1	0.2958198
84	0xbf561546	-0.8362621
85	0xbf183a2c	-0.59463763
86	0xbdc74346	-0.09729628
87	0xbe743e65	-0.23851927
88	0x3f0178e4	0.5057509
89	0x3e1000b7	0.14062773
90	0xbf465e32	-0.7748748
91	0xbeb20bd4	-0.3477465
92	0x3d885689	0.0665713
93	0x3d8b7a04	0.06810382
94	0x3db74329	0.08948357
95	0x3d89a0aa	0.06720097
96	0xbe7ee3f0	-0.24891639
97	0xbeed977c	-0.46404636
98	0x3e974dd2	0.2955156
99	0xbf049112	-0.5178386

bn1.weight f4 [100]
0	0x3f186aab	0.5953776
1	0x3fc55439	1.5416328
2	0x3e500e4c	0.20317954
3	0xbdc8e51b	-0.098093234
4	0x3e46a385	0.19398315
5	0xbe84d481	-0.25943378
6	0x3e4f4f22	0.2024503
7	0x3fa3b5bb	1.2789835
8	0x3ec661ab	0.3874639
9	0xbdda511f	-0.10660004
10	0x3ec9bc9c	0.3940171
11	0x3fbf8e73	1.4965347
12	0x3e9a527d	0.3014106
13	0x3f1c83f7	0.6113886
14	0xbdbc18a6	-0.09184389
15	0x3dabf97a	0.08397193
16	0x3e94c65f	0.29057595
17	0xbcbd0329	-0.023072796
18	0x3ee9c71e	0.45659727
19	0x3ea8e5e1	0.32987884
20	0x3cdf56fd	0.027263159
21	0x3f95880d	1.1682144
22	0xbed85aae	-0.42256683
23	0x3f632957	0.88734955
24	0x3bc28174	0.005935842
25	0x3f5bb4e6	0.85822904
26	0x3dd42b30	0.103598
27	0x3febe036	1.8427799
28	0xbd7e1a9d	-0.0620371
29	0x3ee2d710	0.44304705
30	0x3f2f8cb9	0.685741
31	0x3c4f690e	0.012659324
32	0xbb5c4b42	-0.0033614193
33	0x3f91252d	1.133947
34	0x3f545328	0.82939386
35	0xbd6f3809	-0.05840305
36	0x3f6aefa3	0.91771907
37	0xbc87e39f	-0.01658803
38	0x3d977574	0.07395449
39	0x3d8d4c8b	0.06899365
40	0x3f0671fb	0.5251767
41	0x3e9da023	0.30786237
42	0x3cf3d4d5	0.029764572
43	0x3f05db4a	0.52287734
44	0x3dd520f1	0.10406674
45	0xbc843b0b	-0.016141435
46	0x3d18800d	0.037231494
47	0x3ed64e88	0.4185679
48	0x3f5c4d93	0.8605587
49	0xbc2fff41	-0.01074201
50	0x3f3f2687	0.74668163
51	0x3f0673b4	0.525203
52	0x3ef6b733	0.48186645
53	0x3ebbe9f3	0.36701927
54	0x3e9b0568	0.30277562
55	0x3fccc6af	1.5998133
56	0x3e81f41a	0.25381547
57	0x3d26813c	0.04065059
58	0x3f708d9f	0.93966097
59	0x3eed7773	0.46380195
60	0x3f8869ee	1.0657327
61	0x3e51225a	0.2042326
62	0x3f82eaf8	1.0227957
63	0x3f2a1dce	0.6645173
64	0xba97deca	-0.0011586782
65	0xbe8cf9ba	-0.27534276
66	0x3ed4f74e	0.41594929
67	0x3e08f44d	0.13374443
68	0x3eb4ce7d	0.35313788
69	0xbe8281a9	-0.25489548
70	0x3f330c34	0.69940495
71	0x3f3514cb	0.7073485
72	0x3db54aad	0.08852134
73	0x3ecb6fcf	0.3973374
74	0x3f923943	1.1423725
75	0x3c8448ec	0.016148053
76	0xbe644d52	-0.2229512
77	0x3e207fd2	0.1567376
78	0x3c191c52	0.009345131
79	0x3eb10609	0.34574917
80	0x3f11631d	0.5679186
81	0x3f92a922	1.1457865
82	0xbd07882c	-0.033088848
83	0x3d741d48	0.059598237
84	0x3e2a97ca	0.16659465
85	0x3f269ce6	0.6508316
86	0x3f8ebc1b	1.1151155
87	0x3e03f232	0.12885359
88	0x3e9ff2f3	0.31240043
89	0x3f2f7f94	0.68554044
90	0x3cf9f4f9	0.03051232
91	0x3f018ac6	0.50602376
92	0x3ca63145	0.020287165
93	0x3e3992d1	0.18122412
94	0x3e9d6cf6	0.30747193
95	0x3f18d5b2	0.59701073
96	0x3ec95c00	0.39328003
97	0x3e8428de	0.2581243
98	0x3f1cb6ec	0.61216617
99	0x3e54a92a	0.20767656

bn1.bias f4 [100]
0	0xbe49c682	-0.19704631
1	0x3bfe6680	0.007763684
2	0xbac93ba8	-0.0015352862
3	0xbd6a0904	-0.057137504
4	0x3ea64968	0.3247788
5	0xbc8b8a8a	-0.017033834
6	0x3eb44fe7	0.3521721
7	0xbe228aa1	-0.15873195
8	0x3e9d4a68	0.3072083
9	0x3adaa1af	0.0016680266
10	0x3e88fcb3	0.26755294
11	0x3e2d0c65	0.1689926
12	0x3ccd561a	0.02506547
13	0x3d4ec4f9	0.050480817
14	0xbe0014e3	-0.12507968
15	0x3c33a002	0.010963442
16	0x3e09e4d8	0.13466203
17	0x3b859a62	0.0040772418
18	0xbe9d816d	-0.30762807
19	0xbb1d57b0	-0.0024008565
20	0xbce0ea09	-0.027455347
21	0xbd3cf026	-0.04612746
22	0xbcb65df4	-0.022261597
23	0x3e2da680	0.16958046
24	0xb8af8598	-8.369534e-05
25	0x3eebbfbf	0.46044728
26	0xbe8957cd	-0.268248
27	0x3d223801	0.03960419
28	0x3cc29a51	0.023755224
29	0x3ee93550	0.45548487
30	0xbeca315d	-0.39490786
31	0x3c429ae0	0.011877745
32	0x3c213d1d	0.009841231
33	0xbe792690	-0.24331117
34	0x3d66282f	0.056190666
35	0xbac32d50	-0.0014890824
36	0xbdacb301	-0.0843258
37	0x3af8602d	0.0018949561
38	0x3ef8a538	0.48563552
39	0x3d0e328a	0.034716167
40	0xbde68bf2	-0.11257161
41	0xbe3b8e3f	-0.18315981
42	0x3c0a17a0	0.008428484
43	0xbd5582ed	-0.052126814
44	0x3d847501	0.06467629
45	0x3e26bb69	0.16282429
46	0x3edb0154	0.4277445
47	0x3eb92e9e	0.3616838
48	0xbe7df306	-0.24799737
49	0xbbdb3f6d	-0.0066909106
50	0x3b9ab6ce	0.004721499
51	0x3c9d7187	0.019219173
52	0xbeab881d	-0.33502284
53	0xbeb4a958	-0.3528545
54	0xbe0600c9	-0.13086237
55	0x3dc9f927	0.09861975
56	0x3e000b05	0.12504204
57	0x3bc6fb23	0.0060724183
58	0x3db5afd1	0.08871425
59	0x3eaa1452	0.33218628
60	0x3da8bcad	0.08239112
61	0x3d5b907e	0.053604595
62	0x3e1b681f	0.15176438
63	0xbf27357b	-0.6531598
64	0xbcaf4972	-0.021397326
65	0x3c227a28	0.00991682
66	0x3ecb0312	0.3965078
67	0x3d44ac6a	0.04801599
68	0x3cbb6663	0.02287597
69	0x3c03fe3e	0.0080562215
70	0x3ebfb738	0.37444472
71	0xbdedf2bf	-0.11618566
72	0xbb209745	-0.0024504226
73	0x3d6f24a8	0.058384567
74	0xbf03233c	-0.5122564
75	0x3cb6cc37	0.022314174
76	0xbe844769	-0.25835732
77	0xbe4ca867	-0.19986115
78	0x3d929df7	0.07159036
79	0xbc642a0d	-0.013926041
80	0xbdc0d043	-0.09414723
81	0x3d494159	0.049134586
82	0xbc6c9992	-0.014440911
83	0xbd2a24e9	-0.041539107
84	0xbeada417	-0.33914253
85	0xbe48e2de	-0.19617793
86	0xbe9efc49	-0.31051853
87	0x3c8f3043	0.017479068
88	0xbe138272	-0.1440523
89	0x3e8ef55d	0.27921572
90	0x3d2d9036	0.04237386
91	0x3bdd846f	0.006760172
92	0xbcb51b72	-0.022107814
93	0xbea14cea	-0.31503993
94	0xbee9e08b	-0.45679125
95	0xbdeaea3f	-0.1147046
96	0x3eb696b7	0.3566186
97	0xbc6c2b2d	-0.014414591
98	0x3d66241b	0.056186777
99	0x3ccfef3d	0.025382632

bn1.running_mean f4 [100]
0	0x4057082c	3.3598738
1	0x3d94368b	0.07236966
2	0x3f9249f7	1.1428822
3	0x41559ca1	13.3507395
4	0x3f93e0c9	1.1552974
5	0x402f73c6	2.7414412
6	0x41863668	16.776566
7	0x40b1b972	5.5538874
8	0x410ac379	8.672723
9	0x4065e507	3.5921037
10	0x41598e8b	13.597301
11	0x40bf8a44	5.985628
12	0x00000004	6e-45
13	0x4096bc1c	4.7104626
14	0x3ef480d0	0.47754526
15	0x3fe6c64b	1.8029264
16	0x3f39ca80	0.72574615
17	0x3fc3901f	1.5278357
18	0x3fe31e0d	1.7743546
19	0x41024073	8.140735
20	0x409c0c76	4.876521
21	0x4136be30	11.4214325
22	0x4138385d	11.513761
23	0x4123d9c2	10.240664
24	0x40abef33	5.372949
25	0x39d0f7af	0.0003985739
26	0x41aab615	21.338907
27	0x3ea8d818	0.32977366
28	0x3c387eb5	0.011260678
29	0x4146a12b	12.414348
30	0x40dc24b5	6.879481
31	0x3ed8c92d	0.42340985
32	0x413bd4df	11.7394705
33	0x4098ed65	4.778979
34	0x40880e79	4.2517667
35	0x4107ddad	8.49162
36	0x4156365f	13.388274
37	0x418511aa	16.633625
38	0x4179cffa	15.613276
39	0x415dd15f	13.863616
40	0x41560e80	13.37854
41	0x41a4ec77	20.615461
42	0x3dc6e9d5	0.09712569
43	0x3f964efa	1.1742852
44	0x41143e72	9.265245
45	0x416ee5a0	14.931061
46	0x401f6b95	2.4909413
47	0x41139059	9.222741
48	0x41423549	12.138009
49	0x3f79877c	0.9747236
50	0x414c1efb	12.757564
51	0x00000004	6e-45
52	0x41401c8c	12.006969
53	0x3f827ca2	1.0194285
54	0x40dec001	6.960938
55	0x40c4a3a7	6.144977
56	0x40584852	3.379414
57	0x40b5bcf5	5.679316
58	0x40bf1f7a	5.9725924
59	0x4137a718	11.478294
60	0x416b3185	14.69959
61	0x4009f086	2.1553054
62	0x41341e80	11.257446
63	0x3e942da4	0.2894107
64	0x413784c3	11.469913
65	0x00000004	6e-45
66	0x415ad851	13.677812
67	0x4195e32d	18.735926
68	0x3fe1b43b	1.7633127
69	0x00000004	6e-45
70	0x3facf899	1.3513366
71	0x418961e7	17.172804
72	0x40a561bd	5.168181
73	0x3fd08771	1.6291333
74	0x4121b455	10.106526
75	0x3f4e3f84	0.8056567
76	0x4180c662	16.096867
77	0x41b3dc8c	22.482689
78	0x3f9473e6	1.1597869
79	0x3f4e77cc	0.80651546
80	0x41586fe9	13.527322
81	0x410413d9	8.254846
82	0x3e942f65	0.2894241
83	0x40a1b958	5.053875
84	0x404a3210	3.1593056
85	0x410900bb	8.562678
86	0x4124d713	10.302508
87	0x4089b512	4.3033533
88	0x41b9db2e	23.232021
89	0x4133f800	11.248047
90	0x3f1d59ec	0.61465335
91	0x00000004	6e-45
92	0x41185144	9.51984
93	0x41c58489	24.689714
94	0x4115fc32	9.374071
95	0x4136e183	11.430057
96	0x4179ca76	15.611929
97	0x00000004	6e-45
98	0x4139c66c	11.610943
99	0x3f59b01b	0.8503434

bn1.running_var f4 [100]
0	0x4186b434	16.83799
1	0x3ea49d0a	0.3215106
2	0x41c73878	24.902573
3	0x443b81ef	750.0302
4	0x41525f5a	13.148279
5	0x42aa890e	85.267685
6	0x439d8d70	315.10498
7	0x429b899f	77.76879
8	0x427667ed	61.60149
9	0x42bdc3af	94.882195
10	0x434f714e	207.4426
11	0x4260a6d1	56.162907
12	0x00000004	6e-45
13	0x428c78f0	70.236206
14	0x41323cbe	11.13983
15	0x41f47faa	30.562336
16	0x41009554	8.036457
17	0x41829e7f	16.32739
18	0x41ec8f25	29.569895
19	0x42992682	76.57521
20	0x42aa2937	85.0805
21	0x4274b397	61.17538
22	0x42ecc72e	118.38902
23	0x431775cf	151.46019
24	0x434444d2	196.26883
25	0x399116b1	0.00027673462
26	0x42fae4e4	125.44705
27	0x400757f0	2.1147423
28	0x3d0cbf28	0.03436199
29	0x42c6ca6a	99.39534
30	0x42407d57	48.122402
31	0x408e27c6	4.442355
32	0x4304818b	132.50603
33	0x41f20aba	30.255238
34	0x42d5e020	106.937744
35	0x439afb39	309.96268
36	0x4289afc6	68.84331
37	0x4379ad30	249.67651
38	0x4329c050	169.75122
39	0x4363674c	227.4035
40	0x42fac152	125.37758
41	0x4318fe05	152.99226
42	0x3f20d3e7	0.6282334
43	0x41764e09	15.394052
44	0x42fb6812	125.70326
45	0x4313502e	147.3132
46	0x428b2bf9	69.585884
47	0x438d67d0	282.81104
48	0x43127703	146.46489
49	0x415fe7ae	13.994062
50	0x433acbdd	186.79634
51	0x00000004	6e-45
52	0x42dbf9eb	109.98812
53	0x41a71e46	20.889782
54	0x436277b1	226.46754
55	0x4274965e	61.146843
56	0x42130c57	36.76205
57	0x42e13411	112.60169
58	0x42941711	74.04505
59	0x431fa165	159.63045
60	0x4389830d	275.02383
61	0x4264693c	57.102768
62	0x42b6cc2b	91.398766
63	0x4026d4a0	2.6067276
64	0x42ecaf97	118.34295
65	0x00000004	6e-45
66	0x433be5e1	187.89796
67	0x429a7c7d	77.24314
68	0x4226cbb6	41.698936
69	0x00000004	6e-45
70	0x41b9bd76	23.21751
71	0x43a53c80	330.47266
72	0x43385a42	184.35257
73	0x41b9222d	23.141687
74	0x43494220	201.2583
75	0x417f3f54	15.952961
76	0x436de8c7	237.90929
77	0x43bb6538	374.79077
78	0x41b3e81a	22.48833
79	0x415532ec	13.324932
80	0x42dfbfd4	111.874664
81	0x4262be8c	56.68608
82	0x401f0d0e	2.4851718
83	0x42880b3a	68.02193
84	0x427e2434	63.535355
85	0x428e01d0	71.00354
86	0x42aa670d	85.20127
87	0x42dfe032	111.93788
88	0x4352342b	210.20378
89	0x4303d771	131.84157
90	0x40627758	3.5385342
91	0x00000004	6e-45
92	0x42b55f42	90.68605
93	0x432d30ec	173.1911
94	0x429bdc7a	77.93062
95	0x42e2504d	113.15684
96	0x4360ebc6	224.92099
97	0x00000004	6e-45
98	0x42e2c6b6	113.38811
99	0x412ceca8	10.807777

fc2.weight f4 [75, 100]
0	0x3f159d8d	0.5844353
1	0xbea625f4	-0.3245083
2	0x3e049bd2	0.12950066
3	0x3e5bdcbc	0.21470922
4	0xbebb8bbc	-0.36630046
5	0xbe157184	-0.14594084
6	0xbee83261	-0.45350936
7	0x3eedf67d	0.46477118
8	0xbd3e268a	-0.046423472
9	0xbe82a4f9	-0.2551649
10	0x3d3248e3	0.04352654
11	0x3e33ff35	0.17577823
12	0x3ea3b6d6	0.3197543
13	0x3e1efe4b	0.15526693
14	0x3e98593d	0.29755583
15	0xbedba65d	-0.42900363
16	0xbec60cb3	-0.38681564
17	0xbcc1ffb4	-0.023681499
18	0x3eb19bc9	0.34689167
19	0x3d8a86e0	0.067640066
20	0x3e19c24e	0.15015528
21	0x3d1ee309	0.038790736
22	0xbeb0c565	-0.345256
23	0x3f32928d	0.6975487
24	0xbe4e29da	-0.20133153
25	0xbf120790	-0.5704279
26	0x3eabe2f6	0.33571595
27	0x3e3b5b5d	0.18296571
28	0xbbe9b175	-0.00713175
29	0xbe3f0ac1	-0.18656446
30	0x3f1241eb	0.5713183
31	0xbea3e79f	-0.3201265
32	0x3e522418	0.20521581
33	0x3e9836ca	0.297293
34	0x3f149819	0.5804458
35	0x3ea5bf5b	0.32372555
36	0x3ef68ed4	0.48155844
37	0xbe98acf7	-0.29819462
38	0xbeea952d	-0.45816937
39	0x3ce9d3b7	0.028543336
40	0x3c00be41	0.00785786
41	0xbe9419f5	-0.28926054
42	0xbd8e8bad	-0.06960235
43	0xbcd8d893	-0.026470458
44	0x3ee028b3	0.4378105
45	0xbf2ae42f	-0.6675443
46	0xbeb6a963	-0.35676107
47	0xbe20b5e7	-0.1569439
48	0x3f060aa0	0.5235996
49	0xbb7ce652	-0.003858943
50	0x3ec0eb9f	0.37679765
51	0x3d5cf5c9	0.053945336
52	0x3d09f9fd	0.033685673
53	0x3ecabd17	0.3959739
54	0x3e8af9d6	0.27143735
55	0x3e456a06	0.19278726
56	0xbe006504	-0.12538534
57	0x3e63f307	0.22260676
58	0x3eb62f8c	0.3558315
59	0x3e836c34	0.2566849
60	0x3ecb1847	0.3966696
61	0x3e5ae872	0.21377733
62	0x3e994936	0.29938668
63	0x3f59f095	0.85132724
64	0x3e51afa8	0.20477164
65	0xbe85ac7f	-0.26108167
66	0xbec1b2fc	-0.37831867
67	0xbe147cfe	-0.14500806
68	0x3ebc7bf6	0.36813325
69	0xbdcccf60	-0.10000491
70	0xbf32e436	-0.6987947
71	0x3f0f1813	0.5589611
72	0x3e4e0eaa	0.20122781
73	0x3d9b0a03	0.07570269
74	0x3f073017	0.52807754
75	0xbe9a353d	-0.30118743
76	0x3dea90e1	0.11453415
77	0x3f18ab16	0.59636056
78	0x3d585e32	0.052824207
79	0x3e76de96	0.24108347
80	0x3d219233	0.039446067
81	0x3e087a5e	0.1332793
82	0xbe122950	-0.14273572
83	0x3e48d459	0.19612254
84	0x3e9db791	0.30804113
85	0x3f0f38fb	0.5594632
86	0x3df66c8a	0.12032421
87	0xbd27d993	-0.04097898
88	0x3e4c66d0	0.19961095
89	0x3e93e1de	0.2888326
90	0x3d876926	0.06611852
91	0x3e40956c	0.18807
92	0x3ed9ce9a	0.42540437
93	0x3e4b937a	0.19880477
94	0x3e7a9f1c	0.24474758
95	0x3daf14d7	0.08548897
96	0x3d96acaa	0.07357152
97	0xbd3d3e1f	-0.04620182
98	0x3e7b1f72	0.24523714
99	0x3e003cba	0.12523165
100	0x3e8fff9b	0.281247
101	0xbd04f9bd	-0.03246473
102	0x3e784677	0.2424563
103	0x3e92cb15	0.28670564
104	0xbf69ed5d	-0.9137781
105	0xbea15a87	-0.3151438
106	0xbe926778	-0.28594565
107	0x3e840872	0.25787693
108	0xbc0bbcda	-0.008528912
109	0xbe9f85d3	-0.31156787
110	0xbe2671b4	-0.16254312
111	0xbcadaff1	-0.02120206
112	0x3f706004	0.9389651
113	0x3eb7a7fc	0.3587035
114	0x3eaa81d2	0.3330217
115	0xbf17b118	-0.592546
116	0xbebe3c11	-0.37155202
117	0x3e95d137	0.2926118
118	0x3eb3b143	0.35096177
119	0xbe8b9da4	-0.27268708
120	0x3e5b6d4c	0.21428412
121	0x3edf9a4b	0.43672404
122	0xbef504ec	-0.47855318
123	0x3ed57cce	0.4169678
124	0xbf0ccd57	-0.55000824
125	0xbf340840	-0.7032509
126	0x3efb07d9	0.49029425
127	0x3ec9be6a	0.39403087
128	0xbf01df3e	-0.50731266
129	0xbe6a7e0b	-0.22899644
130	0x3ece93b4	0.40347064
131	0xbed44036	-0.4145524
132	0x3e70d7c9	0.23519816
133	0x3e8bc679	0.2729986
134	0x3f2b588f	0.66932005
135	0x3f5df435	0.86700755
136	0x3e73d7cf	0.23812793
137	0xbd08dd6c	-0.03341429
138	0xbf9876eb	-1.1911291
139	0xbc81b3d8	-0.015832826
140	0xbe4edef6	-0.2020224
141	0xbcea33e8	-0.028589204
142	0x3d88010f	0.06640827
143	0x3db712ff	0.0893917
144	0x3d379c68	0.044826895
145	0xbe0d5468	-0.1380173
146	0xbf6909d2	-0.9103061
147	0xbeec5bf8	-0.46163917
148	0x3ee5d3e5	0.44888225
149	0x3d8d1d5e	0.06890367
150	0x3e1e8a98	0.15482557
151	0x3e405681	0.18782999
152	0x3e9b8efb	0.30382523
153	0x3e9f087d	0.31061164
154	0x3eee6815	0.46563783
155	0x3e623ac6	0.22092733
156	0xbf383490	-0.71955204
157	0xbeb29f97	-0.34887382
158	0xbdfffe56	-0.124996826
159	0x3d6e2fb1	0.05815095
160	0x3e944666	0.2895996
161	0x3e081253	0.1328824
162	0x3e90f485	0.28311554
163	0x3f142309	0.5786596
164	0xbe711de0	-0.23546553
165	0xbe40c868	-0.18826449
166	0xbeec99cd	-0.4621109
167	0xbe867edc	-0.2626866
168	0x3e8a06c9	0.26958302
169	0xbf38d464	-0.7219908
170	0xbebba8b7	-0.36652157
171	0x3f2499dd	0.64297277
172	0x3f1cf9bd	0.6131857
173	0xbcb06db7	-0.021536691
174	0x3f19407a	0.5986401
175	0xbdfab6ba	-0.122418836
176	0x3e817c3f	0.25290105
177	0xbe75e662	-0.24013665
178	0xbefc74b4	-0.49307787
179	0x3f099403	0.5374147
180	0xbc8bd161	-0.017067613
181	0xbd95c80a	-0.07313545
182	0x3e400092	0.18750218
183	0x3e5a5ff3	0.21325664
184	0x3f02ce74	0.5109627
185	0x3ecf286a	0.4046052
186	0x3da6933a	0.0813355
187	0x3e776447	0.24159347
188	0xbf415804	-0.75524926
189	0x3e8c1547	0.27359983
190	0x3dbad1e4	0.09122065
191	0xbcff90e3	-0.031197017
192	0xbe914ce3	-0.28378972
193	0x3ead4406	0.3384096
194	0x3f838658	1.0275373
195	0xbe1187b4	-0.14211923
196	0x3e198c2c	0.14994878
197	0x3e36b0c3	0.17840867
198	0xbd984cb0	-0.07436502
199	0x3eee91c5	0.46595588
200	0xbe840bcc	-0.2579025
201	0xbe8a2f51	-0.26989225
202	0x3cb03bd7	0.021512909
203	0xbe33c384	-0.17555052
204	0xbdece412	-0.115669385
205	0x3f42d9d2	0.7611362
206	0xbf19cff8	-0.6008296
207	0x3eb68983	0.35651788
208	0xbdcd0228	-0.10010177
209	0x3f0a69c2	0.54067624
210	0xbea496c4	-0.32146275
211	0x3f3c2a92	0.7350246
212	0x3ebd56aa	0.36980182
213	0x3dbfbecf	0.09362566
214	0xbe7a670c	-0.24453372
215	0xbeec3f8a	-0.46142226
216	0xbedf815a	-0.43653375
217	0xbdc7b12f	-0.09750592
218	0xbda73f31	-0.0816635
219	0x3edee56a	0.43534404
220	0xbe476902	-0.19473651
221	0x3ed3d9be	0.41377062
222	0x3e935ad9	0.2878025
223	0xbe80e4e1	-0.2517462
224	0xbe1c40ea	-0.15259138
225	0xbef02416	-0.4690253
226	0x3e6038f7	0.2189673
227	0xbf4ea8de	-0.8072642
228	0xbed1e64f	-0.40996024
229	0xbf01e1ea	-0.5073534
230	0xbea30f2a	-0.31847507
231	0xbc582694	-0.0131927915
232	0xbe862db3	-0.2620674
233	0x3f2b266e	0.66855514
234	0x3edf4ae3	0.43611822
235	0xbcabac71	-0.02095625
236	0x3edf3b96	0.43600148
237	0xbdea4091	-0.11438096
238	0x3e0c4436	0.13697895
239	0x3d2aa052	0.0416568
240	0xbdc05e51	-0.093929894
241	0x3d558755	0.052131016
242	0xbe5cfd78	-0.21581066
243	0xbd3f9935	-0.04677697
244	0x3d6a08e7	0.057137396
245	0x3e36a105	0.17834862
246	0xbdccca06	-0.099994704
247	0x3e3b8bef	0.18315099
248	0xbeb36496	-0.35037678
249	0xbe12753d	-0.14302535
250	0xbe9ceb3b	-0.30648217
251	0x3e9cca21	0.30622962
252	0x3ef443da	0.47708017
253	0xbe1f90cc	-0.1558258
254	0x3d7d1a61	0.061792735
255	0x3f89115a	1.070842

fc2.bias f4 [75]
0	0xbf07cbbf	-0.53045267
1	0xbf308f88	-0.6896901
2	0x3dbe7d19	0.09301204
3	0x3dfe180a	0.12406929
4	0x3e47b6e0	0.19503355
5	0xbf20f369	-0.62871414
6	0xbf06e3e1	-0.52691466
7	0xbe0c2a0f	-0.13687919
8	0x3e40d3c3	0.1883078
9	0xbd9236db	-0.07139369
10	0xbf27683d	-0.6539343
11	0xbd4924cb	-0.049107354
12	0xbf491b9b	-0.7855775
13	0xbd66a2b5	-0.056307513
14	0x3eb7e88d	0.3591961
15	0xbe4fcb30	-0.20292354
16	0xbea463db	-0.32107434
17	0xbf1a04c3	-0.60163516
18	0x3ea3440a	0.31887847
19	0xbe339fac	-0.17541379
20	0x3d23039e	0.03979837
21	0xbd912648	-0.0708738
22	0xbd27d422	-0.04097379
23	0x3ec59920	0.38593388
24	0xbe37d5e2	-0.17952684
25	0xbf2b6360	-0.6694851
26	0xbe19d322	-0.15021947
27	0xbe2bb44f	-0.16768001
28	0xbec3ab89	-0.38216808
29	0xbe8d97af	-0.27654788
30	0xbe2d1fd5	-0.16906674
31	0xbe5565f3	-0.20839672
32	0xbe2833ca	-0.16426006
33	0xbec404c8	-0.38284898
34	0xbee42dea	-0.4456628
35	0xbe8edc2a	-0.27902347
36	0xbe93c226	-0.2885906
37	0xbea6643d	-0.3249835
38	0xbdba6e2b	-0.09103044
39	0xbe66201f	-0.2247319
40	0xbf17d1c5	-0.5930446
41	0xbe0e0507	-0.13869105
42	0xbedf001c	-0.4355477
43	0xbed292b4	-0.4112755
44	0xbebf9bb1	-0.3742347
45	0x3d105132	0.035233684
46	0xbdc9a3af	-0.09845673
47	0xbed74c86	-0.4205057
48	0xbe5129c2	-0.20426086
49	0xbe9fc9a0	-0.31208515
50	0xbd2fb493	-0.04289682
51	0x3c4a3df0	0.012343869
52	0xbebe982f	-0.37225482
53	0xbe73d7aa	-0.23812738
54	0xbf56f341	-0.83964926
55	0xbf1b2c01	-0.6061402
56	0xbece7f19	-0.40331343
57	0xbe8518ca	-0.25995475
58	0xbedd73d8	-0.43252444
59	0xbe94e8e4	-0.2908393
60	0xbe5a820c	-0.21338671
61	0xbea5c189	-0.32374218
62	0xbed2c16e	-0.411632
63	0xbe6d7854	-0.23190433
64	0xbe3fb470	-0.18721175
65	0xbf06e795	-0.52697116
66	0xbf4dea72	-0.8043586
67	0xbd3f4784	-0.046699062
68	0xbeb56449	-0.35428074
69	0x3e82530a	0.2545398
70	0xbf0c8b79	-0.5490032
71	0xbf0e19ec	-0.55508304
72	0xbe5aca7d	-0.21366306
73	0xbd3bb65f	-0.04582822
74	0xbf299b3d	-0.662525

fc3.weight f4 [75, 75]
0	0x397b3d38	0.00023960031
1	0xbd07e29a	-0.03317509
2	0x3e016a81	0.12638284
3	0xbef0b2dc	-0.4701146
4	0xbf31abb5	-0.6940263
5	0xbd9dbc41	-0.07701922
6	0xbcd95048	-0.026527539
7	0x3e8c35ae	0.27384704
8	0x3f18abf0	0.59637356
9	0xbea6bd5d	-0.32566348
10	0xbe76d8eb	-0.24106185
11	0x3e161200	0.14655304
12	0xbecc8fcf	-0.39953467
13	0x3e0a25de	0.13491008
14	0x3f0bd9a2	0.54628956
15	0x3f1fccef	0.6242208
16	0xbeb05f9f	-0.34447953
17	0x3c451484	0.012028817
18	0x3edd4d2e	0.43222946
19	0xbc867cc9	-0.016416924
20	0xbd81765f	-0.063214056
21	0xbd0fb9c0	-0.035089254
22	0xbe39dc37	-0.18150412
23	0x3f232bdd	0.63738805
24	0xbebf2c78	-0.37338614
25	0x3e489629	0.19588532
26	0xbe365879	-0.17807187
27	0x3ed68fce	0.4190659
28	0xbe375693	-0.17904119
29	0x3e3ba47c	0.18324465
30	0x3f36dfab	0.7143504
31	0x3f3bffde	0.734373
32	0x3ec61327	0.38686487
33	0x3e36c87f	0.1784992
34	0xbebf1811	-0.3732305
35	0xbe14590b	-0.14487092
36	0x3f210b1a	0.62907565
37	0x3e918925	0.28424945
38	0x3e6ab9fb	0.22922508
39	0x3e272707	0.16323482
40	0xbe61702e	-0.2201545
41	0xbe639223	-0.22223715
42	0xbe03004c	-0.12793082
43	0xbf098558	-0.5371909
44	0xbb2b29a7	-0.0026117356
45	0xbf143a41	-0.5790139
46	0x3e8f4b95	0.27987352
47	0x3eb5fac5	0.35542884
48	0xbf167254	-0.587682
49	0xbf2a7aa3	-0.6659338
50	0xbe694832	-0.22781447
51	0x3ea7f20c	0.32801855
52	0xbda1fff4	-0.07910147
53	0xbe3c49ef	-0.18387578
54	0x3e35d335	0.1775635
55	0x3df5fc3f	0.12011003
56	0xbd6fb43b	-0.05852149
57	0xbeea572c	-0.45769632
58	0xbe34f438	-0.17671287
59	0xbe47df3c	-0.19518751
60	0xbec47359	-0.38369253
61	0x3d1bbe6e	0.038023405
62	0xbe1920ef	-0.1495397
63	0xbdc78287	-0.09741693
64	0xbed9b991	-0.42524388
65	0x3d3ca611	0.04605681
66	0xbe90f741	-0.2831364
67	0xbf46455c	-0.77449584
68	0x3ed96425	0.42459217
69	0x3e40218e	0.187628
70	0x3dfd158b	0.123576246
71	0x3c822f12	0.015891585
72	0xbf09c220	-0.53811836
73	0x3db0298c	0.086016744
74	0xbe829242	-0.2550221
75	0xbe3bf47a	-0.18354979
76	0x3b4a200d	0.0030841858
77	0xbccf4bf6	-0.025304776
78	0xbe731c14	-0.2374118
79	0xbdb7b554	-0.089701325
80	0xbe564e1b	-0.20928232
81	0xbe0c469f	-0.13698815
82	0xbd2272f9	-0.039660428
83	0xbddcdcc4	-0.10784295
84	0xbdc2a078	-0.09503263
85	0xbd19b2c1	-0.03752399
86	0x3bd64b7e	0.006539761
87	0xbe41731f	-0.18891571
88	0xbd26ce48	-0.04072407
89	0xbcae7499	-0.021295832
90	0xbd825da9	-0.063655205
91	0xbe53d660	-0.20687246
92	0x3d3a73b3	0.045520496
93	0x3d93b0d2	0.0721146
94	0xbe1b8734	-0.15188295
95	0xbd7f98ce	-0.062401585
96	0xbd45d317	-0.048297014
97	0xbdc760dc	-0.09735271
98	0xbdd27c0b	-0.102775656
99	0xbd131c65	-0.03591575
100	0x3dfcb89f	0.12339901
101	0x3d62a186	0.055329822
102	0xbae89298	-0.0017743884
103	0xbd090e56	-0.033460937
104	0x3b61d5eb	0.003445978
105	0xbc988233	-0.018616771
106	0xbd44ed78	-0.04807803
107	0xbe1ff363	-0.15620188
108	0x3d9ea70a	0.07746704
109	0xbe065dd2	-0.13121727
110	0xbd39074d	-0.04517298
111	0xbd7c9f36	-0.061675273
112	0xbcb8d0f5	-0.022560576
113	0xbd3410bd	-0.043961275
114	0xbe0439c7	-0.12912665
115	0xbdc20bed	-0.09474931
116	0xbd457c9a	-0.048214532
117	0xbe041655	-0.12899144
118	0xbd84f0d7	-0.06491249
119	0xbd4aa5dd	-0.049474586
120	0xbdd9c76c	-0.1063374
121	0xbdaf8a4c	-0.085713
122	0xbde8c590	-0.11365807
123	0xbe457fba	-0.19287005
124	0xbdd1f683	-0.102520965
125	0xbc6ebacf	-0.014570906
126	0xbddad39a	-0.10684891
127	0xbe8a0d0b	-0.26963076
128	0xbe650963	-0.22366862
129	0xbdfe1789	-0.12406833
130	0xbdcea2f8	-0.100896776
131	0xbc1b107f	-0.009464382
132	0x3d161e2c	0.036649868
133	0xbbb6bb39	-0.005576518
134	0xbde87997	-0.113513164
135	0x3a084a13	0.0005199026
136	0xbbbe4a61	-0.0058072065
137	0x3dcd461e	0.100231394
138	0x3ce7d1ff	0.028298376
139	0x3deae00b	0.11468514
140	0xbd9324c1	-0.071847446
141	0x3d5ec6ad	0.05438869
142	0xbcaf0449	-0.021364348
143	0xbd18e9fd	-0.037332524
144	0xbe12231d	-0.14271207
145	0xbe0c8cea	-0.1372563
146	0xbd54795c	-0.05187355
147	0xbd9a89d0	-0.07545817
148	0xbcf2e83a	-0.02965175
149	0xbe4adfd4	-0.19811946
150	0xbeaf3a8a	-0.3422435
151	0x3dfbb6b3	0.122907065
152	0x3db8cf35	0.090238966
153	0xbd8faf48	-0.07015854
154	0xbe018a9d	-0.12650533
155	0x3e3fbf6f	0.1872537
156	0xbdcf2661	-0.10114742
157	0x3e2f9299	0.17145766
158	0x3f443303	0.7664034
159	0xbe99ee03	-0.300644
160	0x3ea4d5c6	0.32194346
161	0x3f0c49b6	0.54799974
162	0x3c617f1a	0.0137632135
163	0xbde11383	-0.1099005
164	0x3f18a38f	0.5962457
165	0xbeced291	-0.40395024
166	0x3d8b485c	0.06800911
167	0x3d930d4a	0.07180269
168	0x3ebe9f37	0.37230846
169	0x3eb11446	0.3458578
170	0x3eb96cd4	0.36215842
171	0xbf0d19aa	-0.55117285
172	0xbec4ac30	-0.3841262
173	0x3f824e26	1.0180099
174	0xbe5ca91b	-0.21548884
175	0x3e24b520	0.16084719
176	0x3ea63400	0.32461548
177	0xbe2a31a2	-0.16620496
178	0xbe39b2d5	-0.18134625
179	0x3ea5f64d	0.32414475
180	0xbf10d1a8	-0.5656991
181	0x3d19f59b	0.037587743
182	0xbd72deea	-0.05929462
183	0xbd8ef364	-0.06980017
184	0xbe44d585	-0.19222076
185	0x3d2c45de	0.042058818
186	0xbeaccc43	-0.3374959
187	0x3ea36e7b	0.31920227
188	0x3ed410e5	0.4141914
189	0x3de4d083	0.11172583
190	0x3e92f580	0.28702927
191	0x3e0e1ea4	0.13878876
192	0xbba64ea7	-0.005075294
193	0x3e8cf60d	0.27531472
194	0xbc98e377	-0.018663151
195	0xbe1205b8	-0.14259994
196	0x3e993b36	0.29927987
197	0xbeb1fe40	-0.3476429
198	0x3e559d8a	0.20860878
199	0xbea8ed3e	-0.329935
200	0xbfa77cbd	-1.3084942
201	0x3d0a4edd	0.033766616
202	0xbe84a46b	-0.2590669
203	0x3d606abc	0.05478929
204	0xbe2b99cd	-0.16757889
205	0x3cbf9711	0.023387464
206	0x3e1cb37d	0.15302844
207	0xbf37f17e	-0.7185286
208	0xba4226ae	-0.00074062764
209	0xbdb0ef07	-0.08639341
210	0xbef114f9	-0.47086313
211	0xbd36613c	-0.044526324
212	0x3e754585	0.23952301
213	0x3e30c18d	0.17261334
214	0xbf0b4eda	-0.5441719
215	0x3e95aef4	0.2923504
216	0xbcbd6a72	-0.023122046
217	0xbf07697f	-0.5289535
218	0xbef06de8	-0.46958852
219	0x3eb73ed7	0.3579013
220	0xbeaea2e2	-0.34108645
221	0xbc846654	-0.016162075
222	0x3e3a21ae	0.1817691
223	0x3dc127d3	0.09431424
224	0x3e8475d5	0.2587115
225	0xbe35a472	-0.17738512
226	0xbea23b0b	-0.3168567
227	0xbcbcecb2	-0.023062084
228	0xbe93dbf1	-0.2887874
229	0xbe9c8514	-0.3057028
230	0xbe234dd9	-0.15947665
231	0x3c226713	0.00991227
232	0x3c850140	0.016235948
233	0xbe9ccff0	-0.30627394
234	0xbe23c825	-0.15994318
235	0xbebb923f	-0.36635014
236	0xbe557ba5	-0.20847948
237	0xbbcf7f67	-0.006332326
238	0x3dfe996f	0.12431609
239	0x3eab71f5	0.3348538
240	0x3ef548f1	0.47907212
241	0xbeb90e6b	-0.36143813
242	0x3ddd25c9	0.107982226
243	0xbeabd12c	-0.33558023
244	0xbd7aff04	-0.061278358
245	0x3e85aefb	0.26110062
246	0xbca9cfa1	-0.020728888
247	0xbdd7b3f1	-0.10532368
248	0xbe214865	-0.15750273
249	0xbf5d2982	-0.8639146
250	0x3c8e059a	0.017336655
251	0xbe6f3807	-0.23361216
252	0x3ea1d581	0.31608203
253	0xbd06b5de	-0.032888286
254	0x3c12b7e4	0.008954976
255	0x3f04b9f2	0.5184623

fc3.bias f4 [75]
0	0x3e15e313	0.14637403
1	0xbe984031	-0.29736474
2	0x3e77d7ae	0.24203369
3	0x3c7c1209	0.015385159
4	0x3d0d1c61	0.034450892
5	0xbf2a57ee	-0.6654042
6	0xbecc1fd7	-0.39868042
7	0xbec94223	-0.3930827
8	0xbeae51fc	-0.34046924
9	0x3eede763	0.46465597
10	0xbe932d82	-0.28745657
11	0x3e759200	0.23981476
12	0xbe9d70ee	-0.3075022
13	0x3dd560f0	0.1041888
14	0xbc7293f5	-0.0148057835
15	0xbc62896b	-0.013826708
16	0x3e7f629a	0.24939957
17	0x3e414107	0.18872462
18	0xbe2dafd2	-0.16961601
19	0xbee21fa8	-0.44164777
20	0x3efb0bf5	0.4903256
21	0xbf46212e	-0.7739438
22	0xbe5240c7	-0.20532523
23	0xbdbe3413	-0.09287276
24	0xbe62c8b3	-0.22146873
25	0xbe7bb448	-0.2458049
26	0x3e93f195	0.2889525
27	0xbe4cee53	-0.20012788
28	0x3ebbb28c	0.36659658
29	0x3f58d26b	0.8469607
30	0x3e80ba3b	0.25142083
31	0x3d7f7d4d	0.062375356
32	0xbee278ec	-0.4423288
33	0xbf095e94	-0.5365994
34	0x3d36d83f	0.044639822
35	0xbed0b88b	-0.40765795
36	0xbdda1b7f	-0.10649776
37	0xbbcad168	-0.006189514
38	0x3f02fa17	0.51162857
39	0x3e596b12	0.2123225
40	0x3e539de6	0.20665702
41	0xbe9494ff	-0.29019925
42	0xbf0ca00d	-0.5493172
43	0x3d7ed3c1	0.062213663
44	0x3e0e8906	0.13919458
45	0xbe928128	-0.28614163
46	0xbd949e90	-0.07256806
47	0xbf0ca1ec	-0.54934573
48	0x3e980b3d	0.29696074
49	0xbec663f1	-0.38748124
50	0xbe7efb46	-0.2490054
51	0xbea823e5	-0.32839885
52	0xbecd17ac	-0.40057123
53	0x3ea12858	0.31476092
54	0xbe38d1c7	-0.18048774
55	0xbde74ee8	-0.11294347
56	0xbe2c4e32	-0.16826704
57	0xbede750c	-0.43448675
58	0xbe430b4c	-0.19047278
59	0x3e455ddf	0.1927409
60	0xbe73b7ac	-0.23800534
61	0xbeb907a1	-0.36138633
62	0xbdc412fe	-0.09573935
63	0xbe88b97d	-0.26704016
64	0xbd9fff13	-0.078123234
65	0xbef4f03a	-0.47839528
66	0xbf148074	-0.58008504
67	0xbd21857f	-0.039433952
68	0xbf037da4	-0.5136359
69	0x3e916e6d	0.2840456
70	0x3ce5e3b7	0.028062684
71	0x3cb9360f	0.022608785
72	0xbeb33ba2	-0.35006434
73	0x3e80dcae	0.25168365
74	0xbe5f4f8e	-0.21807691

fc4.weight f4 [2, 75]
0	0xbe722e29	-0.23650421
1	0xba1ed79f	-0.0006059352
2	0xbf3d48f3	-0.73939437
3	0xbed92442	-0.42410475
4	0x3f474fac	0.77855945
5	0x3e40ee65	0.1884094
6	0xbc4b25fd	-0.012399194
7	0x3bb56706	0.005535963
8	0x3abc7dde	0.0014380773
9	0xbe290f1b	-0.16509669
10	0x3bd7fa6b	0.0065911314
11	0x3ef4c80c	0.47808874
12	0x3d80f8a2	0.06297423
13	0x3ebeaa86	0.37239474
14	0xbb517c07	-0.0031964795
15	0x3f3ac27d	0.72953016
16	0xbeb30396	-0.34963673
17	0xbc71faf1	-0.014769302
18	0xbc8fc0fb	-0.017548075
19	0xbdad1e5c	-0.08453056
20	0x3f35c64e	0.71005714
21	0x3e7c9bed	0.24668856
22	0x3f5d4854	0.8643849
23	0xbea2421a	-0.31691056
24	0xbea1ca41	-0.3159962
25	0x3ebbfb60	0.3671522
26	0xbf199316	-0.5999006
27	0x3ec15ba8	0.3776524
28	0x3e9f7333	0.31142578
29	0xbea4bb90	-0.3217435
30	0xbcbcd0ae	-0.023048725
31	0xbe4478bc	-0.19186682
32	0x3f4cb4fb	0.79963654
33	0xbc182514	-0.009286184
34	0xbef65784	-0.48113644
35	0x3c359f71	0.011085377
36	0x3d0a2f47	0.033736493
37	0xbd9b8df2	-0.07595433
38	0x3f40f687	0.7537617
39	0x3f106a4f	0.56412214
40	0xbe906715	-0.28203645
41	0x39cd4d73	0.0003915835
42	0xb902665f	-0.00012435902
43	0xbf2e8339	-0.6816898
44	0x3ed4ed38	0.41587234
45	0x3d0a6a6f	0.03379291
46	0xbe7ff25e	-0.249948
47	0x3ce14e52	0.027503166
48	0xbea61167	-0.32435152
49	0xbd26eaf9	-0.04075143
50	0x3ec19a08	0.3781283
51	0xbc7f69a2	-0.01558915
52	0xbdbb1a4b	-0.09135874
53	0xbeb0543d	-0.3443927
54	0x3f08cd06	0.5343784
55	0x3de6277e	0.11238001
56	0xbdbec9cd	-0.09315834
57	0xbe73a678	-0.23793972
58	0x3c8a98a9	0.016918497
59	0xbe97e352	-0.2966562
60	0x3c911342	0.017709378
61	0xbcbb03f6	-0.022829037
62	0xbe24895d	-0.16068025
63	0x3c2f7943	0.010710063
64	0x3a4abecb	0.0007734119
65	0xbeab2fc6	-0.33434886
66	0xbe4a89e1	-0.19779159
67	0xbf04e2d8	-0.51908636
68	0x3d4dc662	0.05023802
69	0x3f6fd701	0.93687445
70	0xbf37a451	-0.717351
71	0xbeeed3d0	-0.46645975
72	0x3c8be9a1	0.017079176
73	0xbf0b3657	-0.5437979
74	0xbbdc2524	-0.0067182947
75	0xbe96804a	-0.29394752
76	0xbdc4478a	-0.095839575
77	0xbd971cdf	-0.073785536
78	0xbe2f3b06	-0.1711236
79	0xbe19dc63	-0.15025477
80	0x3e089dd1	0.13341452
81	0xbc458b0f	-0.01205708
82	0xbdd54b23	-0.10414722
83	0x3d46dc3b	0.048549872
84	0xbf76a63e	-0.96347415
85	0xbcee839f	-0.029115496
86	0xbe78ab83	-0.24284177
87	0xbecdcd9f	-0.4019594
88	0xbe160bc6	-0.14652929
89	0xbe8652d8	-0.2623508
90	0x3e3ab5b0	0.18233371
91	0xbdf45381	-0.119299896
92	0xbf4b72f6	-0.7947229
93	0xbd869c84	-0.06572822
94	0xbe89717b	-0.2684439
95	0xbf399b4c	-0.7250259
96	0xbc5f2203	-0.013618949
97	0x3d8482c3	0.06470253
98	0xbd63d5b7	-0.055623736
99	0x3dfebc1c	0.12438223
100	0xbdf5b47e	-0.11997317
101	0xbe7abd04	-0.24486166
102	0xbeb96d09	-0.36216
103	0xbf752c45	-0.95770675
104	0xbf4bd897	-0.79627365
105	0xbe3c83c9	-0.18409647
106	0xbe0ae41f	-0.13563584
107	0x3d4987ec	0.04920189
108	0xbcaa6aa5	-0.020802805
109	0xbe5d8bf2	-0.21635416
110	0x3cb9ccb3	0.022680616
111	0x3bc5b7c7	0.006033871
112	0xbd9ca281	-0.07648183
113	0xbef5e64a	-0.4802726
114	0xbe8aeb45	-0.2713262
115	0xbe98e1a1	-0.2985964
116	0xbd66c7b4	-0.056342795
117	0x3e9ebc63	0.31003103
118	0xbd68b3da	-0.056812145
119	0xbeeab6d6	-0.45842618
120	0x3b5d4c59	0.003376743
121	0xbd84b5a7	-0.0647996
122	0xbea024f4	-0.31278193
123	0xbdedb074	-0.116059214
124	0xbe9bb275	-0.3040959
125	0x3c4b0610	0.012391582
126	0x3e3e5065	0.18585356
127	0xbe0de5a3	-0.1385713
128	0xbeadb352	-0.33925873
129	0xbdea5996	-0.114428684
130	0xbd9a19ac	-0.07524428
131	0x3ba656c8	0.005076263
132	0xbcc20ffb	-0.02368926
133	0x3cce6bab	0.025197824
134	0xbe9c39ed	-0.30512944
135	0x3cbda055	0.023147741
136	0x3ca24626	0.01980884
137	0xbe2048d9	-0.15652789
138	0x3e413ec6	0.18871602
139	0x3d452363	0.04812945
140	0xbda67c1f	-0.08129143
141	0x3d7ec998	0.062203974
142	0xbe4f161a	-0.20223275
143	0x3d392881	0.045204643
144	0xbef5fa41	-0.4804249
145	0xbeb2ae4f	-0.34898612
146	0xbdb8a562	-0.09015919
147	0x3d13fbde	0.03612887
148	0xbe80cb7d	-0.2515525
149	0x3d354748	0.044257432

fc4.bias f4 [2]
0	0x3cf0a253	0.029374277
1	0xbf589f44	-0.8461802
