p3_collab-compet/solved_checkpoint_critic.pth (torch_old, 54646 bytes, 9 tensors)

fcs1.weight f4 [100, 24]
00000000: 0bc9 35bf 981d 803f 9212 f5bc b229 a53e
00000010: f335 29bf 70f3 a5be 8625 3a3d 132d 033f
00000020: 211d a2be 77cd 813f 029f 1e3d f2f4 8d3e
00000030: 562e e83e 3130 813e 464c f5bd 5f96 ae3e
00000040: a5c9 603e 3eb9 3b3f eddc 21be eb52 f9be
00000050: 0532 a63f 4b34 993f c7e9 edbc 543e cbbe
00000060: bdee 24be 46bb 433f 3b2d 133d 7348 4b3d
00000070: b53c ef3c 38f2 1d40 4c65 e9bc e1b6 3bbd
00000080: 1653 a13d 8b22 393f c203 f13c 90f0 a7bd
00000090: de3c 923e 0f54 823f 6a92 f5bc 1fef 9abd
000000a0: 68a9 85bc 11c3 283f 982c 98bd b740 cf3c
000000b0: 72dc 0b3d 718f 3dc0 b20e a13d 09eb a4bc
000000c0: ec6c 9b3e 8753 1440 af18 4e3d 2125 1f3f
000000d0: 64b0 853e f736 3ebd 5dc0 e83d 7b35 013f
000000e0: f92e bd3e 21f3 0e40 d664 d43d f1f0 3e3e
000000f0: 4966 f0bb 0de4 05bf 1cf2 3f3e 89d9 483e
00000100: dee0 f73e 4386 ea3f cb30 e83d fe92 bebf
00000110: 88cf cf3e 7f38 51be 187b af3d fc35 c7bf
00000120: 6bb0 373f e1ff 223e 60c4 903e 5b72 963e
00000130: b670 36bd 181a 41bf bcbb 943e 7a71 ae3e
00000140: d872 ac3e 816c 133e 0c3e 9f3e d52c b53e
00000150: 6976 853d 5925 e6bf e475 b83e 5df7 c13e
00000160: 9018 6f3e dfac c43e f709 dd3c 93ba 963d
00000170: ed65 3ebe 9e7a f6bf 577f e93d 427a 95bd
00000180: 995f 8c3e 28fc d7be 56b7 17bc 26af 133f
00000190: 9cc2 18be 0d72 f33f 7386 89bd 9b72 123f
000001a0: e763 9b3e 8594 94be dc10 adbd 69fe 193f
000001b0: c01a 453e a8a2 af3f 64f3 f43c 67f8 223f
000001c0: 6a76 2c3f ce8d 0bbe bb27 383e 9692 af3f
000001d0: ade2 fcbe dad8 f0bf 9236 ad3d 7d22 af3f
000001e0: 1be6 743e b93d 01bf 374e 95ba 65a4 f0bd
000001f0: 50de eabf 5865 26bf fa97 3cbd e44c 7fbd
00000200: 336f 693e c1c8 29bf c0e3 b13b f92a b23e
00000210: 3def 5dc0 0c80 7f3e ab3a b6bc 8981 803e
00000220: 0924 623e 5491 7bbf d0fc 80bd 9be9 3dbe
00000230: 584f bdbf 5a15 b63f 8d5e e63c d32a 74be
00000240: 11b5 623f 8f25 e73d 53e2 093d 595a 62be
00000250: 0533 c7bc c274 30bf 5c1a fdbd e257 8abe
00000260: 38ef 653f d3a1 263e 9efb 49bb 8384 65be
00000270: 0256 30be c46d 44bf 4da0 59bd b4d9 90be
00000280: 97a3 773f 9a50 483e 6ffb 5c3b b9a6 52bf
00000290: e291 b7bd d71e 68bf 8d41 eebd b4a7 6fbf
000002a0: 3c98 a23e e3bf 353f 0794 71bd a871 073c
000002b0: f71f d53c 2a48 35bf 3feb 01bc a918 643d
000002c0: e045 003f 5e56 5a3f e11e bebc 7ac0 23be
000002d0: e571 13bf ae63 34bf 723c 0dbe 9c4c 35be
000002e0: 08b5 193f 115c 873f 6253 afbd c486 ca3e
000002f0: f566 d8bf 76d3 19bd 5f01 63be ad92 a13e
00000300: 499b cbbe daf4 783f 1bdd 46bc 340e 3a3f
00000310: db22 e2be 87e9 d2be cbd4 0bbe eb75 353f
00000320: c680 d7bd 26d8 9e3f 4dea bd3d 9317 ab3d
00000330: ba22 c2bc f4ab 9b3d 4aa1 df3d 0ab8 d33d
00000340: 34a2 babe 2818 333f fb66 aabe 2e5b 87be
00000350: c548 9ebc 9ec0 2f40 b6ae 86be a83d 50be
00000360: 436d 3abe 7b5a e6be 7c3d 3ebd 5708 083f
00000370: d614 acbf d05b 4e3f 249e 8f3d 4989 0c3f
00000380: 8c96 273e 43ed 603e 6704 05bd 5057 8b3e
00000390: df3c 1c3f f2d7 96bf 2282 843c 11bc 9b3e
000003a0: 524b 53bd 06ad 363f a847 213d 2789 9ebb
000003b0: 632c d13f 91ff afbd 7d51 9dbc ee87 e0bc
000003c0: 2d6c c73b 2792 fdbd a6e2 973e 73c3 f3bd
000003d0: d217 47be 97ab 0b3f 8e63 7a3e 0897 63bd
000003e0: 459a 2ebe a1ae e9bd 265d b5be 6aca 11be
000003f0: 57e0 36be ed2a 263f dbeb 99be 008f 8fbe
-0.7100989 1.0009031 -0.029916082 0.32258373 -0.66097945 -0.3241229 0.04544594 0.5124065
-0.3166285 1.0140828 0.03872586 0.2772594 0.45347852 0.2523208 -0.11977439 0.340991
0.21951921 0.7332953 -0.15806933 -0.48696074 1.2984015 1.1969084 -0.029042138 -0.3969599
-0.16106696 0.7645763 0.035931807 0.04962964 0.029203752 2.4679089 -0.028490685 -0.045828704
0.078771755 0.72318333 0.029420737 -0.082001805 0.28562063 1.0181903 -0.029977042 -0.0756514
-0.01631613 0.6592265 -0.074303806 0.025299413 0.03414578 -2.96188 0.07864131 -0.020131605
0.30356538 2.317598 0.05031651 0.6216603 0.26111138 -0.046439137 0.113648154 0.5047223
0.369499 2.2335894 0.103707954 0.186466 -0.007336412 -0.523011 0.18744701 0.19614233
0.48413748 1.8322223 0.113374315 -1.4888608 0.4058802 -0.20431708 0.085684 -1.556335
0.7175357 0.15917923 0.28274822 0.2938412 -0.044541083 -0.7543044 0.2904948 0.3407095
0.3368137 0.1439686 0.31102026 0.35385767 0.065167256 -1.7980148 0.36027443 0.37884036
0.23349214 0.3841314 0.02698229 0.07359805 -0.18593569 -1.925617 0.11401241 -0.072987095
0.27416685 -0.42184567 -0.009260019 0.5768913 -0.14917988 1.901918 -0.06715097 0.57206124
0.30349657 -0.2901956 -0.08450481 0.60153824 0.19248486 1.3721514 0.029901214 0.6366028
0.67368186 -0.13628313 0.17983906 1.371661 -0.4939169 -1.8816178 0.08457674 1.36824
0.23915903 -0.50484806 -0.0011391108 -0.11750106 -1.8349094 -0.6499839 -0.046043374 -0.062329188
0.22796325 -0.6632195 0.0054287612 0.3479841 -3.467727 0.2495119 -0.022244772 0.25098827
0.22084059 -0.9826863 -0.0629822 -0.18546145 -1.4789839 1.4225266 0.028121257 -0.23844461
0.88557535 0.112864606 0.033663105 -0.22104777 -0.02431632 -0.6892816 -0.12358543 -0.27020174
0.89818144 0.16272669 -0.0030820142 -0.2241383 -0.1722031 -0.7672999 -0.05313139 -0.28291094
0.96733993 0.19561997 0.0033719202 -0.8228565 -0.08963372 -0.9067206 -0.116335966 -0.9361527
0.3175677 0.7099592 -0.05897906 0.008266844 0.026016219 -0.7081324 -0.007929622 0.05568758
0.5010662 0.85288036 -0.023208084 -0.15991393 -0.57595664 -0.704646 -0.1379259 -0.17705005
0.60041857 1.0574971 -0.08560826 0.39555943 -1.690642 -0.03755518 -0.22168492 0.31557217
-0.3976691 0.97248614 -0.012137677 0.7267792 -0.44167218 -0.41193792 -0.13655393 0.70883054
-0.105226085 1.2409713 0.09273205 0.08354106 -0.0236982 0.07601157 0.10919435 0.10337837
-0.36451876 0.69958735 -0.33281693 -0.26436752 -0.019321809 2.7461314 -0.2630517 -0.2033602
-0.18205743 -0.44990906 -0.046445355 0.53137726 -1.3443859 0.80608845 0.07012585 0.5489698
0.16366023 0.21965508 -0.0324749 0.27215052 0.6103038 -1.1784651 0.016175333 0.3041692
-0.051585503 0.7135776 0.039374977 -0.004838127 1.6341671 -0.08593667 -0.019203896 -0.027408566
0.0060858936 -0.12381392 0.29665107 -0.11902513 -0.1944268 0.545587 0.2445204 -0.055563956
-0.17051037 -0.11410261 -0.3542263 -0.14237371 -0.17859016 0.6490925 -0.30062756 -0.28038788

fcs1.bias f4 [100]
00000000: a4f5 a3bf 5464 f73e 0244 0abf faec 993c
00000010: c4a8 64bf f305 9abe f226 30bf 4b7f 80bf
00000020: c88a b33c 7f5b cd3e 9605 e13d f4b0 93be
00000030: 39cd 07be 2e31 0cbf 7918 b0be ac20 b4bc
00000040: 9a66 43bf e611 bebe cbea 4ebf cba2 b43e
00000050: 858d 53be afbc a6be 5302 3bbe 34ef b9be
00000060: 79b8 0fbf 456c 97bf ed45 c73d 4e3a d83e
00000070: af47 bebe d54a 373e 909e 67bf 3352 febe
00000080: 4885 33be 0237 9fbf ab59 66bf e40c 10bf
00000090: ef0f 9bbf a357 bebf cc29 9abf 25c5 0ebf
000000a0: 2877 22bf 7eeb c3be ea2e 9abf 1cc2 e9be
000000b0: db17 b1bf 1f84 61bf 0833 8ebe 8fcf 8cbf
000000c0: 161d c23d 524d e7bd 7c24 27bf 6f76 febe
000000d0: 6506 1abf 5e13 5dbe 1526 2ebf 27aa 123c
000000e0: bad0 063f 630e 0abf 4fd6 81be 8553 26bf
000000f0: 2650 b13e 23a8 49bf 89d5 1fbf 981c 27bf
00000100: 3f1b 06bf 6d8a af3d 07e7 a4bd 085f 11bf
00000110: 4d09 ebbe 1ae4 d7be cd69 a1bf 109f 87bf
00000120: 8b9e 103e 4f1b 33bf de1f eb3d 58e4 eebe
00000130: 651c 80be aff0 c9be 5d57 bbbe a823 40bf
00000140: a893 743d 6406 443f 55a3 3ebe 83c0 e4bf
00000150: 059b f6be 0822 f9be 2e63 ffbe f80e 57bf
00000160: add3 32bf a796 543e 22fe 1fbf c3b0 e5be
00000170: 7f2a 68be 28c6 08bf 8813 283e 7d8e 34bf
00000180: 1105 90be 094c 923e 0690 873c b727 18bf
-1.2809339 0.48318732 -0.5401002 0.018789757 -0.89320016 -0.30082664 -0.68809426 -1.0038847
0.021916762 0.40108868 0.109873936 -0.28845942 -0.1326188 -0.5476254 -0.3439367 -0.021988235
-0.7632843 -0.3712303 -0.80827016 0.3528045 -0.20659454 -0.3256583 -0.18262605 -0.3631531
-0.5614086 -1.1829916 0.09730134 0.42231983 -0.37164065 0.1789964 -0.9047632 -0.49672088
-0.17531312 -1.2438662 -0.8998057 -0.5626967 -1.2114238 -1.4870495 -1.2044005 -0.5576957
-0.6346307 -0.38265604 -1.2045567 -0.45655906 -1.3835405 -0.88092226 -0.2777331 -1.1000842
0.09478204 -0.112940446 -0.65290046 -0.49699733 -0.6016601 -0.21589419 -0.6802686 0.0089517
0.5266224 -0.539282 -0.25358817 -0.6497119 0.3463146 -0.7877218 -0.62435204 -0.65278006
-0.52385324 0.085713245 -0.080518775 -0.5678563 -0.45905533 -0.42166215 -1.2610413 -1.0595417
0.1412298 -0.69963545 0.114806876 -0.46658587 -0.25021663 -0.3944144 -0.3659009 -0.7505441
0.05971113 0.7657225 -0.18616994 -1.787125 -0.48165146 -0.48658776 -0.49880356 -0.84007215
-0.6985424 0.20760594 -0.6249715 -0.4486142 -0.22672461 -0.5342736 0.164137 -0.7052992
-0.28128865 0.28573635 0.016548168 -0.594356

bn1.weight f4 [100]
00000000: df10 173e 2d97 e83e b060 263d 4ffe 843d
00000010: 5901 2abe f025 a33e d7ca a7bd 1dfb c93d
00000020: 10af 343d ef72 b73e c310 843b 3134 233f
00000030: 8b64 d6be 9290 71bb 354a fd3e 7830 0abe
00000040: a9a3 a53d ad71 2a3f efe4 8d3e 916f 573e
00000050: 4725 9b3e 8ed5 843e 79bc a03d f8c0 5a3d
00000060: 9f3c 623d 68b4 803d 23fa 3abc a0b3 a03d
00000070: 2e24 833e 8677 673e e07c 9e3e 5e88 0b3f
00000080: 8014 af3c 08d0 8d3e d03b 813e 06f3 f43b
00000090: 13f8 9abe bbe6 463e 8bfa 743d 89aa 8cbd
000000a0: 6354 113d 8c9f 6abe ae0d b53e 8fcc 243d
000000b0: b553 b03d 89bf d1bc 3c48 81bd 3027 553e
000000c0: dc9a 473f 3353 8cbd 12c7 2b3f f172 aa3d
000000d0: 928d 37bc 3a21 653d 63bd 8d3d 447f 193e
000000e0: c754 443e f450 213c b01a 603c 9ee2 aabd
000000f0: 3767 32ba 0c30 013e 9f9a 6fbc 1fd7 633e
00000100: 0006 02bd 566c 083b 6a8e 7abc 81e1 6bbd
00000110: d1ac dfbc 3620 12bd f917 863d 4cae 3a3d
00000120: b15f b13b 20a4 193f c163 8c3f 7b7c c3bd
00000130: d77f 093e 0939 1a3e 24a2 8bbb 2bc7 b23d
00000140: c313 4d3e bf51 85be 3174 a63e 9ec5 9bbe
00000150: 9995 1a3d 40f1 1e3e ab39 723e cea0 5f3e
00000160: 0428 913e 963d 5dbc 4741 05bf ab24 473e
00000170: 1e0b 0d3e ecd6 033f 5ba2 a5bd 7e27 873e
00000180: b8d3 bd3e 6674 8b3f 789d 333e 1179 4fbe
0.1475253 0.45427838 0.040619552 0.06493818 -0.16602077 0.31864882 -0.081929855 0.09862349
0.044112265 0.35829875 0.0040303185 0.6375151 -0.41873583 -0.0036859852 0.49470678 -0.13495052
0.08087856 0.66579705 0.27713725 0.21038653 0.30301878 0.2594418 0.07848448 0.053406686
0.055233594 0.0628441 -0.011412176 0.07846761 0.2561354 0.22604188 0.30954647 0.54504955
0.02137208 0.27697778 0.25240946 0.0074752597 -0.3026739 0.19423954 0.05980925 -0.068684645
0.035480868 -0.22912425 0.35362 0.040234145 0.08609716 -0.025604026 -0.06312606 0.2081573
0.7797067 -0.068518065 0.6710063 0.083227046 -0.011203187 0.05593989 0.06920888 0.14989954
0.19172965 0.009845961 0.013678238 -0.08344005 -0.00068055413 0.12615985 -0.014624267 0.22250031
-0.031744003 0.0020816526 -0.015292743 -0.057588104 -0.027304085 -0.03567525 0.06547541 0.04557638
0.0054130186 0.6001606 1.0967942 -0.09545227 0.13427673 0.1506082 -0.004261272 0.087293945
0.2002707 -0.2603893 0.32510522 -0.30424207 0.037740324 0.15521717 0.23654811 0.21838686
0.28350842 -0.013503453 -0.5205273 0.19447581 0.13773772 0.5149982 -0.080876075 0.26397318
0.3707559 1.0894897 0.17540538 -0.20261027

bn1.bias f4 [100]
00000000: af1a 463d ad44 4e3e ed0f df3c 2c28 5d3d
00000010: 5056 bdbd c0e0 87be 7a9e 183a 504b 343c
00000020: 7814 52bc 3c90 7c3e f7ea 843b 6abf a33e
00000030: 11e7 30bc b9a6 31bb 6944 1b3e 1537 fd3d
00000040: 8629 113d 1e9e 893e f3f0 573e 1ad7 54bd
00000050: 1579 1bbd 3a14 1abe f341 5d3d e1f0 f63b
00000060: f2c7 eb3a a37f 153c 7bf0 183d d61d 4fbd
00000070: d8f1 123d 3957 0a3d 7c13 b63d 917e 9b3d
00000080: 9539 12bb 88dc 4d3e 4e5f 193e 578b 9dbb
00000090: 4ecd 8ebd 8ae4 473c 19aa 053c 4d14 2aba
000000a0: 0219 c1bb 20a3 75bd fd00 9d3d 429b cdb9
000000b0: 8f68 b83c 697a e0bb 278d 6a3a da89 d03d
000000c0: 8e97 32bd db9c 40ba 08d7 b03e 4523 9a3a
000000d0: 789c 4b3b 9780 10b8 069b 4a3c 9a35 fc3d
000000e0: 2979 733d c1a4 59bb 8e67 a83a 9b71 47bc
000000f0: 9a57 8d3b c33e c83d a7c1 15ba 1565 383e
00000100: b4a9 443c 6d61 16ba 84d3 203b 1ffb c43b
00000110: 9f42 edb8 352e f83a b012 3cbc 17de 473b
00000120: 382b 0dba f22b 9a3d c733 dd3d 4380 133c
00000130: d073 d73d fba9 1d3e a1ca a13a 582e 1bbd
00000140: 1568 083e 9854 40bd ff0f 69bd 3fcf 6cbd
00000150: 0fc5 15bb 6000 db3d f8d5 ce3d 704b 953d
00000160: 000d 413d 026c b83a 4722 a3be 5837 2d3d
00000170: faf7 b33c 1230 163d f216 37bd f99d d03d
00000180: 171b d63d 9754 393e aeb6 3ebe 6d9a 81bd
0.04836529 0.20143385 0.027229274 0.05399339 -0.092449784 -0.26538658 0.00058219547 0.011004284
-0.012822263 0.24664396 0.0040563303 0.31981975 -0.010797278 -0.002710743 0.15162815 0.12364022
0.03543999 0.26878446 0.21088009 -0.05196295 -0.03795727 -0.15046778 0.054017972 0.007536039
0.0017988665 0.009124669 0.037338715 -0.050565563 0.03587517 0.03377459 0.08890435 0.075925
-0.0022312154 0.20103657 0.14977762 -0.0048078704 -0.069727525 0.012200484 0.00815823 -0.00064880104
-0.0058928737 -0.05997002 0.07666204 -0.00039216323 0.022510795 -0.00685053 0.0008947425 0.10182543
-0.043601565 -0.0007347592 0.34539056 0.0011759779 0.0031068604 -3.4452034e-05 0.012366062 0.12314911
0.05944172 -0.0033209773 0.0012848245 -0.012173082 0.0043134214 0.09777596 -0.00057127554 0.1800731
0.012003351 -0.00057365635 0.0024540136 0.0060113813 -0.0001131345 0.0018934669 -0.011479065 0.0030497366
-0.0005385163 0.07527913 0.10800891 0.009002748 0.10520136 0.15396874 0.0012343713 -0.037885994
0.13320954 -0.046955675 -0.05690002 -0.057814833 -0.0022853052 0.10693431 0.10099405 0.07289779
0.04713154 0.0014070275 -0.3186209 0.042289108 0.02196883 0.036666937 -0.044699617 0.10186381
0.10454386 0.18098675 -0.18624374 -0.063282825

bn1.running_mean f4 [100]
00000000: 5b3a 6f3f e5f6 2e3f a887 7640 f218 7841
00000010: f45c 1340 2be0 7941 0400 0000 b12e d93e
00000020: 0a47 c940 d603 1540 cd9f 1c41 c457 b241
00000030: 9342 713b 5087 f43e 5958 e73f 7bdc 1240
00000040: f1d4 4d40 e8d1 6b41 9d26 0b41 af0d 1340
00000050: f323 da3f 8696 9b41 6a77 4d3d ea41 843e
00000060: 9275 633d 55a6 3d3f d8ca 993d 5e04 b83e
00000070: 725d fd3d c5c2 703f 63a3 6a3d 4fb9 7b40
00000080: 8df8 b640 b28d d13f 7c6c d93f d0c1 c43d
00000090: 90fc be3e 0861 9f3e 5d54 fa3f 0400 0000
000000a0: 114f 3d3d c784 273f e605 c23f 0400 0000
000000b0: 9096 333f 1d94 903e 0400 0000 0787 b13f
000000c0: 2acc b441 28aa ee3e 467f 1741 0400 0000
000000d0: 3420 193d 9737 153f f866 8d3e 59e9 8740
000000e0: 8b43 ad3e 0400 0000 005d 633e e44c f53f
000000f0: 6e65 8a41 d72a 4b40 175f a23e a178 d140
00000100: 59ef 903e dca4 1541 2216 4241 9773 b739
00000110: 0400 0000 0400 0000 da0f f13d 50c8 1d3f
00000120: 6875 3a41 a970 663f 13ab 7041 19eb 293f
00000130: 2b6b 3241 9bfe 4141 cc6f 3841 678a a940
00000140: be2f fd40 43a0 e23d 165e 853f dfa7 af3d
00000150: 67a2 6d40 ff82 9740 a68f 3940 e628 2a40
00000160: 9a55 5d3f 35b4 3141 1064 6741 e404 ad3e
00000170: 97bc 6b40 22b9 413f ce6d a040 787b b43f
00000180: 2a66 6241 493d d841 be42 6a41 2d4c b33f
0.9344842 0.6834548 3.8520298 15.50609 2.3025484 15.6172285 6e-45 0.42418435
6.2899218 2.3283591 9.789014 22.292854 0.0036813363 0.47759485 1.8073837 2.294707
3.216122 14.738747 8.696927 2.2977102 1.7042221 19.448498 0.05016271 0.25831538
0.055532046 0.7408193 0.075093925 0.35940832 0.12371339 0.94047195 0.057284724 3.9331853
5.7178407 1.6371367 1.6986232 0.09607279 0.37302065 0.31128716 1.9556996 6e-45
0.04621798 0.6543698 1.515805 6e-45 0.70151615 0.28238 6e-45 1.3869332
22.59969 0.46614194 9.468573 6e-45 0.037384227 0.5828795 0.2761762 4.247235
0.33840594 6e-45 0.22203445 1.916409 17.299526 3.1744897 0.31713173 6.545975
0.28307608 9.352749 12.1304035 0.000349906 6e-45 6e-45 0.117706016 0.6163378
11.653664 0.90015656 15.041766 0.66374356 11.151164 12.12466 11.527294 5.298145
7.912078 0.11065724 1.0419338 0.08576941 3.7130373 4.7347407 2.8993926 2.6587462
0.8645874 11.106496 14.461929 0.33792794 3.6833856 0.75673115 5.013404 1.410018
14.149942 27.029924 14.6412945 1.4007622

bn1.running_var f4 [100]
00000000: a93e 8c40 478f ef3f b6c4 b841 5cd8 7743
00000010: 9f6f 1941 da5a bf43 0400 0000 c204 0b40
00000020: 15e8 9e42 baf5 4741 936c ba42 3997 4844
00000030: 6e3e ec3b 17e5 8440 0d0c 9341 d075 6041
00000040: 2b4d 0442 d1fb a843 8ee7 a142 569e 1441
00000050: f818 8441 f5c6 1b44 4522 313e 376b 0440
00000060: 4499 e23e 4ea8 3f41 1f95 c03e c5b1 0440
00000070: ff8f eb3e 218a 9c40 ce14 2f3e 72e2 1d41
00000080: a2cf 1d42 e042 9940 bf9b da40 5e32 c33e
00000090: 25bc f43f b195 e83f 5aa9 da41 0400 0000
000000a0: 38f7 ac3e a7d2 8e40 56b5 9740 0400 0000
000000b0: 98ca 1741 7ce4 6d40 0400 0000 577e b040
000000c0: 6da4 6244 872e 8740 874d 1943 0400 0000
000000d0: b6dc 5e3e 3db1 4041 107d 3c40 9318 c241
000000e0: e8ed fc3f 0400 0000 48bf 2740 4f27 ee41
000000f0: 5cad d543 edd4 8241 f2cd 8d40 24f3 7742
00000100: cdc3 a03f 70e6 b542 c648 e242 810e 103a
00000110: 0400 0000 0400 0000 8a14 323f f89c af40
00000120: fc3e dd42 ae43 ee40 8649 b643 689c f940
00000130: 458c 0e43 c43b 3443 829f 9b42 8549 2642
00000140: c3f7 ad42 92d0 623f eafc ba40 2180 7a3e
00000150: ae22 f942 5332 3342 4f00 0641 e804 8d41
00000160: dd8a 8940 469c c542 dbfd b143 fddd a33f
00000170: 4da1 a041 cf80 5b40 d0c4 3f42 370f 3c41
00000180: 881f 9943 34b5 8444 96cd 9f43 82c8 7f41
4.382649 1.87156 23.09605 247.84515 9.589751 382.70978 6e-45 2.1721654
79.453285 12.497492 93.21206 802.36285 0.0072095906 4.152965 18.380884 14.028763
33.07536 337.96732 80.952255 9.288656 16.512192 623.1087 0.17298229 2.0690439
0.44257557 11.97859 0.3761377 2.0733502 0.46008298 4.8918614 0.1709778 9.8677845
39.452766 4.7894135 6.831512 0.38124365 1.9119917 1.8170682 27.332691 6e-45
0.33782363 4.4632144 4.7408857 6e-45 9.486961 3.7170706 6e-45 5.5154223
906.56915 4.2244296 153.30284 6e-45 0.21763882 12.043271 2.9451332 24.262
1.9760103 6e-45 2.62105 29.769194 427.35437 16.353968 4.43139 61.987442
1.2559754 90.95007 113.142136 0.00054953253 6e-45 6e-45 0.6956259 5.487911
110.62302 7.4457617 364.5744 7.8003426 142.54793 180.23346 77.81154 41.571796
86.98391 0.88599503 5.8433733 0.2446294 124.56773 44.799145 8.375075 17.627396
4.298201 98.80522 355.98325 1.280212 20.07876 3.4297369 47.9422 11.753715
306.24634 1061.6626 319.60614 15.986452

fc2.weight f4 [100, 102]
00000000: b043 0fbd 2d66 4e3d 8df6 05be 8c48 91bd
00000010: 5e32 203e a186 443e 2df9 96bd dfda 11bd
00000020: 80e6 50be 92be b73d 45a8 90bd fe05 fabc
00000030: 4435 113c e7cb 15bd ea2b 23bc dee3 d53c
00000040: 8eba 093d 1063 b23d 09f9 91bd f8fc 7f3d
00000050: 9b7a c93d d7ac 903d f22e ae3b 6f3d ba3d
00000060: 51d1 093c 437d 9fbd ec4e c9bc df0c 28bc
00000070: 39b5 2abe 385b 1fbd 062f 3f3c fbce f83d
00000080: c6c9 c63c 65be 9ebb 446f 09be 5acc 9a3c
00000090: 1722 c03c d6b9 603d 16d9 c2bc c85b 673b
000000a0: 923e 54bc e3f1 b53c 54ab 79bd 8326 9fbd
000000b0: aedf 45bd 4624 0fbe fd09 a1bd 9323 8b3c
000000c0: a69e 37bd 946f 0e3e 10ab a73c e4fc b6bd
000000d0: acce 7dbd df3a 8c3d 0666 08bd 39ec f0bd
000000e0: 373f 14be 7ae0 b9bc 6647 223c 18e8 833d
000000f0: 7194 6fbc eda4 c0bd 502d 83bc 3e0a 9ebd
00000100: 1a84 c3bd 4b52 73bd fc96 dc3c e1a8 7d3d
00000110: c19d 9e3d d8e9 873d 65d9 f3bd e753 74bd
00000120: 7682 933c bd7b 9bbd cc39 65bd 3cd7 80bd
00000130: f85b ecbd 48a5 35be 3d92 01bd 26fd d3bd
00000140: 1eef 97bd 1457 a4bd 0c03 a13d 3326 443e
00000150: 20ef 2dbe 905c 543e 4eeb 95bd 6302 08bd
00000160: 12dc f63c 5eb9 0dbc 5466 813e cd68 9dbd
00000170: 6ad5 f33c 935c 80bd 0b1b 8f3e f91b ab3c
00000180: ff81 433c 2886 4cbd baee bebc 89a6 04bd
00000190: f049 5f3c 2156 b63d 5d99 61bf 353f e8be
000001a0: e60f c33d ef27 fbbc 4419 1e3e df69 423e
000001b0: 6a01 0cbe a190 61be 4ab8 a2be aaeb 9c3e
000001c0: 06da ee3b 04de 533e 6aab bb3e 203b 8c3c
000001d0: 0160 303e db39 4f3e f5fd de3d 58e0 87be
000001e0: 7970 983d 0cc3 613e 7153 2bbe 75b3 553e
000001f0: 4df4 0abe 5565 56be 7b80 ec3d be71 123d
00000200: 44e2 72bd 57ba bbbd a907 3bbd f958 d7be
00000210: c2c8 c1bd c768 1e3e fbc3 f93d 7f5e 0fbf
00000220: 99a7 c83d 3672 32ba 4a47 753e e7b0 f1be
00000230: c433 b9be d4c2 d9bb 8580 db3d 307c 31bd
00000240: e453 063f 8ecf 82bc b3ad 623d 04cb e2bb
00000250: 34aa 57bc 3f55 a23e 4b03 ddbc e712 55bd
00000260: c62a 94be 20d4 293c e71a f53d 3760 04be
00000270: dee4 f13d ccad e53e 3ca5 2ebf d7b3 8abc
00000280: 4e7b 31ba 609d cabe 213e 953c 1615 9d3d
00000290: 7b66 dcbc ef4d d43e 58e7 283e 1121 e2bb
000002a0: 9646 233b fa3f fa3d 828a a0bc 2b12 3e3b
000002b0: 226a 763e b6f4 3dbd 933f c53c a861 c13b
000002c0: 4b9a 39bd 79cb 7b3e b388 5bbe 2951 a33d
000002d0: fbaa b03c 26b3 b8bc 893e 89bd 8397 913f
000002e0: fa4f c93e a452 40be be9b 04be 937a b53e
000002f0: b118 37bf 9eb5 753f 84d5 ffbe 4fc3 333d
00000300: 96d5 70be f718 693d 8429 34bf a133 c33d
00000310: cec3 543e 6f02 223e e92a 653d 1898 c83e
00000320: 0230 4c3e 27ea ad3d 65a1 03be 726f 033e
00000330: ce19 27bd 785d 983c 1ac5 19bd f4d9 2abe
00000340: b187 fd3c bb99 423e a9f9 933d 2881 76bd
00000350: cbb5 c6bc 4f9a 283d 2ccf 463b 8fd0 65bd
00000360: 077b 1cbd c9b6 1d3d 7c81 debd ebf8 0b3d
00000370: 9cbe 0bbd e564 923d a140 e73d bafc f8bc
00000380: 588a 8cbd 54a4 193d 54a8 4bbd 3ed3 933d
00000390: e565 a6bd 4a40 fdbd 51d2 d9bc a6bf 753b
000003a0: 56e0 b1bd 6030 083d ed7f ebbc 6bb0 983d
000003b0: e9a5 9e3d f95c 8f3d 8032 923a e937 27be
000003c0: 0aeb adbc 282c 0c3c c8ca ff3b 2923 113d
000003d0: 316f f3bc 7397 5c3d b763 d2bd 7cc5 193d
000003e0: 670b 6abb a646 7aba abd9 44bd a1b2 4e3a
000003f0: aeb5 2a3b c1fb 9ebc beb7 613d ea52 b83d
-0.03497666 0.05039041 -0.13082333 -0.07093915 0.15644214 0.19191982 -0.07371745 -0.035609122
-0.20400429 0.08971895 -0.07063345 -0.030520435 0.008862797 -0.03657141 -0.0099592 0.026109632
0.033625178 0.08710301 -0.07127578 0.06249711 0.09837838 0.070642166 0.005315655 0.09093749
0.008411721 -0.07787564 -0.024573766 -0.010256975 -0.16670693 -0.038905352 0.011668926 0.121488534
0.024266135 -0.004844474 -0.1342135 0.01889627 0.023453755 0.054864727 -0.023785155 0.0035302509
-0.012954371 0.022210067 -0.060954407 -0.077710174 -0.04830902 -0.13978681 -0.07863233 0.016984737
-0.044829033 0.13909751 0.020467311 -0.08934954 -0.061964676 0.06847166 -0.033300422 -0.11763806
-0.1447724 -0.022690047 0.009904718 0.06440753 -0.0146227935 -0.09406457 -0.016012818 -0.07716797
-0.09546681 -0.059404653 0.026927464 0.061928634 0.07744933 0.06636399 -0.11906699 -0.059650328
0.018006545 -0.075919606 -0.055963323 -0.06291053 -0.11540979 -0.17738831 -0.031633604 -0.103510186
-0.07418655 -0.08024421 0.07861909 0.19155197 -0.1698575 0.20738435 -0.073202714 -0.0332054
0.030134235 -0.008650152 0.25273383 -0.07686005 0.02976485 -0.06267657 0.2795032 0.020887362
0.011932849 -0.04993263 -0.023307193 -0.032385383 0.013628468 0.089031465 -0.8812464 -0.45360723
0.09524517 -0.03065869 0.15439326 0.18985699 -0.13672414 -0.22027828 -0.31781226 0.30648547
0.007289174 0.20690161 0.36654216 0.017118037 0.17224123 0.20236914 0.10888282 -0.26538348
0.074433275 0.2204706 -0.16731049 0.20869239 -0.13569756 -0.20937093 0.11547943 0.035753004
-0.059297815 -0.09166401 -0.045661602 -0.42060068 -0.0946212 0.15469657 0.121955834 -0.56003565
0.09797592 -0.000680718 0.23952976 -0.47205278 -0.36172307 -0.00664554 0.107178725 -0.043331325
0.52471757 -0.01596811 0.055341434 -0.006921174 -0.013163138 0.31705663 -0.02697911 -0.05201998
-0.28938884 0.010365516 0.11968022 -0.12927328 0.11811231 0.4485916 -0.6822088 -0.016931457
-0.0006770388 -0.39573193 0.018218102 0.076700374 -0.026904335 0.4146571 0.164945 -0.0069009145
0.0024913899 0.12219234 -0.019597296 0.0029002528 0.24063924 -0.046375953 0.024078166 0.005901534
-0.04531316 0.24589337 -0.21438865 0.079744644 0.021565905 -0.022546362 -0.06701381 1.1374363
0.3931883 -0.18781525 -0.12950036 0.3544508 -0.7152205 0.9598025 -0.49967587 0.043887433
-0.23518977 0.056908574 -0.7037585 0.09531332 0.20777819 0.15821241 0.055949125 0.39178538
0.19940189 0.08491927 -0.12854536 0.12835482 -0.040796094 0.018599257 -0.037541486 -0.16684705
0.030948492 0.19003956 0.07225353 -0.060181767 -0.024256608 0.041162785 0.0030335886 -0.0561071
-0.038203266 0.038504396 -0.10864541 0.034172934 -0.034117326 0.0714815 0.11291624 -0.030393947
-0.068623245 0.03751023 -0.049721077 0.072180256 -0.081249036 -0.12365778 -0.026589544 0.0037498265
-0.08685367 0.03324926 -0.028747523 0.07455524 0.077464886 0.07000155 0.0011153966 -0.16329922
-0.02123024 0.00855545 0.007806156 0.035433922 -0.029716106 0.05385537 -0.10272925 0.03754185
-0.0035712363 -0.00095472706 -0.048059147 0.0007884894 0.002604823 -0.019407155 0.05510687 0.090001896

fc2.bias f4 [100]
00000000: 5efa 96be 48bc 01bf fa95 95be 732a 9dbe
00000010: e329 6fbe 0117 98be d8c1 99be efbc 92be
00000020: f3ae bfbe b9cf dbbe a470 68be 57de 7bbd
00000030: b5dd b9be 095d dabe 1148 aebe 187a c2be
00000040: f6b3 54be d81d 02bf 375e 7e3d b593 aabe
00000050: 498e 91be 9773 a1be 0600 eebd 4561 c2be
00000060: 29de 8ebe 34a5 b7be 405a 6cbe a44f 70be
00000070: 1c73 a1be 8613 60be 26b5 a5be 2291 9fbe
00000080: ecc0 88be 8966 cdbe 590a 2ebd 3f78 acbe
00000090: 4f21 c6be 1fd7 cabe e67e cabe 9c6e c8be
000000a0: 1634 a9be c697 afbe 9cfd fabe 1c8d aabe
000000b0: ce91 d4be 57cb 1ebe 9f9a 78be d72f bcbe
000000c0: 2a41 bbbe 570e 9cbe 2579 a2be 5fa5 bcbe
000000d0: 6d34 afbe 1e4d c2be f672 8bbe f8c3 acbe
000000e0: 9e7e 5ebe f0d1 88be d008 bdbe 3421 9cbe
000000f0: 7cc7 d2be eb04 8abe 63e8 dcbe 55e9 b4be
00000100: 3754 eabe 2e2e 6dbe a684 debe 9409 bbbe
00000110: 1058 f8be 9306 82be d8c9 bdbe 8f27 f6be
00000120: 617b bbbe ce00 82be 5c62 d7be ae0e 23be
00000130: d28b 99be c1d7 b23d 6487 abbe abde b4be
00000140: 1439 85be 7f73 bcbe a2a0 b4be bf98 a7be
00000150: b2cb 8dbe 870d d6be 1734 99be 9e6d ebbe
00000160: f482 47be b4ed 33be 858d a2be 88b7 83be
00000170: 3420 cbbe 4367 90be 49c5 c0be 3872 68be
00000180: 8d66 a0be 8a63 b9be 6e64 adbe 536f e2be
-0.2948789 -0.5067792 -0.29215986 -0.3069645 -0.23355822 -0.2970505 -0.30030704 -0.2865977
-0.37438163 -0.42931917 -0.22699219 -0.061491337 -0.36301962 -0.42649105 -0.34039357 -0.37983775
-0.20771775 -0.5082679 0.06210157 -0.33315817 -0.28428867 -0.315335 -0.11621098 -0.37964836
-0.2790387 -0.35868227 -0.23081303 -0.2346788 -0.31533134 -0.21882448 -0.32364768 -0.31165415
-0.26709688 -0.4011729 -0.042490337 -0.3368549 -0.38697287 -0.3961725 -0.3954994 -0.39146888
-0.3304755 -0.3429548 -0.49021614 -0.33310783 -0.4151749 -0.15507255 -0.24277733 -0.3675525
-0.36573154 -0.3047969 -0.3173305 -0.36844918 -0.34219685 -0.3794946 -0.27236146 -0.33743262
-0.21727988 -0.2672267 -0.36920786 -0.30494082 -0.4116782 -0.26956877 -0.43146047 -0.35334268
-0.45767376 -0.23162147 -0.43460578 -0.36530745 -0.48504686 -0.2539564 -0.37068057 -0.48077056
-0.36617568 -0.2539124 -0.4206723 -0.15923569 -0.29989487 0.08732558 -0.33501732 -0.35326132
-0.2602011 -0.36806867 -0.35278803 -0.32733724 -0.2769447 -0.41807196 -0.29922554 -0.4598207
-0.19483548 -0.17571145 -0.31748596 -0.2572596 -0.39673007 -0.28203782 -0.37650517 -0.22699821
-0.3132824 -0.36208755 -0.33865684 -0.4422556

fc3.weight f4 [1, 100]
00000000: d205 0abc 02fa 8bbd a35b b1bc e4a9 82bc
00000010: b2b4 003d 2efa d93b ba87 80bb 148d 063d
00000020: f947 5c3c fac7 e03c 48fb 363d b50c 8ebd
00000030: d068 cd3c 710c b33d 5422 02bd f07a 61bb
00000040: 0f8a 813b ae67 e03c 3d48 33bd 4a09 703c
00000050: 2c94 9e3c 2b6a acbb e445 3fbd 5f08 48bb
00000060: 1cbd 32bd 5300 7ebc 3787 94bc a869 6bbc
00000070: efb4 373b d5e7 353d 2d48 9fbc 5c5c 593c
00000080: 1169 523b c8a3 be3b eb08 fd3c 0c1d a5bc
00000090: 9f8c 013c 3ede 223c 8ade f63b b241 ffbc
000000a0: 8547 9bbc b4fb 18bd 4caf 81bb 252b be3b
000000b0: 5190 fa3c e11e e83c 96d4 9fbd 5104 e8bc
000000c0: eccf 61bc 1e62 14bd e9c5 b9bb ddcb b5b9
000000d0: a6f4 2fbd e6c8 563c 0cc3 17bd a06d bd3c
000000e0: 4ebc 1cbc 8c73 debc 7859 f039 f293 9cbc
000000f0: 66bb 22bd e0b9 d63a 68de 2c3c efe3 c6ba
00000100: b157 bfbd 2696 893c 6987 313c 9729 8fbb
00000110: 5e9e 4d3c 21b2 663c 1272 ac3c 93c4 2d3d
00000120: 2fba 063d d409 19be 6867 eb3b 349a 173e
00000130: ac10 69bc e1b2 e63d 161d edbb 35a9 db3b
00000140: f230 9b3b 3d4b 0a3d d890 43bc 5bf3 c23c
00000150: ec2c eeba 6eed c4bc 213e ed3c fbe5 a1ba
00000160: 7dd3 1a3c 124c d6bd 3369 4d3d b8c5 a3bb
00000170: 5913 ddbb 9496 11bc 05e0 5c3a 4f0e 48b9
00000180: bf24 0fbb 6c9d 303d c995 13bd f111 5a3c
-0.008424239 -0.068347946 -0.021650141 -0.01595015 0.031422324 0.006652138 -0.00392243 0.032849386
0.013444894 0.027439106 0.044673234 -0.069360174 0.025074393 0.087426074 -0.03177102 -0.0034405552
0.0039532254 0.027393188 -0.043770064 0.014650652 0.019357763 -0.0052616796 -0.046697512 -0.0030522568
-0.04363738 -0.015503007 -0.018130882 -0.014368452 0.0028031429 0.044410545 -0.019443596 0.013266649
0.0032106081 0.005817864 0.030888041 -0.020155452 0.007907062 0.009940682 0.007533853 -0.031159256
-0.018955002 -0.037349418 -0.0039576646 0.005803483 0.030586394 0.028335037 -0.078042194 -0.02832237
-0.013782483 -0.036226384 -0.0056693447 -0.000346749 -0.042957924 0.013109421 -0.037051246 0.023123562
-0.00956638 -0.027154706 0.00045843027 -0.019113515 -0.0397295 0.0016382299 0.010551073 -0.0015174131
-0.09342898 0.01679523 0.010835507 -0.0043689716 0.012549965 0.014080555 0.021050487 0.042423796
0.032892402 -0.14945155 0.007183958 0.14804918 -0.014225166 0.11264587 -0.0072361333 0.0067035207
0.0047360593 0.03376316 -0.011936389 0.023797682 -0.0018171347 -0.024038997 0.02896029 -0.0012351865
0.009449837 -0.10463728 0.050149154 -0.004997935 -0.006746691 -0.008885998 0.00084257155 -0.00019078817
-0.002184197 0.04311888 -0.036031518 0.013309942
