p2_continuous-control/checkpoint_actor.pth (torch_old, 541483 bytes, 6 tensors)

fc1.weight f4 [400, 33]
0.017770175 0.03533339 -0.029461801 -0.07211154 0.011452682 -0.0028053224 0.033941846 0.014925394
-0.011584282 -0.036278285 0.03329548 0.02503639 -0.045631427 0.00015056878 0.00031732605 0.034589756
-0.008886819 -0.006971907 -0.012011517 0.027987573 -0.003356196 -0.006523818 0.04935048 -0.02951336
-0.04081569 -0.0017148256 0.26456493 0.012258917 0.044769783 -0.020974046 -0.07175144 -0.029362602
-0.3634225 -0.04137503 -0.026726646 -0.007224977 -0.020862995 -0.04249371 0.026341025 -0.041296028
0.036994968 -0.026709443 0.049473215 -0.00891757 0.020831447 0.017928336 0.02597129 -0.01959385
-0.027445806 0.058221743 0.026587937 0.035629395 0.012500156 -0.034306943 0.017678734 -0.04028544
-0.024818886 -0.034113586 0.018446866 0.034532253 0.006228658 0.30673093 -0.045746047 0.013896102
-0.035196595 -0.49215454 0.037030514 0.013764953 -0.017587423 0.009327939 0.035738673 -0.025201077
-0.04097741 -0.049671482 -0.038999718 -0.033927403 -0.021390695 -0.041697048 -0.046731412 -0.015919011
0.043519136 0.028227579 -0.0076695536 -0.004452247 0.030023325 -0.01239872 0.030204836 0.008580279
-0.02570414 0.00055419654 0.001224421 0.028446686 -0.01358802 0.06043098 -0.04374839 -0.024651414
-0.014022068 0.03263882 -0.04564135 0.020313907 0.0047068954 -0.012504153 0.031925958 0.014095906
-0.03879298 -0.045761947 0.0034122057 0.02215254 0.035425585 -0.0062081926 -0.00616296 -0.034718685
8.888915e-05 -0.024608467 -0.01517595 0.032902047 -0.032639682 0.0022778288 -0.018445762 0.037622493
0.020087432 0.020927157 -0.025749737 -0.022887379 -0.03066411 -0.13823909 -0.047295205 0.05938055
0.009037215 0.016194938 0.041343357 -0.59977746 -0.0034613386 -0.031951975 0.018804412 0.039563667
0.045455012 0.0054129884 -0.014068681 -0.046496708 -0.023281503 -0.014206104 -0.015633099 0.03706822
0.011415772 0.02669445 -0.022574868 0.042755146 -0.012003952 0.017907996 0.03350536 0.008056557
-0.049373098 0.03064512 0.04330549 0.019479875 0.02209055 0.021400977 0.15562667 0.018601801
0.20219064 -0.019585496 0.0625297 0.02447066 -0.32956567 0.021462563 -0.07907836 0.012823109
0.08375871 -0.03500231 0.01848356 -0.015010939 0.03867421 0.037148807 0.026894663 -0.033909813
0.048214655 -0.020726789 0.038676973 -0.027073286 0.019285332 0.07716012 0.013121884 -0.04329702
0.014088213 0.04319447 0.020630483 0.035577748 -0.025464064 0.03404701 0.0067065842 0.1466945
-0.016167836 -0.04249326 0.040231835 0.09694431 -0.03040647 0.5456877 0.0059748814 -0.0009791101
0.042077314 0.07443238 -0.034039453 0.03709319 0.034151174 0.01153367 -0.025201147 -0.01057028
-0.021363247 -0.04852381 -0.012206864 -0.015974708 -0.06463321 -0.029527415 0.030299233 0.008935202
0.03409216 0.0048918626 0.01155483 -0.02036785 0.0073693916 0.025538247 0.036049683 -0.0062539503
-0.036260873 0.01239841 -0.06381482 0.038549375 0.052595425 0.014932025 -0.65644777 -0.038042437
0.041880064 0.007376414 -0.016527452 0.036265884 -0.008387756 -0.005429524 0.028433178 -0.03400833
0.036968607 0.03661998 0.033099215 0.016219113 -0.042948503 -0.011874417 0.03546023 -0.033377256
0.001531072 0.03228506 0.023169503 0.00597303 0.017104242 0.020784263 2.7216971e-05 -0.034239877
00000000: c292 913c bfb9 103d e059 f1bc 37af 93bd
00000010: 08a4 3b3c 80d9 37bb 9b06 0b3d a489 743c
00000020: 00cc 3dbc 8a98 14bd d760 083d 1e19 cd3c
00000030: 05e8 3abd 00e2 1d39 c85e a639 fdad 0d3d
00000040: 059a 11bc 9874 e4bb f4cb 44bc 3246 e53c
00000050: a0f3 5bbb c0c5 d5bb bb23 4a3d 00c6 f1bc
00000060: 5a2e 27bd 00c4 e0ba 0e75 873e a0d9 483c
00000070: 8560 373d c3d1 abbc 6bf2 92bd d789 f0bc
00000080: 8412 babe dd78 29bd d7f1 dabc 80bf ecbb
00000090: dfe8 aabc e20d 2ebd 22c9 d73c 0626 29bd
000000a0: 0988 173d c3cd dabc 6da4 4a3d 001b 12bc
000000b0: b6a6 aa3c 72de 923c bec1 d43c 4883 a0bc
000000c0: 07d6 e0bc ec79 6e3d f2ce d93c 21f0 113d
000000d0: 74cd 4c3c 7085 0cbd fed2 903c 5802 25bd
000000e0: fa50 cbbc b0ba 0bbd e21d 973c b171 0d3d
000000f0: c519 cc3b d60b 9d3e 3560 3bbd 7aac 633c
00000100: 4e2a 10bd aefb fbbe 4fad 173d 6686 613c
00000110: 8013 90bc 36d4 183c b762 123d 7d72 cebc
00000120: eed7 27bd 5374 4bbd 2bbe 1fbd 76f7 0abd
00000130: 8a3b afbc 86ca 2abd 7069 3fbd 9668 82bc
00000140: 1f41 323d 863d e73c e150 fbbb 28e4 91bb
00000150: 7af3 f53c 0024 4bbc 2270 f73c 4c94 0c3c
00000160: 7d91 d2bc 8047 113a c07c a03a 0609 e93c
00000170: 49a0 5ebc 7a86 773d 8331 33bd c3f1 c9bc
00000180: d1bc 65bc 49b0 053d 6df2 3abd 5a69 a63c
00000190: 4d3c 9a3b 38de 4cbc cbc4 023d 84f2 663c
000001a0: 63e5 1ebd e170 3bbd 509f 5f3b 3e79 b53c
000001b0: 6b1a 113d 186e cbbb a8f2 c9bb 2e35 0ebd
000001c0: 006a ba38 b297 c9bc 8ca4 78bc 4cc4 063d
000001d0: 30b1 05bd a047 153b 911b 97bc 0b1a 1a3d
000001e0: 668e a43c 6e6f ab3c 1df1 d2bc 507e bbbc
000001f0: 4d33 fbbc 8c8e 0dbe 9eb8 41bd 0539 733d
00000200: d410 143c 3fab 843c a757 293d 048b 19bf
00000210: a0d7 62bb 13e0 02bd b60b 9a3c 830d 223d
00000220: 092f 3a3d 705f b13b 5380 66bc 5573 3ebd
00000230: dab8 bebc b8c0 68bc fc10 80bc d9d4 173d
00000240: 3809 3b3c 52ae da3c eeee b8bc 0520 2f3d
00000250: 39ac 44bc cab3 923c eb3c 093d a6ff 033c
00000260: 723b 4abd 7a0b fb3c 1961 313d 4294 9f3c
00000270: 3ef7 b43c 1a51 af3c 995c 1f3e ce62 983c
00000280: 100b 4f3e c371 a0bc 920f 803d b276 c83c
00000290: d5bc a8be 42d2 af3c d6f3 a1bd 0418 523c
000002a0: b089 ab3d 955e 0fbd d66a 973c 71f0 75bc
000002b0: d968 1e3d 5929 183d 3252 dc3c 04e5 0abd
000002c0: bb7c 453d 3acb a9bc bf6b 1e3d ccc8 ddbc
000002d0: 46fc 9d3c 2006 9e3d 2cfd 563c 3758 31bd
000002e0: 40d2 663c afec 303d 4201 a93c f9b9 113d
000002f0: 039a d0bc e174 0b3d e8c2 db3b 1537 163e
00000300: 6972 84bc 6a0d 2ebd 23ca 243d bd8a c63d
00000310: fd16 f9bc 30b2 0b3f f0c8 c33b 7c55 80ba
00000320: 4359 2c3d 0170 983d f46c 0bbd 07ef 173d
00000330: 1ae2 0b3d b8f7 3c3c a372 cebc f82e 2dbc
00000340: fa01 afbc e7c0 46bd 4cff 47bc 64dd 82bc
00000350: 6b5e 84bd 7ae3 f1bc 1936 f83c f464 123c
00000360: 39a4 0b3d eb4b a03b 7850 3d3c 7ada a6bc
00000370: f07a f13b 9635 d13c d5a8 133d f0ed ccbb
00000380: 4886 14bd b322 4b3c 58b1 82bd f3e5 1d3d
00000390: 4d6e 573d 74a5 743c f60c 28bf 63d2 1bbd
000003a0: 6e8a 2b3d d8b5 f13b 9464 87bc 898b 143d
000003b0: cc6c 09bc 26ea b1bb b2ec e83c 524c 0bbd
000003c0: 656c 173d d5fe 153d 0b93 073d f2dd 843c
000003d0: c5ea 2fbd ea8c 42bc bf3e 113d 97b6 08bd
000003e0: 40ae c83a 573d 043d f8cd bd3c 68b9 c33b
000003f0: 321e 8c3c c243 aa3c 0050 e437 1d3f 0cbd

fc1.bias f4 [400]
0.12775688 0.14567745 0.06671995 0.1327852 0.12039405 0.22334759 0.1553643 -0.050790176
0.16112368 -0.06384682 0.21999452 0.098988324 -0.029594129 -0.1781423 0.1287716 0.021295873
0.119560145 -0.13032983 -0.057831034 0.15959598 -0.13489452 0.17792514 0.16713901 -0.03455045
-0.10095042 -0.09511529 -0.02154457 -0.032432687 0.012548125 -0.12088095 -0.02781547 0.117834926
0.14825056 0.0016975105 0.10250508 -0.043544184 -0.038666695 -0.13753618 0.14012359 -0.044509396
-0.057590783 -0.1361873 0.17332165 -0.16088484 -0.047096647 -0.14794561 -0.0325884 0.072073445
0.10690004 -0.16018884 -0.16386345 0.022324769 -0.015018192 -0.08193992 -0.12075383 0.069330566
0.022160783 0.058622178 -0.00031399043 0.04905227 -0.03186729 -0.037418302 0.0059256335 -0.010544539
-0.08195725 0.16942462 -0.18563336 -0.11465117 -0.014274726 0.16243331 -0.15943891 -0.008070988
-0.012290863 -0.020616284 0.057930723 -0.17092744 -0.008975308 -0.16095945 -0.11731046 -0.013364688
-0.16325855 0.072583556 -0.13433321 -0.011340706 -0.07751274 -0.13134488 0.137992 0.15089577
-0.08034631 -0.13742974 0.16777015 0.19891225 0.14861748 -0.101438366 -0.09130282 0.018347532
0.13796116 -0.16944385 0.022966089 -0.13094187 -0.10059505 0.09721701 0.05126059 0.16130435
0.06476703 -0.021522764 0.13706118 0.11147118 -0.14502087 -0.13196062 0.18819584 0.069025144
0.14508836 -0.20371383 0.14321841 -0.10376904 -0.10913831 0.1461711 0.03808176 0.1882093
0.1262538 -0.08534066 0.14425458 0.15855667 -0.1514961 0.14961763 0.15159096 0.09771208
-0.15609716 0.06592034 0.027769176 0.017771978 0.12612365 -0.07599194 -0.037327856 -0.003931636
-0.21809813 -0.14520504 -0.17464395 -0.14930531 -0.08511147 0.118947506 -0.17396984 0.1206987
0.035863094 -0.13407663 0.1354338 0.11450358 -0.14409882 0.16179383 -0.072580695 0.049157307
0.046196893 0.030371102 -0.14655824 0.1042319 -0.1179848 -0.099230565 -0.010755286 0.021291034
0.15145862 0.05584133 -0.0325004 -0.11681165 0.11444673 -0.1665397 -0.06911268 -0.08180227
-0.1294929 0.062163547 0.09860611 0.16064648 -0.016846085 -0.18256329 0.15023077 -0.1447619
-0.10201118 0.09281179 0.13763683 0.0435719 -0.10628211 -0.09160511 0.009795857 0.08709924
-0.010655177 -0.0956557 0.073201396 0.019150572 -0.05025467 0.049543224 0.023449928 -0.09707502
-0.04110608 -0.065753214 -0.0034704134 -0.095980875 -0.14226805 -0.11071263 0.02569909 -0.0020575926
-0.015752295 0.04189888 0.031893164 0.09258835 0.011343531 -0.011840964 -0.10053001 -0.002003868
-0.050934855 -0.13600521 0.007880013 -0.113458864 -0.16338806 0.12002062 -0.019395841 -0.025500342
0.14710674 -0.028129876 0.0059231063 0.17194834 0.061800398 -0.14646426 0.15059182 -0.09099204
-0.010131376 0.06345848 0.18456084 -0.15659429 -0.096168496 -0.16554165 -0.16331738 -0.19677407
-0.14944184 0.035300944 0.11678623 0.18641241 0.08578748 -0.14266211 0.102261074 -0.1592095
0.21758974 -0.03186646 0.14586782 -0.11176349 0.17303857 -0.12847829 0.080573775 -0.0329791
0.010065018 -0.065868765 0.18356875 0.03899623 0.10624413 -0.06267345 -0.09816563 0.09131323
00000000: b3d2 023e 782c 153e 78a4 883d d8f8 073e
00000010: 2891 f63d 3bb5 643e d217 1f3e 5c09 50bd
00000020: 9bfd 243e 1fc2 82bd 3e46 613e 64ba ca3d
00000030: 636f f2bc ef6a 36be b4dc 033e af74 ae3c
00000040: f3db f43d 2f75 05be 3ce0 6cbd 216d 233e
00000050: ca21 0abe 0232 363e 7d26 2b3e c684 0dbd
00000060: 18bf cebd cecb c2bd 3d7e b0bc 23d8 04bd
00000070: a796 4d3c 6e90 f7bd 45dd e3bc 7053 f13d
00000080: ffce 173e 007f de3a 2fee d13d 635b 32bd
00000090: f860 1ebd 49d6 0cbe 8f7c 0f3e 7c4f 36bd
000000a0: 50e4 6bbd af74 0bbe 3b7b 313e ffbe 24be
000000b0: 6ae8 40bd 0e7f 17be 6a7b 05bd 3e9b 933d
000000c0: 68ee da3d 8b08 24be d2cb 27be 6fe2 b63c
000000d0: dd0e 76bc 1ed0 a7bd c94d f7bd 2ffd 8d3d
000000e0: 888a b53c cf1d 703d 159f a4b9 08eb 483d
000000f0: 4787 02bd ef43 19bd d12b c23b 01c3 2cbc
00000100: 34d9 a7bd a67d 2d3e ac16 3ebe 3cce eabd
00000110: 8ae0 69bc eb54 263e f443 23be 2d3c 04bc
00000120: 9e5f 49bc 7be3 a8bc c448 6d3d 9a07 2fbe
00000130: 2c0d 13bc 8ed2 24be 7740 f0bd 90f7 5abc
00000140: 402d 27be b0a6 943d a58e 09be 5ece 39bc
00000150: 00bf 9ebd 467f 06be c64d 0d3e 6c84 1a3e
00000160: 9b8c a4bd 62ba 0cbe f0cb 2b3e a7af 4b3e
00000170: 2e2f 183e ebbe cfbd f9fc babd 904d 963c
00000180: b145 0d3e b082 2dbe 6123 bc3c a015 06be
00000190: c704 cebd b619 c73d a0f6 513d f82c 253e
000001a0: 94a4 843d 8250 b0bc c459 0c3e 014b e43d
000001b0: 5a80 14be af20 07be 69b6 403e 0e5d 8d3d
000001c0: 0b92 143e 5c9a 50be d9a7 123e dd84 d4bd
000001d0: e883 dfbd e0ad 153e 9ffb 1b3d f0b9 403e
000001e0: ad48 013e 15c7 aebd 79b7 133e ae5c 223e
000001f0: cb21 1bbe 5d35 193e a93a 1b3e 451d c83d
00000200: efd7 1fbe 3e01 873d 2f7c e33c 8a96 913c
00000210: 8f26 013e aaa1 9bbd 18e5 18bd f4d4 80bb
00000220: 1e55 5fbe a1b0 14be ddd5 32be 7ee3 18be
00000230: ec4e aebd c09a f33d 2625 32be e130 f73d
00000240: 2ee5 123d 624b 09be 28af 0a3e da80 ea3d
00000250: a48e 13be 48ad 253e 30a5 94bd 2c59 493d
00000260: f438 3d3d d1cc f83c 5d13 16be 8977 d53d
00000270: 04a2 f1bd 6539 cbbd f036 30bc 896a ae3c
00000280: f817 1b3e e1b9 643d 241f 05bd f23a efbd
00000290: 0c63 ea3d 6289 2abe f38a 8dbd f387 a7bd
000002a0: c999 04be 349f 7e3d 00f2 c93d 8380 243e
000002b0: cd00 8abc dff1 3abe 18d6 193e 773c 14be
000002c0: 3deb d0bd 1c14 be3d abf0 0c3e 7378 323d
000002d0: 6faa d9bd 769b bbbd cd7e 203c 1661 b23d
000002e0: 0d93 2ebc 23e7 c3bd 9dea 953d a9e1 9c3c
000002f0: d7d7 4dbd d6ed 4a3d 101a c03c 45cf c6bd
00000300: d95e 28bd 9fa9 86bd e06f 63bb 9f91 c4bd
00000310: b7ae 11be 4ebd e2bd e686 d23c add8 06bb
00000320: f50a 81bc 299e 2b3d 68a2 023d f69e bd3d
00000330: 38da 393c 9a00 42bc aee2 cdbd 5453 03bb
00000340: 11a1 50bd f344 0bbe 2c1b 013c 1f5d e8bd
00000350: 334f 27be 5fcd f53d 07e4 9ebc 18e6 d0bc
00000360: 26a3 163e a070 e6bc 9e16 c23b 3a13 303e
00000370: 6a22 7d3d bafa 15be be34 1a3e 095a babd
00000380: 12fe 25bc 85f6 813d 84fd 3c3e 415a 20be
00000390: fdf3 c4bd c083 29be ac3c 27be 247f 49be
000003a0: 4807 19be b997 103d 9e2d ef3d e5e2 3e3e
000003b0: 59b1 af3d 0416 12be 416e d13d d107 23be
000003c0: d8cf 5e3e 6886 02bd 605e 153e 42e4 e4bd
000003d0: 0631 313e d08f 03be dd03 a53d 1815 07bd
000003e0: bfe7 243c 34e6 86bd 72f9 3b3e 83ba 1f3d
000003f0: 8696 d93d f05a 80bd 100b c9bd 6e02 bb3d

fc2.weight f4 [300, 400]
-0.01296787 0.0563571 0.030761676 -0.006716723 0.13394542 0.022826003 -0.018943781 -0.006644861
0.029860009 -0.045756333 -0.13629074 0.010741517 0.026858523 0.045845434 -0.5936265 -0.058309592
-0.15294068 0.023195093 -0.019706804 -0.024545606 0.05384352 -0.27837428 -0.60347676 -0.09448234
0.022600502 -0.08260571 0.04927501 -0.35181668 0.016116718 -0.0021456778 -0.00019907947 -0.006695848
0.12806733 -0.013531569 0.13985547 0.042638656 0.036596917 -0.038562246 -0.036335163 -0.067094475
-0.19951819 -0.28299442 -0.28623825 0.07676306 -0.3667217 0.012334311 0.011711175 0.0016554333
0.056768022 0.019164257 -0.35670784 -0.10263857 0.053942274 -0.054558694 -0.3895898 0.025929043
-0.04849028 -0.06652618 -0.2320803 -0.0186449 0.0731955 -0.38204554 -0.05562491 -0.44630206
0.101721734 -0.29917377 -0.08255604 0.027066477 0.0019617085 -0.016060991 -0.072282426 0.02937407
-0.33752108 -0.12946467 -0.045269597 -0.0669914 0.010604867 -0.03655813 -0.07636558 -0.12938029
-0.0494434 -0.5817706 0.05065552 -0.21860349 0.05146813 -0.65139073 -0.23366559 -0.02595987
-0.7008433 -0.010694224 -0.039951034 0.10839598 0.022999384 0.06457218 -0.019375011 -0.007820312
-0.054717086 0.0037336312 0.06820845 0.002614446 -0.005965609 0.04948625 -0.0565379 -0.033618987
-0.063335784 -0.0006675722 -0.008599997 -0.01724251 0.15601361 -0.042759206 0.095682114 0.056138553
-0.01123136 -0.02486679 -0.17704213 0.034317322 -0.04277777 -0.2849754 -0.023760224 0.07687131
0.31822369 -0.0015831698 0.09034379 -0.026093123 0.04694687 0.016911568 -0.2517089 0.11224023
0.03733577 0.055169318 -0.3530196 -0.6218339 -0.28399187 -0.04119787 0.0116139725 -0.29382145
-0.15212323 -0.05581727 -0.3356252 0.03203949 0.023121206 -0.23072669 0.002429679 -0.14022724
-0.37838054 -0.014761549 -0.034149747 -0.056526415 0.012616627 0.025737694 -0.0903725 -0.023903362
-0.048455577 0.01858489 0.047742806 -0.15190127 -0.40740284 0.036576092 -0.008042473 -0.08853652
-0.03780404 0.069417775 0.057116345 -0.054310597 0.16797177 0.046640217 -0.016478557 -0.011340857
0.0023800144 0.033188567 -0.31145322 -0.161815 0.043701846 0.055342756 0.0519741 -0.016232789
0.039893232 -0.013528145 -0.21166441 -0.09694227 0.023518838 0.005681485 -0.06286627 -0.23262614
-0.015287325 -0.014984319 -0.55338514 0.3328116 -0.023268199 -0.40389422 0.022963217 -0.012015448
-0.44519496 -0.04314439 -0.03254458 0.0624879 -0.009544564 -0.0063439086 -0.08558326 -0.036889914
-0.056604546 0.30347562 -0.13544944 0.00501236 0.046051968 -0.37866732 -0.057428546 -0.08279709
0.043216556 -0.0840726 -0.05890708 -0.029826796 0.010557808 0.10697072 -0.021797314 -0.035132375
-0.22031082 -0.052458227 -0.02921597 0.0009085573 -0.026745759 0.029026533 -0.012407739 0.016336493
-0.019790044 0.024635633 -0.061978403 0.018766128 -0.047182184 -0.039661005 -0.020865083 -0.035847895
0.055626936 0.023479113 -0.06361493 -0.027072463 0.038304076 0.046063073 0.08463375 0.022212483
-0.55498856 0.01456742 -0.21215442 0.029500179 -0.5257718 -0.02482722 -0.100306265 0.03527943
-0.23952956 0.058113616 0.017628983 -0.0136429975 -0.5316442 -0.00588799 -0.010431725 0.045339826
00000000: 3077 54bc b4d6 663d e9ff fb3c f517 dcbb
00000010: fd28 093e 99fd ba3c fd2f 9bbc 22bd d9bb
00000020: fa9c f43c fe6a 3bbd cd8f 0bbe 30fd 2f3c
00000030: 6806 dc3c 6cc8 3b3d e8f7 17bf 0ad6 6ebd
00000040: 7b9c 1cbe a303 be3c 2a70 a1bc de13 c9bc
00000050: 068b 5c3d 1387 8ebe 747d 1abf f57f c1bd
00000060: b024 b93c 2f2d a9bd 98d4 493d 5121 b4be
00000070: 3507 843c 809e 0cbb fdbf 50b9 d868 dbbb
00000080: 1524 033e 84b3 5dbc 4636 0f3e dfa5 2e3d
00000090: a6e6 153d 72f3 1dbd 2ed4 14bd d468 89bd
000000a0: 7f4e 4cbe a5e4 90be d28d 92be f435 9d3d
000000b0: f2c2 bbbe da15 4a3c 3ae0 3f3c 20fb d83a
000000c0: 9685 683d 5cfe 9c3c 69a2 b6be 2c34 d2bd
000000d0: 93f2 5c3d f078 5fbd 5078 c7be 2569 d43c
000000e0: be9d 46bd e13e 88bd 75a6 6dbe 30bd 98bc
000000f0: 86e7 953d 799b c3be f2d6 63bd b481 e4be
00000100: 7c53 d03d 4e2d 99be 2413 a9bd 84ba dd3c
00000110: 0290 003b 5792 83bc cf08 94bd e4a1 f03c
00000120: 90cf acbe 6392 04be 9d6c 39bd ca32 89bd
00000130: 09c0 2d3c fabd 15bd 8f65 9cbd 447c 04be
00000140: 2a85 4abd ebee 14bf 2a7c 4f3d 98d9 5fbe
00000150: 3fd0 523d 8bc1 26bf 0846 6fbe cba9 d4bc
00000160: 776a 33bf d436 2fbc b2a3 23bd b6fe dd3d
00000170: 3469 bc3c 6b3e 843d 58b8 9ebc c420 00bc
00000180: 061f 60bd f0af 743b dfb0 8b3d 2057 2b3b
00000190: 287b c3bb 18b2 4a3d 4994 67bd 10b4 09bd
000001a0: 31b6 81bd 0300 2fba 00e7 0cbc 2a40 8dbc
000001b0: 08c2 1f3e 4724 2fbd fcf4 c33d 8af1 653d
000001c0: bd03 38bc 70b5 cbbc 884a 35be 5290 0c3d
000001d0: be37 2fbd 4ce8 91be cda4 c2bc b56e 9d3d
000001e0: 37ee a23e 5d82 cfba 2a06 b93d 3fc1 d5bc
000001f0: 5c4b 403d 218a 8a3c fddf 80be 35de e53d
00000200: 64ed 183d 39f9 613d fcbe b4be 8230 1fbf
00000210: 6267 91be 19bf 28bd 8848 3e3c c46f 96be
00000220: 31c6 1bbe a6a0 64bd 11d7 abbe d73b 033d
00000230: af68 bd3c 9e43 6cbe 403b 1f3b bb97 0fbe
00000240: 18bb c1be 6dda 71bc 9be0 0bbd 3e88 67bd
00000250: f8b5 4e3c dbd7 d23c 3815 b9bd fcd0 c3bc
00000260: 5b79 46bd 573f 983c f68d 433d 028c 1bbe
00000270: 1b97 d0be d0d0 153d 94c4 03bc a352 b5bd
00000280: 69d8 1abd e82a 8e3d d4f2 693d ca74 5ebd
00000290: cb00 2c3e d009 3f3d 0afe 86bc 00cf 39bc
000002a0: 04fa 1b3b bcf0 073d cc76 9fbe d5b2 25be
000002b0: b500 333d 16af 623d cbe2 543d a0fa 84bc
000002c0: 1667 233d 27a5 5dbc 8ebe 58be ab89 c6bd
000002d0: 94aa c03c c02b ba3b 08c0 80bd 8c35 6ebe
000002e0: b077 7abc ca80 75bc a6aa 0dbf 4866 aa3e
000002f0: f39c bebc 39cb cebe 5b1d bc3c 71dc 44bc
00000300: 98f0 e3be 2cb8 30bd 774d 05bd 50f3 7f3d
00000310: ce60 1cbc 90e0 cfbb 4746 afbd e119 17bd
00000320: 2bda 67bd 2861 9b3e 42b3 0abe b93e a43b
00000330: fda0 3c3d afe0 c1be 323a 6bbd 8591 a9bd
00000340: d803 313d 412e acbd 8d48 71bd 5357 f4bc
00000350: a8fa 2c3c 7713 db3d 4890 b2bc f7e6 0fbd
00000360: 2999 61be 70de 56bd 5456 efbc 402c 6e3a
00000370: ec19 dbbc 0dc9 ed3c d449 4bbc 1cd4 853c
00000380: bb1e a2bc abd0 c93c 11dd 7dbd 6cbb 993c
00000390: 1b42 41bd 9473 22bd 40ed aabc 3ed5 12bd
000003a0: 12d9 633d 4557 c03c 8b48 82bd 12c7 ddbc
000003b0: bce4 1c3d a2ac 3c3d 7654 ad3d f4f6 b53c
000003c0: bb13 0ebf 30ac 6e3c 023f 59be 5caa f13c
000003d0: fb98 06bf 7462 cbbc 5f6d cdbd 2a81 103d
000003e0: 3d47 75be 8b08 6e3d a86a 903c e186 5fbc
000003f0: d619 08bf 0af0 c0bb d3e9 2abc 41b6 393d

fc2.bias f4 [300]
-0.03671834 0.008214213 0.016437078 0.015811833 0.045489162 0.009370391 -0.009792018 -0.060011677
-0.005036122 0.026988862 -0.037869364 -0.014371284 -0.0051069777 0.0057290876 -0.018615952 0.0125584025
0.07091373 -0.04470871 0.03640472 0.0020390088 0.030489756 -0.020734115 -0.043769807 0.034996603
0.053105805 0.048829187 0.057135306 -0.022312835 0.017505333 0.021387298 0.013022191 0.08571612
0.016911283 0.03334269 -0.046890646 -0.022240648 0.0868713 0.022944722 -0.010631305 -0.031867575
0.00035330103 0.0508426 -0.022879878 0.013010399 0.06352811 0.021306302 0.015322012 -0.078660056
-0.00057193247 -0.027688747 -0.044955783 -0.022072773 -0.009080024 0.0155457435 0.061541196 -0.01301884
0.0041600373 -0.07008218 0.019965623 0.0014898789 -0.0057079764 0.026175393 -0.01117928 0.05444534
0.048558123 0.027377749 0.034170136 0.005347813 -0.041883238 0.013689046 0.03485616 -0.115906976
0.01343976 0.042518217 -0.006198126 -0.048323736 0.035349548 -0.021081625 0.0060083633 -0.03603532
0.069951564 -0.062264808 0.013634886 0.009840134 0.049582414 0.003871353 0.009346356 0.047872283
-0.043891516 -0.055920493 -0.00327849 0.03490412 -0.0014080713 -0.030103592 0.022403 -0.038130503
-0.044684123 -0.034416974 0.027550034 0.01724094 -0.038707484 0.094475545 0.01860678 -0.055462744
-0.0033038568 0.0014146052 -0.011395862 0.04366873 0.036046293 0.040106203 -0.012406324 0.034991182
0.042969666 0.017301997 -0.040093515 0.00983472 0.0022058731 0.00075084396 -0.049456418 0.026400864
0.04509362 0.05546454 -0.0187597 0.030961081 0.031353686 0.0562381 -0.053151295 -0.07251311
0.01079308 0.030763952 -0.0056846985 0.09592711 0.0011193455 0.024415316 0.019404931 0.022526901
0.03690297 -0.064508006 0.012473832 -0.033798397 0.02772783 0.006449369 -0.017975738 -0.011505039
0.042381957 -0.02669608 -0.015571987 -0.014624097 0.099381484 -0.006338087 -0.020319384 0.014503681
-0.017296793 0.028845191 -0.0008952094 -0.015758755 0.019367278 -0.011202511 0.08926843 0.0021590106
-0.037871506 -0.011100307 0.015765268 0.058088396 -0.042811118 -0.04731205 0.0074126706 -0.011365315
-0.032071933 -0.038806226 -0.012167565 -0.04804658 0.01961773 -0.043279137 -0.043286078 0.0089773545
0.014709016 0.049134754 -0.020703914 0.012178878 0.03495321 0.021115836 -0.044675555 0.011726681
0.08449997 -0.013919745 -0.036821794 -0.057155337 -0.0010325266 -0.0012046573 -0.0546986 0.04844756
0.0148863075 -0.0024811395 -0.042163014 0.026472546 0.050650112 0.002455761 0.0144788455 -0.0026884896
0.0023141047 -0.048809998 -0.026098523 0.043625034 0.058020193 0.023901388 0.043567207 -0.050559074
0.04342214 8.293533e-05 0.005358723 -0.011711468 -0.013402415 0.005409123 -0.06244691 0.005657544
0.04118107 0.018164063 0.03925982 0.015152158 0.0012886621 -0.036757965 0.044668585 -0.071281314
0.040298827 0.06457105 0.032828778 -0.044592872 0.0736478 0.04310188 -0.03476595 0.121601984
0.022493234 0.0048474045 0.055176925 -0.036934674 -0.04794878 0.049353927 -0.028478665 -0.003339573
-0.041012637 0.023484947 0.05182147 0.0017101171 0.014673126 -0.016579274 -0.014049328 -0.025422148
-0.032535557 0.039367247 -0.033024002 0.005326064 -0.04454856 0.02696177 0.04925618 0.03182924
00000000: f865 16bd e894 063c 0da7 863c d187 813c
00000010: d852 3a3d 4586 193c b36e 20bc cece 75bd
00000020: 0e06 a5bb bf17 dd3c e81c 1bbd 8975 6bbc
00000030: 6f58 a7bb 12bb bb3b 7b80 98bc c2c1 4d3c
00000040: 383b 913d 7b20 37bd 1e1d 153d e4a0 053b
00000050: a7c5 f93c 97da a9bc f847 33bd 9958 0f3d
00000060: 7985 593d 1d01 483d b606 6a3d 68c9 b6bc
00000070: 5867 8f3c 6a34 af3c 075b 553c ef8b af3d
00000080: 8889 8a3c 5892 083d 6810 40bd 0532 b6bc
00000090: 95e9 b13d 92f6 bb3c ed2e 2ebc 9387 02bd
000000a0: 433b b939 5540 503d 956e bbbc 9229 553c
000000b0: 071b 823d 8e8a ae3c 2d09 7b3c 8618 a1bd
000000c0: bded 15ba 83d3 e2bc 8e23 38bd f6d1 b4bc
000000d0: 62c4 14bc 93b3 7e3c 9f12 7c3d f94c 55bc
000000e0: ec50 883b 3f87 8fbd f28e a33c 0a48 c33a
000000f0: fa09 bbbb c76d d63c 4c29 37bc 1402 5f3d
00000100: e2e4 463d 4d47 e03c fcf5 0b3d b53c af3b
00000110: c28d 2bbd 0548 603c 55c5 0e3d a360 edbd
00000120: 7032 5c3c 9527 2e3d a619 cbbb 1cef 45bd
00000130: b0ca 103d 5fb3 acbc cee1 c43b c699 13bd
00000140: c442 8f3d 6209 7fbd db64 5f3c 8338 213c
00000150: ee16 4b3d 87b6 7d3b 7521 193c ba15 443d
00000160: 97c7 33bd e30c 65bd efdb 56bb 9ff7 0e3d
00000170: 088f b8ba cf9b f6bc 7f86 b73c bb2e 1cbd
00000180: b306 37bd d0f8 0cbd 9cb0 e13c df3c 8d3c
00000190: bd8b 1ebd 657c c13d 3f6d 983c e72c 63bd
000001a0: 8585 58bb 466a b93a b6b5 3abc fbdd 323d
000001b0: 47a5 133d 6746 243d e543 4bbc ea52 0f3d
000001c0: f600 303d ebbc 8d3c 1939 24bd ce21 213c
000001d0: 6990 103b 49d4 443a d092 4abd a046 d83c
000001e0: 16b4 383d c92e 633d f1ad 99bc 18a2 fd3c
000001f0: b96c 003d ec59 663d 2cb5 59bd c181 94bd
00000200: 75d5 303c af04 fc3c b546 babb 6f75 c43d
00000210: 01b7 923a a102 c83c 17f7 9e3c 568a b83c
00000220: 9227 173d c61c 84bd 0b5f 4c3c 3070 0abd
00000230: 7925 e33c 3a55 d33b db41 93bc a27f 3cbc
00000240: b498 2d3d bdb1 dabc a621 7fbc e999 6fbc
00000250: 8588 cb3d baaf cfbb d674 a6bc d9a0 6d3c
00000260: 01b2 8dbc c04c ec3c 7cac 6aba 8118 81bc
00000270: 20a8 9e3c bd8a 37bc 5ed2 b63d 307e 0d3b
00000280: 271f 1bbd 10de 35bc 2a26 813c 19ee 6d3d
00000290: b65a 2fbd 48ca 41bd fde5 f23b 9635 3abc
000002a0: dc5d 03bd 47f3 1ebd 775a 47bc 7ecc 44bd
000002b0: 5db5 a03c 7745 31bd be4c 31bd c115 133c
000002c0: 16fe 703c 8641 493d 419b a9bc eb89 473c
000002d0: 192b 0f3d 1efb ac3c b7fd 36bd 4421 403c
000002e0: 520e ad3d a40f 64bc 73d2 16bd b71b 6abd
000002f0: d855 87ba 97e5 9dba a40b 60bd f370 463d
00000300: b3e5 733c 9d9a 22bb 20b3 2cbd f4dc d83c
00000310: 7e76 4f3d d5f0 203b ae38 6d3c 5f31 30bb
00000320: 3ca8 173b feec 47bd 92cc d5bc 2ab0 323d
00000330: 95a6 6d3d d8cc c33c 8773 323d 0817 4fbd
00000340: 6adb 313d 91ed ad38 3a98 af3b 75e1 3fbc
00000350: ce95 5bbc 033f b13b 55c8 7fbd eb62 b93b
00000360: 7bad 283d cdcc 943c e8ce 203d c240 783c
00000370: 53e8 a83a 858f 16bd 68f6 363d f0fb 91bd
00000380: 6210 253d d43d 843d 7877 063d 04a7 36bd
00000390: a8d4 963d 998b 303d be66 0ebd 760a f93d
000003a0: bb43 b83c fad6 9e3b 3301 623d d048 17bd
000003b0: f165 44bd 5827 4a3d 174c e9bc bddc 5abb
000003c0: defc 27bd 8163 c03c c042 543d 0226 e03a
000003d0: 8d67 703c 42d1 87bc 272f 66bc 1c42 d0bc
000003e0: 0144 05bd 8d3f 213d 2d44 07bd 4386 ae3b
000003f0: 8d78 36bd eede dc3c d9c0 493d 615f 023d

fc3.weight f4 [4, 300]
0.26624992 0.0002576036 0.012105973 -0.07842503 0.27010217 -0.13211614 0.28532362 0.013551123
0.006848557 0.12193802 -0.08001304 -0.015149164 0.10496233 0.21885982 -1.1248374 0.009983223
-0.49628034 0.029673714 0.0050735027 0.016685521 0.6602096 0.12754287 -0.0017294659 0.13331664
0.16033836 0.042203307 0.074253984 -0.0003641306 -0.37402916 0.1736148 0.009281257 -0.29322717
0.34413856 0.008769784 0.6607996 0.00381645 -0.18245083 0.13995121 0.0012767822 0.0051193032
0.17963417 -0.28740117 0.0024057 0.1908767 0.16327196 0.005255811 6.897066e-05 -0.50951636
0.2437155 0.06186374 0.0030859078 -0.18160632 0.0044932375 -0.0023407843 0.1133879 0.038329795
0.3326368 -0.32071736 0.023312198 -0.17068148 0.24233043 0.3506073 -0.0019261765 0.19575226
-0.0036787246 0.0038794824 -0.0012947603 0.0018334719 0.22602683 -0.34019497 0.4491674 0.0057826946
0.025931742 0.0050492533 -0.31208837 -0.14185101 -0.18906416 -0.40732566 0.39519545 0.009185768
-0.1172112 0.05462616 0.21416034 -0.03338927 -0.20422168 -0.30917376 0.1999403 -0.14209354
0.003759388 0.7174389 0.027191222 -0.20353897 0.02346488 0.009274136 0.003868911 0.017520191
0.02099811 0.0051774825 0.062024694 -0.56676024 0.0033430797 -0.15432614 0.0066628354 0.19783574
0.51437396 0.20220864 -0.3482755 0.009619247 -0.30461347 0.000104538165 -0.0054554953 -0.2386857
0.017573543 -0.16308753 0.22109528 -0.07597323 0.0012657027 0.016046682 0.007830987 0.09865829
0.27113754 -0.52766067 0.31494248 0.00937443 0.13542798 0.51998186 -0.002159432 0.24481972
-0.04792473 -0.39445502 0.010513524 -0.023156418 0.061401676 -0.19703971 -0.36081347 -0.084034815
0.18377449 -0.31896603 0.37526006 -1.6176903 -0.0011411633 -0.00032300968 -0.069758095 0.0015161657
0.0023295574 0.00081594195 0.005416505 0.29589614 0.06243056 -0.78435284 0.14691186 -0.25052035
0.48450637 0.012653638 -0.09770539 0.19396995 0.0020436854 0.0050030835 -0.036223024 0.33385006
0.008614552 -0.1604446 0.019963602 0.19298685 0.0025073104 0.014557274 -0.4214877 0.0068727294
0.00019508785 0.0026410006 -0.096972756 -0.026394976 0.0122398455 -0.4333373 0.0020903572 0.46290886
-0.02835314 -0.23377818 -0.26698864 0.004380549 0.002159462 0.010236985 0.40553552 0.023990955
-0.11881493 -0.033840045 -0.0010981286 -0.051782 -0.0023112088 -0.2457461 -0.05532574 -0.0009884862
-0.09263118 -0.6158592 0.005536177 -0.102935165 -0.63257587 0.0095519675 0.03248088 0.012511168
-0.021570893 0.08196721 0.22370903 -0.22437741 -0.16684633 0.0037117854 -0.1816314 -0.60129124
-0.36504447 0.0068043834 -0.1327442 -0.049903296 -0.15868066 0.0065688714 -0.20395827 0.19653212
0.008674512 -0.11970172 -0.00063439284 -0.27949515 -0.08024782 0.01747196 -0.39095703 0.20986079
-0.22220382 0.083297476 0.009580173 0.24390347 -0.151559 0.10084325 0.046346515 -0.15379895
-0.00064676744 -0.034987725 0.20460993 0.010365075 -0.000948451 -0.32784724 0.89706904 0.107893765
0.013858456 0.001179589 -0.30395225 -0.0034214181 0.30296803 0.11506488 0.32385498 0.27374712
0.006087232 -0.2481683 0.0020164347 0.06847269 -0.0026015928 0.104755536 0.00046800356 -0.11792765
00000000: e951 883e f80e 8739 2258 463c 4d9d a0bd
00000010: d54a 8a3e 7449 07be f015 923e 8805 5e3c
00000020: dc69 e03b a4ba f93d e0dd a3bd 3334 78bc
00000030: 7df6 d63d ca1c 603e acfa 8fbf ac90 233c
00000040: 7518 febe 4a16 f33c a03f a63b 13b0 883c
00000050: 7f03 293f 999a 023e 3faf e2ba 2884 083e
00000060: bd2f 243e 60dd 2c3d 7912 983d c8e8 beb9
00000070: c080 bfbe 14c8 313e 6a10 183c df21 96be
00000080: ee32 b03e 24af 0f3c 2a2a 293f 681d 7a3b
00000090: 64d4 3abe 5f4f 0f3e b459 a73a d4bf a73b
000000a0: 05f2 373e 3f26 93be f3a8 1d3b 2f75 433e
000000b0: c430 273e f038 ac3b 57a4 9038 aa6f 02bf
000000c0: 8e90 793e d564 7d3d f13c 4a3b 02f7 39be
000000d0: 023c 933b d867 19bb ea37 e83d b4ff 1c3d
000000e0: 5f4f aa3e 1135 a4be 39f9 be3c 20c7 2ebe
000000f0: 7825 783e cd82 b33e c277 fcba 4873 483e
00000100: c216 71bb ea3e 7e3b f2b4 a9ba 1c51 f03a
00000110: 9473 673e 092e aebe 45f9 e53e c27c bd3b
00000120: ce6e d43c 3574 a53b 0cca 9fbe 6441 11be
00000130: 099a 41be fd8c d0be 0f57 ca3e e77f 163c
00000140: 6d0c f0bd aebf 5f3d d94c 5b3e 30c3 08bd
00000150: 7d1f 51be 064c 9ebe 26bd 4c3e f880 11be
00000160: 1160 763b 13aa 373f 20c0 de3c 856c 50be
00000170: 6c39 c03c 8cf2 173c 8e8d 7d3b 8186 8f3c
00000180: 3a04 ac3c dfa7 a93b 9b0d 7e3d 3317 11bf
00000190: 9217 5b3b ac07 1ebe ea53 da3b 7495 4a3e
000001a0: 03ae 033f c80f 4f3e 2b51 b2be 0c9a 1d3c
000001b0: 4cf6 9bbe 803b db38 03c4 b2bb 066a 74be
000001c0: 64f6 8f3c 6b00 27be cd66 623e da97 9bbd
000001d0: efe5 a53a 5574 833c 8a4d 003c 5c0d ca3d
000001e0: 8ad2 8a3e c514 07bf 2440 a13e 3697 193c
000001f0: a2ad 0a3e 881d 053f 4285 0dbb 05b2 7a3e
00000200: b94c 44bd 02f6 c9be ea40 2c3c 87b2 bdbc
00000210: 5380 7b3d c7c4 49be 8bbc b8be 721a acbd
00000220: 612f 3c3e 844f a3be 1622 c03e 7a10 cfbf
00000230: 1693 95ba a059 a9b9 55dd 8ebd 14ba c63a
00000240: 7dab 183b f0e4 553a f07c b13b b37f 973e
00000250: 30b7 7f3d 59cb 48bf 1070 163e 3444 80be
00000260: 3811 f83e 3451 4f3c c319 c8bd 0fa0 463e
00000270: 5aef 053b e8f0 a33b 985e 14bd 65ee aa3e
00000280: 0d24 0d3c 974b 24be b58a a33c 589e 453e
00000290: b051 243b a281 6e3c 3ccd d7be a234 e13b
000002a0: 7f90 4c39 a314 2d3b a799 c6bd 473a d8bc
000002b0: a289 483c 63de ddbe 60fe 083b 6402 ed3e
000002c0: d844 e8bc 8c63 6fbe bcb2 88be b58a 8f3b
000002d0: c385 0d3b 07b9 273c 5aa2 cf3e ae88 c43c
000002e0: 3e55 f3bd dc9b 0abd 15ef 8fba 5d19 54bd
000002f0: a677 17bb dea4 7bbe 3e9d 62bd 1890 81ba
00000300: 6bb5 bdbd f3a8 1dbf d268 b53b accf d2bd
00000310: 7ef0 21bf db7f 1c3c ac0a 053d a4fb 4c3c
00000320: 71b5 b0bc 6dde a73d fb13 653e 31c3 65be
00000330: c4d9 2abe 6d41 733b 95fd 39be 39ee 19bf
00000340: 1ce7 babe 4ef7 de3b 18ee 07be 6667 4cbd
00000350: 2f7d 22be b03f d73b 70da 50be b73f 493e
00000360: 8a1f 0e3c 2d26 f5bd 624d 26ba fd19 8fbe
00000370: f858 a4bd 5b21 8f3c 852b c8be bfe5 563e
00000380: 6689 63be de97 aa3d 28f6 1c3c d5c1 793e
00000390: 4832 1bbe e886 ce3d d8d5 3d3d 797d 1dbe
000003a0: d48b 29ba 4a4f 0fbd 4485 513e 47d2 293c
000003b0: 78a1 78ba 98db a7be 51a6 653f 68f7 dc3d
000003c0: 940e 633c 709c 9a3a a19f 9bbe df39 60bb
000003d0: a01e 9b3e 23a7 eb3d 52d0 a53e 9528 8c3e
000003e0: 6777 c73b d51f 7ebe 2926 043b 693b 8c3d
000003f0: 7c7f 2abb 128a d63d 605e f539 0d84 f1bd

fc3.bias f4 [4]
-0.09698759 -0.0019187877 -0.030100245 0.06247807
00000000: 6ea1 c6bd d57f fbba ca94 f6bc 01e9 7f3d
