p2_continuous-control/checkpoint_critic.pth (torch_old, 237203 bytes, 11 tensors)

bn.weight f4 [33]
000000 0e 69 2b 3f f0 cf ed 3e 29 38 06 3f 60 4c 7a 3e
       0.66957176 0.46447706 0.52429444 0.24443197
000010 43 6a 0d 3e 48 66 3e 3e 50 9c 08 3e f5 0b 9f 3d
       0.13810067 0.18593705 0.13340878 0.077659525
000020 57 b4 be 3d a6 63 bd 3d be 84 69 3e e3 48 21 3e
       0.09311741 0.09247522 0.22804543 0.1575046
000030 12 94 4a 3e be 70 5c 3f a7 e2 26 3f b7 fb 44 3f
       0.19783047 0.8610953 0.65189594 0.76946586
000040 7b 5b d0 3e 3c 90 e1 3e 7b 2d 8d 3e bd 95 fc 3e
       0.40694794 0.44055355 0.2757376 0.4933299
000050 dd eb a5 3d 21 fd a4 3d 9e 48 79 3d 28 6e 1a 3f
       0.08101628 0.08056093 0.06086027 0.60324335
000060 f2 85 98 3e 66 bf cb 3e 94 8e 50 3f 04 26 4c 3e
       0.29789692 0.39794463 0.81467557 0.19936377
000070 22 be 6b 3f 80 dd c9 3b 14 99 73 3f 00 25 9a 3d
       0.92086995 0.006160438 0.95155454 0.075265884
000080 7e b2 7a 3f
       0.9792861

bn.bias f4 [33]
000000 d3 b2 09 3e 95 e9 8e be c6 2d cc bd 79 b9 43 3e
       0.13447122 -0.27912584 -0.09969668 0.19113721
000010 dd 5e aa bb 23 1b b1 bd 02 e6 f5 3c 94 31 02 3e
       -0.005199297 -0.08647754 0.030016903 0.12714225
000020 20 ae 52 bc a6 36 e8 bb 96 df 2a bd 6b b7 dd bd
       -0.012858897 -0.0070865927 -0.041717134 -0.10826
000030 39 8c 31 3e 93 85 8b bd 16 1c ba bc b2 20 0e bd
       0.17338647 -0.06812587 -0.02271847 -0.03469915
000040 cf 4a 0c 3e 3a e4 dd bd 20 76 32 3b bb 3c f5 3d
       0.13700412 -0.108345464 0.0027231053 0.11974474
000050 24 1c be bc 52 44 0c 3d 6e 62 06 be 42 77 96 3d
       -0.023206778 0.034244843 -0.13123485 0.073469654
000060 7a d6 c1 bd 3c 7f 3a bd ef 59 b7 bc 3e 6c dc 3d
       -0.09464736 -0.045531496 -0.02238175 0.10762833
000070 db 1e 12 3d aa 7e 50 3d ac d7 a9 bd 4c 49 0c bd
       0.035673957 0.050902046 -0.08293089 -0.03424959
000080 4b 07 29 bd
       -0.04126672

bn.running_mean f4 [33]
000000 68 0c 77 3f e0 eb 2b c0 07 ad 21 bf 01 f6 64 3f
       0.96503305 -2.6862717 -0.63154644 0.8943787
000010 a9 ce f6 3d 08 97 38 3c 14 07 cc bd a8 19 e7 3a
       0.12051136 0.011266477 -0.099622875 0.0017631548
000020 6b ec f7 bb 27 1d 94 3b 0e 1f 84 3c 6b 83 83 3b
       -0.007566025 0.004520077 0.01612809 0.004013469
000030 b7 0d 70 bb 79 52 4d 3f a8 f2 56 c0 d8 4b f7 be
       -0.0036629268 0.8020397 -3.3585606 -0.48300052
000040 68 6a eb 3d 21 6a 21 be 86 76 b5 3d 10 58 b1 3e
       0.11494905 -0.15763141 0.08860497 0.346375
000050 50 ac b8 3d e1 b5 c1 3c a4 68 5a 3d c8 68 75 3c
       0.09017241 0.023646297 0.05332245 0.014978595
000060 15 78 e8 3d b5 64 52 bb ee c3 a3 bd fc ff 7f bf
       0.11351029 -0.0032103483 -0.07996355 -0.99999976
000070 9f 7b 02 3d 00 00 00 00 fc ff 7f 3f 00 00 00 00
       0.031856176 0.0 0.99999976 0.0
000080 33 d2 88 bc
       -0.016701793

bn.running_var f4 [33]
000000 b0 09 4f 40 47 77 fe 3e 50 aa 71 40 25 cc b2 3c
       3.2349663 0.49700376 3.77602 0.02182586
000010 f9 02 5f 3d 9d 3c 71 3c fa 16 ad 3d cf d3 68 3e
       0.054446194 0.014723924 0.08451648 0.22737049
000020 bd b2 35 3d fb 2b a9 3d e4 9f d2 3f 7b 07 76 3f
       0.04435991 0.08260342 1.6455045 0.96105164
000030 87 d0 f8 3f cf 4b 8b 41 ca 32 e3 3f c3 ad a1 41
       1.9438637 17.412016 1.7749875 20.209845
000040 ab 64 04 3e d2 41 84 3e fb 37 00 3e f3 9a a4 3e
       0.12929027 0.25831467 0.12521355 0.32149467
000050 33 a2 3a 40 52 6a 0b 3f 2e 4e 09 3f 8e d4 e0 40
       2.9161499 0.54459107 0.5363492 7.0259466
000060 9e ce 3d 40 60 7b 01 41 00 fe fe 41 04 00 00 00
       2.965736 8.092621 31.874023 6e-45
000070 9a 84 00 42 04 00 00 00 04 00 00 00 04 00 00 00
       32.129494 6e-45 6e-45 6e-45
000080 ac e1 aa 3e
       0.333753

fcs1.weight f4 [256, 33]
000000 dc da da bd 20 4e 47 be 70 51 ed 3d 64 ca c6 be
       -0.10686275 -0.19463396 0.115877986 -0.38826287
000010 31 e6 bb be 04 36 6d be cf aa 08 bf 02 df 6f 3e
       -0.3669906 -0.23165137 -0.53385633 0.23424914
000020 04 d7 2e be ac 17 97 3c 1f a2 2a 3d 97 38 f3 3c
       -0.1707421 0.018443905 0.041658517 0.02969007
000030 21 4b 43 3e 41 81 d9 bd bf 15 03 3d 9d 39 54 be
       0.19071628 -0.10620356 0.03200316 -0.20725103
000040 ca df 88 bc 4c 91 30 bd d1 35 7a 3d 27 b9 fe 3e
       -0.016708273 -0.043107316 0.06108648 0.49750635
000050 5d 8e ae bd eb d5 2e be 15 1c 1e be ae d6 54 be
       -0.085232474 -0.1707379 -0.154404 -0.20785019
000060 cc 3e 4b be ec 10 1b 3d ff 04 a0 3e 6e 7a 0e be
       -0.19848174 0.037857935 0.31253812 -0.1391389
000070 e5 b9 98 3e 86 da d1 be 3b 6e 3c 3e 5d bb 10 3f
       0.29829326 -0.40987033 0.18401425 0.56535894
000080 3e 75 d2 be fd 47 79 3e 82 23 02 be 40 09 1a bd
       -0.41105074 0.24343868 -0.12708858 -0.037606478
000090 72 2c 7c be da 1d 4d 3d d6 b3 b1 3c 1b 15 61 3e
       -0.2462633 0.050077297 0.021692198 0.21980707
0000a0 f2 1a 6c 3e 2b 97 b6 3d a8 11 e3 bd 9a 01 83 bc
       0.23057154 0.08915552 -0.11087352 -0.015991975
0000b0 19 f7 6d bd a7 6c 82 3d 01 23 7c 3e df ca 0f bd
       -0.05809698 0.0636838 0.24622728 -0.035105582
0000c0 92 c7 13 be b2 83 37 3e 1e 33 19 3f 5c d1 b7 3e
       -0.14431599 0.17921332 0.59843624 0.35901916
0000d0 c0 e5 24 be d8 54 c4 bd d6 69 e0 3d 38 98 c7 3c
       -0.16103268 -0.09586495 0.109576866 0.024364576
0000e0 bc 17 9a 3e bb ab b3 3b e8 be b4 bd 8e da ad be
       0.30096233 0.0054831184 -0.08825475 -0.33955806
0000f0 2b 6e 1c be 03 00 b5 3e ec 4f 0e bf 29 30 ef bd
       -0.152764 0.3535157 -0.555907 -0.11679108
000100 d4 41 99 be c1 18 32 be 13 b5 26 3d ed 08 9c be
       -0.29933035 -0.17392255 0.04070003 -0.3047556
000110 99 7a 41 3e 60 1b 51 3f 6d ef 97 3e dd d3 98 3e
       0.18894424 0.81682396 0.29674855 0.2984914
000120 b9 25 15 3e 16 a8 8a be 74 52 18 bf 3d ea 2f bd
       0.14565171 -0.27081364 -0.59500813 -0.042947996
000130 68 88 7c be 9a cd 8b 3e d6 0b 52 3e 09 5d e1 be
       -0.2466141 0.273053 0.20512328 -0.44016293
000140 f5 4d 1d 3e 8b e5 fe be e5 41 f4 3a c1 50 00 be
       0.1536177 -0.49784502 0.0018635361 -0.12530805
000150 ae 54 54 3d 29 b9 fd bd eb a3 05 3d 42 01 ac be
       0.05183857 -0.12388832 0.032627027 -0.3359471
000160 91 0b e1 be 40 4f 16 be cd 05 4f 3d 19 0a e6 bb
       -0.43954137 -0.14678669 0.05054264 -0.0070202467
000170 c9 d1 50 3e f3 3b a9 3d 23 7a dc 3d b8 3d ab 3e
       0.20392527 0.082633875 0.10765483 0.33445525
000180 9a fe 26 bd 94 de 59 be 69 81 32 bd 52 2f 53 3e
       -0.04077015 -0.21276313 -0.043580446 0.2062352
000190 d7 31 76 3c 1e 46 c2 3e 37 ac ab be 2d b7 9e bd
       0.015026531 0.3794412 -0.33529827 -0.07749782
0001a0 74 33 e2 3e 85 86 bc bd cd 4e 06 be 5e ad a7 3e
       0.4417988 -0.09205345 -0.13115998 0.32749456
0001b0 c0 50 d0 3d 69 18 d1 bd 95 1f 2f be e4 c4 87 bc
       0.10171652 -0.10209734 -0.17101891 -0.016573377
0001c0 7b c2 84 be 1a ad 1b be 95 d4 ab be d9 26 5f bd
       -0.25929627 -0.15202752 -0.33560625 -0.054480407
0001d0 0b eb 4f 3e 65 53 27 bd a6 f2 8b 3d 1a 4d 4e bc
       0.20304506 -0.040851016 0.06833391 -0.012591625
0001e0 c8 01 85 3e 74 bd fb 3d 39 a9 f1 be 1f 49 49 be
       0.2597792 0.12291995 -0.4719942 -0.196568
0001f0 be ab 82 be 8f 46 47 be 45 2b ea bd 40 d6 a7 be
       -0.25521654 -0.1946051 -0.11434034 -0.32780647
000200 e0 23 1e 3e 55 f1 11 bd e1 3a 8a 3c 4a 8b 74 be
       0.15443373 -0.035630543 0.016873779 -0.2388126
000210 2a 6e 63 bd be 53 90 bd 29 23 b8 be d4 49 d3 3d
       -0.055524983 -0.070472226 -0.35964325 0.10316816
000220 ba ea d2 bd 4d fa 1f 3d 77 6e 4b be 06 96 22 be
       -0.10298677 0.039057065 -0.19866358 -0.15877542
000230 4f 3e 3b 3f 0e 50 14 bf 48 31 fc bd 72 4a 61 3d
       0.7314195 -0.57934654 -0.12314087 0.055002637
000240 48 f3 50 3e 86 88 b5 3c e3 2c e1 bd 25 25 25 3c
       0.20405304 0.022159826 -0.109948896 0.010079657
000250 b3 ab 9a 3c be a4 5c 3e 50 5b d0 be bc 87 9e 3e
       0.0188807 0.21547219 -0.40694666 0.30962932
000260 e6 fb 5e 3e 08 6a 96 bc 5d 96 38 3e 31 10 84 bc
       0.21775779 -0.018361107 0.18026109 -0.016121002
000270 64 40 a0 be 89 09 33 3e d3 9c fc bb fc 20 d0 3a
       -0.31299126 0.17484106 -0.0077091246 0.0015878971
000280 27 e5 2f 3d 25 2e 81 3e 32 c4 33 bd 47 28 df 3d
       0.042943146 0.25230518 -0.04388828 0.10896354
000290 cb a7 6e be 71 26 d5 bd e2 f5 da 3d 74 39 41 bf
       -0.23306195 -0.10407723 0.1069143 -0.7547829
0002a0 84 35 1b bd 0e 4f e0 3d 0c f3 4e 3e 03 e7 bb 3e
       -0.037892833 0.109525785 0.20209903 0.36699685
0002b0 8c f8 a8 3e 7c 55 83 3d e9 34 b9 3d 15 0e 0a bd
       0.33002126 0.06412789 0.09043295 -0.033704836
0002c0 1d bb 04 ba 91 b5 7d be 17 8f 71 bd b9 ea 18 be
       -0.00050632824 -0.24776293 -0.05897435 -0.1493329
0002d0 9b d7 0b 3f d1 71 ce bd c6 39 99 bc d4 ca 1c bf
       0.5462586 -0.100803025 -0.018704306 -0.6124699
0002e0 42 68 28 3d 0f f4 35 3d cd cb 4c be a8 6d 06 be
       0.041115053 0.044422206 -0.19999619 -0.13127768
0002f0 49 cf 27 3e cd 8a 61 3c 68 87 e9 bc 4f 7d 09 3f
       0.16387667 0.013766003 -0.02850695 0.5370683
000300 97 92 b3 3e 9e a8 07 bf 28 2e c6 bc f9 ed 07 be
       0.35072777 -0.52991664 -0.02419193 -0.13274373
000310 3a 19 33 3d ef ba 3b 3e 57 34 a1 be e1 ff 8b 3e
       0.04372523 0.18333028 -0.31485245 0.27343658
000320 dd c3 15 be 0f 20 66 3e 05 12 2c bd 0b 05 1d be
       -0.14625497 0.22473167 -0.042009372 -0.15333955
000330 a0 f4 d5 3e 04 c6 22 bd 4a 46 aa 3d 0a ff 3b be
       0.41788197 -0.039739624 0.08314188 -0.18359008
000340 75 93 6d be 66 d0 1a 3e e3 fa c1 be 3e 64 fe 3d
       -0.23200782 0.1511856 -0.37886724 0.124214634
000350 a1 5a 14 3e 61 52 f2 be bb 97 93 be f4 1b d8 bd
       0.14487697 -0.47328475 -0.288267 -0.10552207
000360 d1 57 09 3f 15 d4 3a 3e 81 f6 db bc f3 d5 07 3e
       0.5364962 0.18244965 -0.02685094 0.13265209
000370 38 f0 3b be 29 9b 8a bc 61 89 70 3e b3 33 7d be
       -0.18353355 -0.01691969 0.23489906 -0.24726753
000380 a2 0c 07 be c2 72 86 be a1 4a 03 3f 7c dc fe 3d
       -0.13188413 -0.26259428 0.5128575 0.12444398
000390 4a 3e 0c bd 99 cb d1 bb 64 7e 11 be 8a c9 10 be
       -0.03423909 -0.0064024446 -0.1420837 -0.14139381
0003a0 f8 89 55 3e fc b4 2a bf 9d be 0c be 8e e6 3a 3e
       0.20853412 -0.6668241 -0.13744588 0.18252012
0003b0 70 cf a8 bd ea eb e2 be 8a ce 6f 3e d1 6a 11 be
       -0.082426906 -0.44320613 0.23418632 -0.14200903
0003c0 81 c5 2e 3e 4c 99 6c bd cc c7 1c 3e c3 fb 90 bd
       0.1706753 -0.057763383 0.15310591 -0.0707927
0003d0 8a 8f 27 be f4 cc dd 3d 55 39 1c 3f 9d e3 ba 3e
       -0.1636335 0.10830107 0.6102498 0.3650178
0003e0 ce 97 82 3e 58 27 95 bd 3c b4 8f 3e f1 ce d0 bd
       0.25506443 -0.07282895 0.28067195 -0.10195721
0003f0 ec 55 00 bf 4d e0 8a be 9f 3c b2 3d 67 54 13 bf
       -0.50131106 -0.27124253 0.08702969 -0.5755066

fcs1.bias f4 [256]
000000 22 e5 68 bc 76 6c 36 be 23 6e fe bd 20 7c bb 3d
       -0.014214786 -0.17814812 -0.12423351 0.09154534
000010 00 e9 a2 be 1e 0d e9 3b 96 05 80 bb 05 e2 1f 3c
       -0.3181839 0.0071121594 -0.003906916 0.009758477
000020 bc bd c9 bd 44 6b 2e be 29 b7 72 3e 1e 23 6c bd
       -0.09850642 -0.17033106 0.23702683 -0.057650678
000030 9b 62 2c 3c 9d 24 04 3e 4c 56 14 be 53 5a 8c 3c
       0.010521556 0.12904592 -0.14486045 0.017132914
000040 eb 10 6a 3d 17 de e5 bd 0f 5d 70 be 67 9e b6 3d
       0.05714504 -0.11224001 -0.23472999 0.089169316
000050 05 12 40 3d e3 4f 14 3e 6b d1 81 bc 9b 75 66 3e
       0.046892185 0.144836 -0.015846929 0.225058
000060 6d ab 29 bd 85 20 b3 bd a3 3f 1e 3b 73 c5 21 3d
       -0.04142325 -0.08746437 0.0024146817 0.039494943
000070 9b 33 9d bd 2e 05 96 bc 4b ff 0e 3e ed 22 d2 3c
       -0.076758586 -0.018313017 0.13964574 0.02565142
000080 79 14 1c be 5b af 55 bd ed f1 33 be 5e eb cd bc
       -0.15242185 -0.052169185 -0.17572756 -0.025136646
000090 2b f3 5d 3e ad c0 85 bc 62 5c 27 be 72 2a 1e be
       0.21674792 -0.016327227 -0.16343835 -0.15445879
0000a0 47 68 3c 3c fb 98 55 be 64 d3 0f 3c e9 d9 6f 3b
       0.011499471 -0.20859139 0.008778427 0.003659839
0000b0 05 54 37 be 24 16 9d be 21 15 29 bd 3c 23 18 3e
       -0.17903145 -0.30680954 -0.041279916 0.14857191
0000c0 7c 70 01 3e 04 09 62 bc 0c e6 8f be eb fc a0 3d
       0.12640566 -0.013796095 -0.281052 0.0786074
0000d0 4b 95 c4 bc 3f 28 58 3d 39 6d 5a bd 06 c6 15 3c
       -0.02399697 0.052772757 -0.05332682 0.009141451
0000e0 10 b4 73 bc d7 f8 fe bc a6 41 35 bd 3b bf 1f be
       -0.014874473 -0.031124515 -0.04425206 -0.15600292
0000f0 94 61 bb bc 8e e3 65 3c 20 25 bc bd 3e 9f ec 3d
       -0.022873677 0.014031304 -0.091867685 0.115538105
000100 50 9d 40 be 8f 09 7f 3b f7 53 23 be 1f 74 b9 be
       -0.1881001 0.003891561 -0.15949999 -0.36221406
000110 cb 19 1c bd eb 24 88 3d ec 2d eb 3c a3 ee d8 3c
       -0.038110536 0.066476665 0.02870842 0.026480978
000120 a2 41 6a be 71 65 1e 3d f6 70 d3 bd 18 26 83 be
       -0.228766 0.03867096 -0.1032428 -0.25615
000130 3b 4c 4f 3d c0 96 67 be 2c 44 8a 3e db 75 c8 bd
       0.05060981 -0.226161 0.27005136 -0.09788104
000140 c5 d5 0a 3e 66 0e d8 3c a9 f9 f8 bc 1b f7 12 be
       0.13558109 0.026374053 -0.030392485 -0.14352076
000150 18 ad e9 bd 98 f0 13 3e a6 55 29 3d 34 f1 28 be
       -0.11409968 0.14447248 0.041341446 -0.16498262
000160 e5 dd c8 bc b8 2f 0d be d9 4a 8d be a6 39 0e be
       -0.02451987 -0.13787735 -0.27596167 -0.13889179
000170 a7 b9 1d be 59 b8 33 3e fd 36 8e 3d 27 9d 3d be
       -0.15402852 0.17550792 0.06944082 -0.1851698
000180 fa 83 11 be d0 c9 2c 3d 97 c3 13 3d 61 66 23 bd
       -0.14210501 0.04218465 0.0360752 -0.039892558
000190 23 f9 a6 bc 38 66 f6 bd 4d d2 0d be ba 39 d0 3d
       -0.02038247 -0.120312154 -0.13849755 0.101672605
0001a0 ed ee d9 3c 59 a5 d0 3a 1f be 67 3e ca f6 87 be
       0.026603187 0.0015918418 0.22631119 -0.26555473
0001b0 ac b1 b5 be 4a 1a 8f bc 72 b3 5a 3c 72 32 0e 3e
       -0.35487115 -0.01746859 0.013348447 0.13886431
0001c0 9b 9f 62 3c 30 ed 27 3c 0c 06 ac 3c d3 d8 0f bc
       0.013831998 0.010249421 0.020998977 -0.008779722
0001d0 2b 04 92 be 8b 28 d5 3c fe 30 88 be 55 36 87 bd
       -0.28518805 0.026020309 -0.26599878 -0.0660216
0001e0 04 8f b8 be b3 0f 92 bd f6 be 3a 3c c0 82 37 be
       -0.36046612 -0.07131901 0.011398068 -0.17920971
0001f0 f6 f9 5f be c7 21 09 be 89 9c 49 be f2 26 44 be
       -0.21872696 -0.13391791 -0.1968862 -0.19155481
000200 02 6d 54 bd a4 fd 31 be f6 71 14 be 04 f1 87 be
       -0.05186177 -0.17381912 -0.14496598 -0.26551068
000210 4d 68 1a 3d 41 23 92 bc d3 a3 67 bd 89 e1 b5 bd
       0.037697125 -0.017839076 -0.05655272 -0.08880908
000220 0d 91 5f be 43 88 98 bd ed a0 dd bc 0d d3 97 bd
       -0.21832676 -0.07447865 -0.027054274 -0.074133016
000230 cc 2e d4 3d 53 f6 78 bc 52 5f b5 bd f8 f7 45 3d
       0.10360488 -0.015195447 -0.088560715 0.048332185
000240 1c 3d 93 3c 34 ab 5b be 3b 99 a4 3d e4 15 76 3d
       0.017973475 -0.21452028 0.08037039 0.06007947
000250 61 42 4c bd 80 36 25 bd 35 ef 1c be 20 a2 1e bd
       -0.04986799 -0.04033518 -0.15325625 -0.038728833
000260 92 07 14 3d 77 73 22 be 56 02 02 be cf 1c b7 bb
       0.036140032 -0.15864359 -0.12696204 -0.005588151
000270 5c 6a 28 be 9c c0 6d bd 1d 79 10 be 9a 14 45 3c
       -0.16446823 -0.058045015 -0.14108701 0.012028838
000280 7d af 31 3d 16 c9 e4 bc a2 b2 7b 3d 56 8a b4 bc
       0.04338025 -0.027927916 0.061449654 -0.02203862
000290 13 03 99 be 61 0b 98 be f7 26 80 be 9f f6 58 3d
       -0.29885158 -0.2969618 -0.25029728 0.05296957
0002a0 2f 29 ab bd f0 92 ac 3d 3c c5 9a be 05 9a 18 3e
       -0.083574645 0.084264636 -0.30228603 0.14902504
0002b0 96 43 e5 bd 61 9c b2 3d 1d 69 07 be 2f 57 19 be
       -0.111945316 0.08721233 -0.13223691 -0.14974664
0002c0 61 7b 3e bd 36 29 61 bd 51 63 82 be 58 f9 06 be
       -0.046504382 -0.054970942 -0.25466397 -0.13181055
0002d0 aa 58 b7 be 62 88 30 bb ef 59 5d 3e 3d 57 0c 3d
       -0.35809833 -0.002693676 0.21616338 0.034262884
0002e0 94 27 2f bd 47 02 3d 3e 5a 9e 9d be e9 d7 5f be
       -0.042762354 0.184579 -0.30784875 -0.21859707
0002f0 e9 39 2d 3e e6 c1 6f 3e e3 ae 82 bd 90 71 12 bd
       0.16916622 0.2341381 -0.06381013 -0.035752833
000300 77 66 2a be 88 15 79 be 41 1d 71 bd 16 d3 ed be
       -0.1664065 -0.2432462 -0.05886579 -0.46450108
000310 92 f4 0d bc 3d d7 ac bd 93 da 03 3d a2 66 2b be
       -0.008664267 -0.08439491 0.03219087 -0.1673837
000320 b4 6d fa 3d 81 2f dd bd f9 16 92 bd 77 84 c3 be
       0.122279555 -0.10800076 -0.07133288 -0.38187
000330 a0 12 fb 3c 4a 26 38 bc c5 b1 8f be fc bf 12 be
       0.03064853 -0.011239598 -0.28065315 -0.14331049
000340 52 7d f2 bd 90 63 9a bd 52 c0 69 3d cc c2 83 bd
       -0.11840309 -0.07538521 0.057068177 -0.06433639
000350 60 5d 48 be 68 3e 4a 3e 9f 48 8e 3d 03 c9 ca 3c
       -0.1956687 0.19750369 0.06947445 0.024754053
000360 cb f0 26 bd 28 5f 02 3e 81 2a 9e bd c3 57 e8 3d
       -0.04075698 0.12731612 -0.07722951 0.11344864
000370 8f 00 d6 bd d4 89 29 be d6 f8 4f 3d 2e 39 19 bc
       -0.10449325 -0.16556484 0.050774418 -0.009352012
000380 c6 47 66 bd d0 96 63 be b6 43 a6 3c 66 6c 12 be
       -0.056220792 -0.22225499 0.020295959 -0.14299163
000390 5d 8b 1a bd 6a d0 cc 3d 82 40 68 be 6a a7 96 be
       -0.037730563 0.10000689 -0.22680858 -0.29424602
0003a0 56 08 f2 bd 26 b5 51 bc 99 ea de bd d8 df e2 bd
       -0.11817996 -0.012799537 -0.1088459 -0.11077851
0003b0 47 e0 0d bc 4a 8a 09 be 55 96 1d 3e fd 2b 6e be
       -0.008659429 -0.1343166 0.15389378 -0.23258968
0003c0 58 9e a6 be 27 cc b7 3d 89 6c 0b 3d a5 e2 de bc
       -0.32542682 0.08974486 0.034039054 -0.027207682
0003d0 03 eb 01 be 47 58 a2 3e 51 06 fe bd 9b 0f a1 be
       -0.12687306 0.31707975 -0.124035485 -0.3145722
0003e0 0d cc 92 be 71 d1 98 be 64 59 3d be 46 d5 0c 3c
       -0.28671303 -0.2984729 -0.18491131 0.00859577
0003f0 62 92 76 be b7 9b 68 be a9 61 e6 bd 3d 19 f2 bb
       -0.24079278 -0.2271565 -0.11249096 -0.0073882625

fc2.weight f4 [128, 260]
000000 43 36 ac 3b 9d e1 da ba 02 90 41 3e 43 85 11 be
       0.005255492 -0.0016699318 0.18902591 -0.14210992
000010 55 d6 e3 bd 03 47 17 be c5 cc fa 3d a4 14 91 3b
       -0.11124865 -0.14773183 0.12246088 0.0044275094
000020 0f 80 49 be c6 d3 cc bd 10 4b 8a bc c2 37 e6 3c
       -0.19677757 -0.1000133 -0.016881496 0.02810276
000030 d0 56 99 3b 3e fc cb bd 1a 5b 49 be e2 ae a4 be
       0.0046795383 -0.09960221 -0.19663659 -0.32164675
000040 0b 96 eb bc b5 f7 ed 3d 4e 04 b2 bd 63 b5 04 3e
       -0.02875807 0.11619512 -0.08692227 0.12959819
000050 b7 54 1b bc 54 50 95 bd 17 23 10 3d 19 c1 d4 bd
       -0.009480647 -0.07290712 0.035189714 -0.10388393
000060 05 ad 16 be 48 3b 1f 3d 7b 3d fc bc 66 18 55 3c
       -0.14714439 0.038874894 -0.030791035 0.013006305
000070 46 ac b8 3d 6f fd f1 be bf 07 83 3d 40 e1 01 be
       0.090172336 -0.47263667 0.06397962 -0.12683582
000080 25 9f 07 bd 04 30 15 be 51 1f fb bb f4 5f 10 be
       -0.033110756 -0.14569098 -0.0076636453 -0.14099103
000090 c7 33 05 bd b6 ba cf bc 8b 56 38 be 72 5f 2f be
       -0.03252008 -0.025357585 -0.18001764 -0.17126253
0000a0 e8 ad 87 bd ee 23 80 3d 42 3f 36 be ac d3 f2 3d
       -0.06624967 0.06256853 -0.17797568 0.118567795
0000b0 74 51 83 3c ba 50 2b be 03 9f e3 bc 12 26 48 be
       0.01603005 -0.16730013 -0.027785784 -0.19545773
0000c0 bc 61 d4 bd 00 3c 43 3e d7 42 30 bd 30 a8 90 be
       -0.10370204 0.19065857 -0.043032493 -0.28253317
0000d0 eb 34 55 bb 2c aa 01 bd 48 61 08 bd ac e8 04 3e
       -0.0032532762 -0.03165643 -0.0332959 0.12979382
0000e0 ad 0c d3 be f5 ce b8 3d 1b 13 37 bd 74 9b 13 be
       -0.41220608 0.09023849 -0.044695955 -0.1441477
0000f0 7c 84 82 be d6 71 42 bd 46 af b0 3d bf 07 17 3e
       -0.25491703 -0.047471844 0.08627181 0.14749049
000100 5a b4 ab bc 98 a0 ff bd dc 21 a0 3d 2e 8a a6 3d
       -0.020960022 -0.12481803 0.07818958 0.081318244
000110 a9 09 89 be 61 43 19 be 92 fa 2e 3e 4c 3a 2c be
       -0.26765183 -0.1496711 0.17087772 -0.16819113
000120 4f 5c b4 3d 80 30 91 bd 01 2c ef 3b 78 43 c6 3d
       0.08806669 -0.07089329 0.007298947 0.096808374
000130 68 1c 17 bd df 36 2a 3e da 10 db 3d 75 6c b2 3d
       -0.036892325 0.16622494 0.106965736 0.08712093
000140 73 39 62 be bf 53 34 bb 54 7c f0 3c 42 15 a9 3d
       -0.22092228 -0.0027515737 0.02935616 0.08256008
000150 47 ef ef 3d f6 b4 2e 3e 9e 61 42 3e 3f 01 3a 3d
       0.117155604 0.17061219 0.1898255 0.045411345
000160 95 ca e9 bc 50 1f 0b be f6 e2 1d 3c 8c 2a c4 3d
       -0.028538981 -0.13586164 0.009636631 0.09578428
000170 00 8f 0b 3c 09 c6 13 3e 25 01 df 3d b5 51 ed bd
       0.008517981 0.14431013 0.1088889 -0.1158785
000180 4f 4d 47 bd 4d 0b 2e 3d 8f e8 f2 3c ed f4 47 3c
       -0.04865771 0.042491246 0.029651908 0.012204391
000190 6c 1e 8f be cf 89 10 be 8a 1f cb bd 32 f0 cb bd
       -0.27952898 -0.1411507 -0.09918125 -0.09957923
0001a0 b5 0a 48 3e 14 90 a7 bd c9 4d 50 be 35 2d 84 bd
       0.19535334 -0.081817776 -0.20342173 -0.06453935
0001b0 00 4d 26 bd 95 ca 8e 3e f8 7e 04 bd a0 cd 5b bd
       -0.040600777 0.27888933 -0.03234765 -0.053662896
0001c0 65 a1 56 bd 7e 05 50 bd 74 ac 83 3d 4d 87 19 3e
       -0.05240001 -0.050786488 0.06429377 0.1499302
0001d0 1c 88 a1 3e e6 60 01 be 55 be b1 3c a8 9d 11 3d
       0.31549156 -0.1263462 0.021697203 0.035550743
0001e0 5f 19 9d be b2 ee 00 be 91 22 ae bd cd 5c 4c bd
       -0.3068342 -0.12591055 -0.08502687 -0.04989319
0001f0 a3 2c 82 bd 71 33 94 bd 65 34 3f 3d 18 97 1e bd
       -0.0635617 -0.07236374 0.046680827 -0.038718313
000200 c2 a8 fb 3d e3 ba 49 3d 2c 47 29 3e 6a 83 e8 bd
       0.122880474 0.049250495 0.16531056 -0.1135319
000210 b8 64 04 be f8 59 3a be 76 b2 38 be 7b 77 96 be
       -0.12929046 -0.18198383 -0.18036827 -0.2938803
000220 a1 94 b3 be df cd 39 3e ce 25 03 3e 65 94 42 bc
       -0.35074332 0.1814494 0.1280739 -0.0118762
000230 e0 ef 86 be 6e 46 9f 3d 07 10 f5 bd 03 12 84 3c
       -0.26354885 0.07777105 -0.119659476 0.01612187
000240 12 4f cf 3d 23 d5 cd bd 3c 14 d7 bd 35 b3 26 3d
       0.10122503 -0.10050418 -0.10501906 0.04069825
000250 c9 07 18 bc 81 9c a6 3d db 1a d1 3d 1b 5f e6 3d
       -0.0092792 0.081353195 0.102102004 0.11248609
000260 08 f7 89 bd 3f e8 5e be 28 6a 66 3c d6 20 af bd
       -0.067365706 -0.21768282 0.014063396 -0.08551185
000270 0a 89 82 bc 7e 53 25 3d 7e 82 13 3e 4a f6 f7 3d
       -0.015934486 0.040362827 0.14405248 0.12107523
000280 be cb 1f 3e 5c 18 67 3e e3 64 ff 3d e5 13 12 be
       0.15605065 0.22567886 0.124704145 -0.14265402
000290 b1 ff 8c be 72 82 ad 3c 4c 4a 62 3d 8f 52 a2 bc
       -0.27538827 0.021180365 0.055246636 -0.019814758
0002a0 1b 00 0f 3e 26 b8 60 bc 41 90 1d 3e 3b b3 00 3d
       0.13964884 -0.013715779 0.1538706 0.031420927
0002b0 0e ac 57 be 12 2b 03 be 8e 4a c5 3c c3 93 85 3d
       -0.21061727 -0.12809399 0.024083402 0.06522324
0002c0 b8 5a 28 be e4 10 e2 bd b6 75 04 3e 19 d0 2d 3e
       -0.16440856 -0.11038378 0.12935528 0.16973914
0002d0 f7 57 93 bd c0 ac ac 3d a1 2e 3d be b5 b0 55 be
       -0.07194512 0.08431387 -0.18474819 -0.2086819
0002e0 28 bc 1d bd 6e 8e a5 bc 0e ac 99 3d 64 f5 12 bd
       -0.038509518 -0.020209517 0.0750352 -0.035878554
0002f0 89 8e 86 bd 16 ff 60 3e 54 2f e6 3c d6 5d 2f bd
       -0.06570155 0.21972308 0.02809874 -0.0428141
000300 57 a9 e3 3d 8f ea 3a ba 99 65 1a 3d 31 c1 25 be
       0.111162834 -0.0007130289 0.037694547 -0.16186978
000310 2c c0 fe bd 69 3d 68 3e 05 58 63 be a5 a8 c0 3c
       -0.124389976 0.22679676 -0.22201546 0.023517916
000320 e9 b9 93 3d 4a 01 fd 3d b8 44 e0 3b 0e 14 5f 3e
       0.07213194 0.123537615 0.0068441294 0.21784994
000330 43 ae b1 3c d5 3c 60 bd ad 04 f8 bd 57 6f 8e 3d
       0.02168954 -0.054745514 -0.12110267 0.0695483
000340 83 4a 44 3e 79 b1 b5 3d 8f af d2 3d cd 4e 53 3e
       0.19169049 0.08871741 0.102873914 0.20635529
000350 de 8d 5d 3d 0c 2f 70 be 4d 23 35 bd 17 a2 8d 3e
       0.054090373 -0.23455447 -0.04422312 0.27662727
000360 3d 71 ea 3d a7 bf 51 3b bf 3a 3a be 47 98 b4 bd
       0.1144738 0.0032005103 -0.18186472 -0.08818107
000370 3a b8 25 3e a0 8d 11 3d 77 88 ab 3d 21 3f 9e be
       0.16183558 0.035535455 0.08375638 -0.3090754
000380 83 6f 69 bd f3 7f 8a 3e a6 a1 50 bd 54 99 23 3d
       -0.05699111 0.27050743 -0.05093541 0.039941147
000390 d4 07 64 be 84 ad c2 3c 21 f5 f8 be 3e 84 13 3c
       -0.22268611 0.02376438 -0.4862452 0.009003697
0003a0 b3 62 86 bd c3 f3 e8 bd 8a 8e 2a 3c dd 9c b6 bb
       -0.06561794 -0.11374619 0.0104099605 -0.005572899
0003b0 22 d7 91 bc fd d9 51 be 1d b7 d4 bd 99 0a 04 3c
       -0.017802779 -0.20493312 -0.103864886 0.008059167
0003c0 ac 90 6b 3e 37 94 1e be 40 90 2c 3e 41 db 28 be
       0.23004407 -0.15486227 0.16851902 -0.16489889
0003d0 f0 1d c6 3d 62 79 ad bd 26 e7 42 bd fa fc 18 3e
       0.09673679 -0.084704176 -0.04758372 0.14940253
0003e0 76 73 91 3d cc c9 00 3d c7 63 d3 bc ec 08 4a 3d
       0.071021006 0.03144245 -0.025804413 0.049324915
0003f0 19 66 43 3d 70 74 b9 3d 9f 05 84 3b d2 59 19 be
       0.04770479 0.09055412 0.0040289904 -0.1497567

fc2.bias f4 [128]
000000 c9 5d a2 3d e7 77 32 be f3 b7 d6 3d b3 8e 56 be
       0.07928044 -0.17428552 0.10484304 -0.20952873
000010 76 6e f8 bc c1 7a 26 be 5c df 8a bc 73 48 76 bd
       -0.03032611 -0.16257764 -0.01695221 -0.060127687
000020 43 75 c0 3d 1c aa e9 3d b9 fb a2 bd 3d b0 89 3c
       0.09397366 0.11409399 -0.079581685 0.01680767
000030 30 41 0a bd 0e 41 e1 3d bd b6 1a be fd 9a b5 bd
       -0.033753574 0.10998736 -0.15108772 -0.08867452
000040 28 13 34 bd 96 e8 82 3c ea 2d d5 3d 66 d4 9f 3d
       -0.04396358 0.015980046 0.10409148 0.07804184
000050 be 4e e2 bc 3d 85 8c bd 77 a2 0b 3d 13 60 94 be
       -0.027625438 -0.06861351 0.034090485 -0.2897955
000060 7c d0 7e bb c2 23 af bd 53 96 4c 3d 93 86 4b bd
       -0.003888159 -0.08551742 0.049948048 -0.049688887
000070 e2 2d 76 3d 1a 27 ef 3c 08 a1 80 3d f3 f9 b6 3d
       0.06010235 0.02919345 0.06280714 0.08934393
000080 e8 0f 09 3e 00 e4 56 3d 9c 55 d7 3d 1a 79 14 be
       0.13384974 0.05246353 0.105143756 -0.14499322
000090 8d a8 d1 3d d4 fb a5 bd f5 19 ab 3c 92 1b 10 be
       0.10237227 -0.08104673 0.0208864 -0.14073017
0000a0 01 d3 1d bd 76 28 9a bd 0b 80 1b 3e 52 eb 0f 3c
       -0.038531307 -0.075272486 0.15185563 0.008784132
0000b0 31 45 58 bd 3b 87 f2 3d 85 d9 5d be 14 28 f9 3d
       -0.05280036 0.118421994 -0.21665008 0.121658474
0000c0 8f 64 ab 3d 79 cf 9c 3d 68 6f 4f 3c f2 3f 5a bd
       0.083687894 0.0765676 0.012660839 -0.05328364
0000d0 e7 af 19 bd 25 b0 0d be bd d2 96 3d f5 7e a9 3c
       -0.03752127 -0.13836725 0.07364414 0.02069042
0000e0 74 da 2d bd 93 f0 a4 bd 21 53 7a bd 80 32 fb bb
       -0.04244466 -0.080536984 -0.061114434 -0.007665932
0000f0 29 c5 67 3d f2 f0 04 3e c3 c1 7a 3d fa 78 d2 bc
       0.05658451 0.12982538 0.06121994 -0.025692452
000100 e1 8e 0e be 05 7c 1d be 97 39 3c 3c 39 4d c5 3c
       -0.13921691 -0.15379341 0.01148834 0.024084674
000110 8c 94 47 3d 41 85 d9 3c 4a d1 15 3c ba be 24 3e
       0.04872565 0.026552798 0.009144137 0.16088381
000120 31 93 e5 3d bb 3c 69 3d 37 14 f6 bd 42 a9 03 3e
       0.11209715 0.056942683 -0.120155744 0.12857535
000130 6f ae c9 3d 33 ed 02 3e 94 cd 05 3e 9e bc 99 3c
       0.09847724 0.12785797 0.13066703 0.018766697
000140 56 0d 6c bc 32 e5 ef 3b e1 58 c3 3d 1a 0b 8c bd
       -0.014407476 0.0073210234 0.09538437 -0.06838055
000150 21 cc 13 be 3b 17 b2 bd 3d f5 d5 3c 0a c8 66 bc
       -0.14433338 -0.08695837 0.026117915 -0.014085779
000160 81 71 72 3d f7 60 94 bd fb 42 4d bc 42 24 bb 3a
       0.059190277 -0.07245057 -0.012528176 0.0014277773
000170 07 8e c6 3d 6e 06 95 3d 26 bb e0 3d 1c 89 61 3d
       0.09695058 0.07276617 0.10973196 0.0550624
000180 fe ed 51 bd 91 e7 5a 3d 4d df c1 bd ff cd 60 bd
       -0.051252358 0.053443495 -0.09466419 -0.054883953
000190 c5 cb 8b 3d a7 57 53 bd 15 ca 01 be 01 18 bf 3c
       0.06825975 -0.051597264 -0.12674744 0.023326876
0001a0 52 56 a6 bc 12 a9 9f bd 65 b2 4c bd 4a 7d ed bd
       -0.020304833 -0.077959195 -0.049974818 -0.115961626
0001b0 74 81 ee 3d 67 79 78 be f6 e0 ec 3c 5c 48 d5 bd
       0.11645785 -0.24265061 0.028915863 -0.10414192
0001c0 cb 31 c8 bd a1 23 ef 3d 06 51 17 be f3 e9 14 bd
       -0.09775122 0.116767175 -0.14777002 -0.036355924
0001d0 a3 e4 7a bc 0b 29 27 be 77 43 49 be 92 df 7d bd
       -0.0153133 -0.1632425 -0.19654642 -0.06198079
0001e0 03 fa 20 3d f0 7c 02 3e 58 db ea 3d 8c 83 18 be
       0.03930093 0.12742972 0.11467618 -0.14893931
0001f0 51 24 be bc 7e dc 94 bc 5d e9 2a 3d 2a b4 91 3d
       -0.023210676 -0.018171545 0.04172646 0.07114442

fc3.weight f4 [128, 128]
000000 8b 55 8a bd 43 e9 8a be 83 9e 08 be 70 4b 92 3c
       -0.06754597 -0.2713109 -0.13341717 0.017858237
000010 a9 84 13 3e 07 66 14 bc cc 98 38 bd 6c d5 a9 3c
       0.14406075 -0.009057528 -0.045067593 0.02073165
000020 44 e9 54 bd f7 eb 12 3d 79 a0 d5 bd 0e f2 d1 3c
       -0.051980272 0.035869565 -0.10430998 0.025628116
000030 c0 63 0b bc 69 1a 87 3d c3 cd 78 3c 7a 06 5b bc
       -0.008507669 0.06596834 0.015185776 -0.013368243
000040 a4 02 d4 ba 7a 62 f1 bc 53 d4 85 bd 46 4c e4 3c
       -0.0016175103 -0.029465903 -0.06534638 0.027868401
000050 b8 f5 27 bd 6c ff 82 3c 39 31 93 bd 56 1a cb bd
       -0.04100582 0.015990935 -0.07187123 -0.099171326
000060 3c 1f f3 3c 37 73 77 3d a9 99 0f 3e df ee 92 3d
       0.02967798 0.06041261 0.1402346 0.07174467
000070 e2 0d 43 bd 52 ea 05 bd 33 e3 cb 3d 10 26 36 bc
       -0.04762066 -0.03269417 0.09955444 -0.011117473
000080 10 68 47 be 90 28 36 bd 7e 9b 60 3d e2 74 1c ba
       -0.1947329 -0.044472277 0.05483579 -0.00059683446
000090 b6 aa 98 3c 70 6b ce 3d be a7 fa bd 95 ed a2 3a
       0.018636089 0.10079086 -0.122390255 0.0012430424
0000a0 aa a6 b8 bb 26 5e c7 bb 68 86 4b 3d 3a 03 ba 3c
       -0.0056351023 -0.0060842214 0.049688727 0.022706617
0000b0 d3 6d 2d be 28 61 93 bd b9 18 11 bd 50 e4 95 bc
       -0.16936426 -0.071962655 -0.035423968 -0.018297344
0000c0 75 5e b9 3d 55 78 6a 3d 26 4b db 3a b0 e8 7d bc
       0.090512194 0.057243664 0.001673077 -0.015497372
0000d0 42 50 3a bd 34 6f 3f be cd 26 36 3d 61 5b fe 3c
       -0.045486696 -0.18694764 0.044470597 0.031049432
0000e0 69 74 81 3d 1e 65 a6 3c d3 da 2f 3d 8f a4 8a 3c
       0.063210316 0.020311888 0.042933296 0.01692417
0000f0 43 c9 a7 bd ea 9e 85 bd 09 2b 13 3d 20 47 b9 3c
       -0.081926845 -0.06524451 0.035929713 0.022616923
000100 c2 8a 8d 3c f2 63 16 be 77 3d 5a bd d9 0c a7 bd
       0.017278079 -0.14686564 -0.053281274 -0.08156747
000110 85 3e 90 3d fa 78 99 bd 3f e5 d4 bd 74 39 01 3d
       0.07043175 -0.074937776 -0.10395288 0.031548932
000120 bc 53 03 be 30 89 4e bd 79 31 76 3d d4 9e 05 3c
       -0.12824911 -0.0504238 0.060105775 0.008155543
000130 82 5a 18 3d 34 fd f2 bd e1 99 1a be 5d a3 73 be
       0.03719569 -0.11864701 -0.15097763 -0.23792787
000140 87 bd b3 bc bd 2b 64 bd 44 38 88 3d d6 b7 75 bd
       -0.02194096 -0.055705775 0.06651357 -0.059989773
000150 4e 90 8d bd 38 70 0d be 78 3f e8 3c c2 b6 2f 3e
       -0.069122896 -0.1381234 0.028350577 0.1715956
000160 cb c9 32 be cf f9 ce 3d d5 ad 65 3c 04 41 0c be
       -0.1745979 0.10106241 0.014018496 -0.13696676
000170 2c 2f 76 3d ec 10 71 3b b6 57 94 bc e4 ce 33 3d
       0.06010358 0.0036783768 -0.01810823 0.04389848
000180 19 eb 0f 3d 02 3f ec bd e5 77 43 3d 67 d2 2c 3d
       0.035136316 -0.11535455 0.047721762 0.042192843
000190 9c 6c ad bd 02 b0 24 3d 0d 5b aa bd e3 87 3d be
       -0.08467981 0.040206917 -0.08318148 -0.18508868
0001a0 01 64 c7 3c b1 b6 7d bc cf 0c 70 3d 68 16 3e be
       0.024339678 -0.015485452 0.058605965 -0.18563235
0001b0 2e 3d 69 bd 81 66 be bd 64 9a d7 bd dd 1d a3 bc
       -0.05694311 -0.09296895 -0.105274945 -0.0199117
0001c0 50 88 a9 3d a8 bf 13 3d 3d 67 f9 bd 38 30 e8 bc
       0.08277953 0.03607145 -0.12177894 -0.028343305
0001d0 e7 3a 07 3d 04 29 16 bd f4 f7 91 bb a4 bd d0 bc
       0.033015158 -0.03666021 -0.004454607 -0.025481053
0001e0 4a b1 63 3d d0 e1 ec 3d b3 9d 3d 3e d1 5c 82 3d
       0.055588998 0.11566508 0.18517189 0.063653596
0001f0 84 25 23 be f9 f8 89 bb 70 c3 80 bd 66 94 c2 3d
       -0.1593228 -0.004210588 -0.06287277 0.09500961
000200 1f c9 25 3d ac 08 fa bd c3 5c 0e 3d bd 84 a6 bd
       0.040475007 -0.12208685 0.034756433 -0.081307866
000210 af 44 04 bd dc 1d 9b 3d e5 0b 41 3e 3c 11 4a bd
       -0.032292064 0.075740546 0.18852194 -0.049332842
000220 d6 1e 4e 3d 96 cb ee bc 6d 96 72 bb 1b ee 27 bc
       0.050322376 -0.029149812 -0.003701593 -0.01024964
000230 9d d2 5f bd b5 91 9a 3c fa 3c e3 bd f1 4a f6 3d
       -0.054644216 0.018868307 -0.11095615 0.12026013
000240 3c 10 ef bc 0b bd d8 bc fe 04 c7 3d 9d c6 97 bb
       -0.029182546 -0.02645733 0.09717749 -0.004631831
000250 df ff 59 bb 8b 25 c2 3c 26 17 9e bb aa b9 16 be
       -0.0033264083 0.023699543 -0.004824537 -0.14719263
000260 9d 45 0b 3e bf 97 65 bd 5a 9d 44 bd b6 2f a3 bc
       0.13600774 -0.05605292 -0.048001625 -0.019920211
000270 53 55 0c 3e 6c d3 79 bc 69 1b 95 3d 5c 82 e0 bd
       0.13704424 -0.015248161 0.07280619 -0.10962364
000280 af 05 25 3d 44 a2 5b 3c c4 c3 df bd 4d 0e 55 bd
       0.040288623 0.013405386 -0.10926011 -0.05201559
000290 57 a4 b3 bd 7a b3 17 bd 0e c8 df 3d 8a 53 0f 3c
       -0.0877158 -0.037036397 0.10926829 0.008747945
0002a0 d2 ba 2b 3d 07 29 a8 3c 5c 98 bf bc 35 ee 38 bd
       0.041926213 0.020527376 -0.02338808 -0.045149047
0002b0 d6 35 c1 3c c0 d4 ea 39 9a a0 dc 3c a8 34 e7 3d
       0.023585241 0.0004479047 0.02693205 0.1128934
0002c0 b3 2a 95 3b 3c 3d c0 3d 2d 20 d4 bd 0b d9 7b bc
       0.0045522093 0.093866795 -0.103576995 -0.015371571
0002d0 1f 4e f4 bd c2 a4 2c bc 3c c5 81 3b 34 42 dc 3d
       -0.11928963 -0.010537328 0.0039602797 0.10754815
0002e0 02 0c 0e be 77 36 47 bd 8d b0 b6 bc da 32 e2 3c
       -0.13871768 -0.048635926 -0.022300983 0.027612139
0002f0 10 a8 c5 3c a2 68 17 3d 3c 45 ea 3c f9 09 fe bc
       0.02412799 0.03696502 0.028597467 -0.031010615
000300 40 1f a3 bc bb 28 6b bd 6d 24 93 bd a8 d0 fe b9
       -0.019912362 -0.05741189 -0.07184682 -0.00048602116
000310 4b 5a 6e bc b1 f8 09 be 99 a3 dd 3c 95 ed e9 3d
       -0.014547895 -0.13473774 0.027055549 0.11422268
000320 d1 f0 89 bc b9 1e 50 bc ac 49 4a bc ec e1 a5 bc
       -0.016838463 -0.012702637 -0.012346666 -0.02024933
000330 17 1d 99 3d b5 aa c5 3a b9 97 0a 3d 4d fb 2d be
       0.074762516 0.0015080782 0.0338361 -0.16990395
000340 c4 94 c2 3d e0 f0 c9 3c 24 d9 44 3d a8 09 ca 3c
       0.09501031 0.024650991 0.048058644 0.024662808
000350 45 68 ea 3c 79 33 28 3d a4 60 76 3d b1 a4 e5 3c
       0.028614173 0.041064713 0.060150757 0.028032633
000360 f3 65 49 3b 79 fd 1a 3d cf f5 b8 bc 79 34 75 bd
       0.0030730932 0.037839387 -0.022578148 -0.059864495
000370 94 a9 36 3e 9a 95 04 bc 9c c9 bc 3d e6 8f 84 3d
       0.17838126 -0.008092308 0.092181414 0.06472759
000380 b9 84 db 3b 90 17 e6 3d f4 20 f7 bc e5 93 17 3d
       0.0066991714 0.11234963 -0.03016708 0.037006278
000390 fc f7 e5 3c 80 82 ef bc bf 7a 48 3b 1d bb 7e bd
       0.02807235 -0.029237032 0.003059074 -0.062190164
0003a0 d8 38 c4 bd 72 ef ae 3d 4b 24 7a bc 86 28 98 3d
       -0.095811546 0.08541764 -0.015267442 0.07429604
0003b0 33 7c b2 3d 72 db 11 3c b8 5b 5c bd 61 02 86 3b
       0.08715095 0.0089024175 -0.053798407 0.004089639
0003c0 1a 33 9c 3c 1a 76 27 be 4d 30 1f bd 83 ee 81 bc
       0.019067336 -0.16353646 -0.038864423 -0.015860802
0003d0 5d fc a4 bd 00 f2 aa 3d bc c1 7e bc d8 14 c5 bd
       -0.08055947 0.08346939 -0.01554912 -0.09623116
0003e0 88 2a a9 3c 24 8c 40 3d 6a cd 58 bd ed e6 ac 3d
       0.020650163 0.04700865 -0.052930273 0.08442483
0003f0 43 91 67 3d db b4 d6 bc 14 c5 c6 3d 5f b7 2f bd
       0.056535017 -0.026209285 0.097055584 -0.042899486

fc3.bias f4 [128]
000000 f4 21 97 3d 71 ce b1 bd ce 57 7b 3d 6b bf 65 3c
       0.07379523 -0.08681954 0.061363034 0.014022688
000010 d0 39 1d bd 63 11 ae 3d 1e 96 2d 3e 3d e0 3a be
       -0.038385212 0.0849941 0.16951796 -0.18249603
000020 50 d2 74 3e d2 ed ad bd f2 ef 8a 3e 7b 8e 4c 3e
       0.23908353 -0.08492626 0.2713619 0.19976227
000030 5d 04 e4 bd 64 4d 5b 3e 17 71 26 be 6c 0c 69 3e
       -0.11133645 0.21416241 -0.16254078 0.22758645
000040 be c4 5f be 1d e7 e6 3c a4 e1 89 bc 9d c8 6d 3e
       -0.21852395 0.028186375 -0.016831227 0.23221059
000050 e4 34 60 be b6 53 36 3e aa b2 d2 3c b5 69 81 3e
       -0.21895176 0.1780537 0.02571996 0.2527596
000060 5c fb 0a bd 12 8f ef bd 33 0a dd bd 01 94 8d 3d
       -0.03393112 -0.1169721 -0.10792961 0.06912995
000070 f5 fc 14 be 98 d0 59 3e 07 09 50 3e 73 0e 85 3d
       -0.1454962 0.21270978 0.20315944 0.064968966
000080 bb c2 4e 3b 65 dc 08 be 43 38 cf bd 86 dc 79 3e
       0.0031549174 -0.13365324 -0.10118153 0.2440053
000090 27 fd 4e 3e 51 e2 71 be b1 8c 19 be fc 38 bc 3d
       0.20213757 -0.23621489 -0.14995076 0.091905564
0000a0 29 ce 2c be 06 60 99 3d e0 86 ab 3c 92 ff f4 bb
       -0.16875519 0.07489018 0.020938337 -0.0074767554
0000b0 03 a1 1d 3d d7 91 65 3e 69 5b ab bd 5a d9 3e be
       0.03848363 0.22418915 -0.083670445 -0.186376
0000c0 d2 7b 5d be e6 b8 c3 bd 1a fa 8d 3b 56 81 e1 bd
       -0.21629265 -0.09556751 0.004332793 -0.11010997
0000d0 2d d1 81 3d f9 94 5f be 2e ea 45 3e 3d 37 10 be
       0.06338725 -0.21834172 0.19327614 -0.14083572
0000e0 12 57 0a be 9b b4 4f be 6b 4d 3b be c4 6d 09 be
       -0.13509777 -0.2028374 -0.18291251 -0.13420779
0000f0 5d 03 75 bd 98 3d 82 3e 9f 6d 89 3e c9 8d 2b be
       -0.05981766 0.25437617 0.26841447 -0.16753305
000100 1c 9b 26 bc 55 ea 3d be 34 ff 4b be 74 1d 50 be
       -0.010168817 -0.18546422 -0.19921571 -0.20323735
000110 9c ff e4 bd f2 5b cc 3d b1 5d da bd f2 53 72 3c
       -0.11181566 0.09978475 -0.106624015 0.014790522
000120 a9 c7 9d 3d 79 ae 98 bc 2c b8 74 3e cb df 7f bd
       0.07704098 -0.018637883 0.23898381 -0.062469285
000130 2d 70 65 be 3b 8e 13 be ae 5f cd bd 94 ae 76 3e
       -0.22406073 -0.14409725 -0.10028015 0.24090034
000140 e6 31 e7 bd ba d3 9c bd dc e7 7a be 98 a6 5f be
       -0.11288814 -0.07657571 -0.2450251 -0.21840894
000150 8b 03 33 bc 8b 67 53 3e 03 18 cf 3c 6b 23 17 3e
       -0.010926138 0.20644967 0.025280004 0.14759605
000160 de ea 4e be 7c f0 da 3d 20 b0 e3 bd 41 5d 06 bd
       -0.20206782 0.106904 -0.111175776 -0.032803778
000170 ab 91 75 3e f7 a9 07 3d 94 8a 88 be 55 bd 0f 3e
       0.23981349 0.033121075 -0.26668227 0.14037068
000180 36 df 1e be f6 aa 04 be e9 4d 49 bd 09 d6 14 3d
       -0.15514836 -0.12955841 -0.049146567 0.036336932
000190 6b 7b 0b be 22 62 18 be 4b 92 16 be 1c 19 d8 bd
       -0.13621299 -0.14881185 -0.14704244 -0.10551664
0001a0 51 5a 32 bd 2d 3b 67 3d c4 2f 55 3e 70 86 60 be
       -0.043543164 0.05645292 0.20819002 -0.21926284
0001b0 86 c2 c5 bc 18 4e 75 3d 19 19 49 3e fb 11 04 be
       -0.024140608 0.05988893 0.1963848 -0.12897484
0001c0 8e 16 f4 b9 64 c2 11 be 7b e7 cf 3d e4 8f 5c be
       -0.0004655611 -0.1423431 0.10151573 -0.21539265
0001d0 74 26 9f 3c 50 06 7c bd fc c7 29 3d c1 1c 96 3d
       0.019427516 -0.061529458 0.041450486 0.07329703
0001e0 85 3e ff bc 15 ea 72 3e 79 bb b9 3d 61 55 7b 3c
       -0.031157741 0.23722108 0.09068961 0.01534018
0001f0 f4 f0 6c 3d 7e f9 23 bd cf df 83 3d aa ce 6b 3e
       0.05784698 -0.040032856 0.064391725 0.23028055

fc4.weight f4 [1, 128]
000000 e7 f6 e0 3d 33 e9 c2 bd 65 ac 2e 3e 5e 85 57 be
       0.10984593 -0.095171355 0.17057951 -0.2104697
000010 d4 04 47 be 82 c6 2b 3e d7 89 3c 3e 9e e3 09 be
       -0.19435436 0.16774943 0.18411957 -0.13465735
000020 51 22 07 3e 6a 01 ee bd a9 90 f0 3d ff c0 09 3e
       0.13196684 -0.116213635 0.11746342 0.13452528
000030 2f 65 15 be 88 ca ab 3d 8a c0 14 be 63 2a b0 3d
       -0.1458938 0.08388239 -0.14526573 0.086018346
000040 be 5a 12 be 6e ee 56 3e 71 1e 80 bd e4 29 1a 3e
       -0.14292428 0.20989391 -0.06255806 0.15055043
000050 d8 e0 56 be 01 f5 12 3e b7 bf eb 3d 73 70 81 3e
       -0.20984209 0.14351274 0.11511176 0.25281104
000060 3b 05 10 be 0e fe e9 bd 49 3b 0f be 26 be 57 3e
       -0.14064495 -0.1142541 -0.13987459 0.2106863
000070 cb a5 2b be 59 0e 13 3e 4b 19 80 3e 6e d6 85 3e
       -0.16762464 0.14360942 0.25019297 0.2614016
000080 4c 57 08 be d5 61 ea bd 65 bb d2 bd ad a1 26 3e
       -0.13314551 -0.11444441 -0.10289649 0.16272612
000090 f4 b5 03 3e a9 35 55 be 2f fa 4c be 90 62 5b 3e
       0.12862378 -0.20821251 -0.20017312 0.21424317
0000a0 3f 4e 12 be 22 92 e2 3d 76 dd 18 be b2 2d 29 3e
       -0.14287661 0.11063029 -0.1492823 0.16521338
0000b0 f2 40 35 be 4e 30 0b 3e 10 ae c1 be 13 55 21 be
       -0.17700556 0.13592646 -0.37828112 -0.1575511
0000c0 7e e0 4b be 62 04 24 be c7 32 25 3e f9 21 20 be
       -0.19909856 -0.16017297 0.16132651 -0.1563796
0000d0 cf 26 37 3e 93 af 2a be bc e9 24 3e 05 45 81 be
       0.17885898 -0.16668539 0.16104788 -0.2524797
0000e0 9f dd 82 be 5e 3e 3a be 16 5a 43 be 1c ac 02 be
       -0.25559708 -0.18187854 -0.19077334 -0.12760967
0000f0 c8 7c 27 be fd 19 90 3e 3b ad 2c 3e 93 87 c3 bd
       -0.16356194 0.28144827 0.16862957 -0.09547343
000100 4b 6f 89 be 8c 7e 25 be 6e 96 0b be 7d 8a 16 be
       -0.26842722 -0.16161555 -0.13631603 -0.14701267
000110 cf f7 5e be 96 38 1c 3e 5c ff fe bd ea d2 12 be
       -0.21774219 0.15255961 -0.1245105 -0.1433827
000120 1d 62 f2 3d 2f c0 84 bd 3f 50 2c 3e 99 be 47 be
       0.1183512 -0.064819686 0.16827486 -0.19506301
000130 f3 d2 f4 bd db dc 9f be 6e 1e 88 be 77 ae a3 3d
       -0.11954298 -0.31223187 -0.26585716 0.07992261
000140 a7 ac db bd 92 00 f8 bd 1b 03 68 be 8e 25 51 be
       -0.1072629 -0.12109484 -0.22657435 -0.20424482
000150 ea d4 2c 3e 49 2b a1 3e fb 86 7d be 22 0d 88 3e
       0.16878095 0.31478336 -0.24758522 0.2657252
000160 78 d5 27 be 4f de 04 3e 24 30 41 be 7f 30 64 3e
       -0.16390026 0.12975429 -0.1886602 0.22284125
000170 c5 3c 12 3e 3d 03 31 3e 58 e5 6a be 7d f9 bd 3d
       0.14280994 0.17286392 -0.2293905 0.09276102
000180 f2 d5 02 be 3c 4e eb bd 3f e9 3b be a2 43 4f 3e
       -0.12776926 -0.114895314 -0.18350695 0.20240644
000190 2a 00 51 be d2 33 29 be 49 f5 12 be 5a d5 f6 bd
       -0.20410219 -0.16523674 -0.14351381 -0.12052412
0001a0 d5 a4 d4 3d 7a 8e 22 3e d0 f5 39 3e 37 d1 1a be
       0.10383002 0.15874663 0.18160176 -0.15118872
0001b0 52 b4 6b be df ba 6d be 6f 1e 21 3e 5f 68 44 be
       -0.23018005 -0.23215817 0.15734266 -0.1918044
0001c0 74 4b 2f 3e bd b2 28 be 3d 67 52 3e dc 28 2b be
       0.17118627 -0.16474433 0.20547195 -0.16714805
0001d0 45 42 b7 be 3a 98 77 be 52 a2 3a be 4d ec 16 3e
       -0.35792747 -0.24179164 -0.18225983 0.14738579
0001e0 ab 63 b7 3d 96 82 ba 3d 8c 92 75 3e 5e 63 31 be
       0.08954557 0.091069385 0.23981684 -0.17323062
0001f0 dc 3e 4b 3e e1 e9 21 be 87 0e f7 3d 71 7c f1 3d
       0.19848198 -0.15811874 0.12063318 0.117913134
