p2_continuous-control/checkpoint_critic.pth (torch_old, 542674 bytes, 5 tensors)

fcs1.weight f4 [400, 33]
000000 66 76 f7 3c ca 17 12 bd f7 a5 34 3d 93 c8 03 3d
       0.030207824 -0.03566722 0.04410359 0.032173704
000010 7c b2 01 bd b4 c6 2d 3c 34 46 0c bd ec 63 95 bc
       -0.031664357 0.010606457 -0.03424664 -0.018236123
000020 4a 6c a4 bc c7 dd da bc 9f a2 23 3d 6a a5 f5 bc
       -0.020071167 -0.02671708 0.03995001 -0.029986102
000030 76 b9 d6 3c e5 7e 37 bd 4b 5b 47 3d 2a a9 0b bd
       0.026211482 -0.04479875 0.048671048 -0.034096874
000040 a8 5c dd 3b 02 e1 8f 3c 10 59 90 3b 09 47 0a 3d
       0.0067554303 0.017563347 0.0044051483 0.03375915
000050 fe a2 a5 3c a8 92 00 bc da cf 8a bc ba 96 09 bd
       0.020219322 -0.007847466 -0.016944814 -0.03359101
000060 d8 6e 16 bc 60 c5 06 bd e0 7f 4f 3b a4 dd 8e bc
       -0.009181701 -0.032903075 0.0031661913 -0.01743967
000070 50 3e b8 bb 58 5e 03 bd 00 a0 4d bc c2 e0 a3 3c
       -0.0056226626 -0.032072395 -0.012550354 0.020004634
000080 14 4c 62 bc 48 25 56 bc 9d 3f 8e bc 26 53 0b bd
       -0.013812084 -0.013070412 -0.017364318 -0.034014843
000090 78 25 2b bd 1e 6a 01 bd 0b 8f 46 bd 45 4f 0d bd
       -0.04178378 -0.03159534 -0.04847626 -0.034499425
0000a0 00 00 b3 36 e0 bc 1f bc 8a e7 bd bc 40 7b c0 ba
       5.3346157e-06 -0.009749621 -0.023181695 -0.0014685169
0000b0 b8 fc 29 bd 55 27 17 bd f0 7a e3 bb e5 d4 17 3d
       -0.041500777 -0.036902744 -0.0069421455 0.037068266
0000c0 aa 1c ec 3c 99 8e 2d 3d 54 25 83 bc a7 a0 21 3d
       0.028822262 0.04237232 -0.01600901 0.03945985
0000d0 32 a4 90 3c a5 e8 1e bd a0 17 8b ba 33 65 fe bc
       0.01765642 -0.038796086 -0.0010611899 -0.031054115
0000e0 7d 9b f8 bc 7a 53 99 bc c0 7c b6 3b 57 49 f1 bb
       -0.03034758 -0.018716563 0.0055690706 -0.007363479
0000f0 1f 08 4f 3d b5 05 53 bc 31 04 01 3d 4b ef 15 3d
       0.050544854 -0.012879779 0.031498138 0.03660516
000100 82 43 11 bd 81 be 27 3d 34 cd 91 bc 28 3f ed bb
       -0.03546477 0.040953163 -0.017798044 -0.007240195
000110 fc 6c 97 bc 36 b4 c1 3c c3 7d ed bc fc 86 0b bd
       -0.018484585 0.023645502 -0.028990632 -0.034064278
000120 93 25 9c bc 00 58 7c b8 8a 0d b4 bc 80 b1 75 bb
       -0.019060886 -6.016344e-05 -0.021979112 -0.0037489831
000130 6c 6a 44 bc 1b f4 1b bd 80 5b 3f 3b 20 11 21 bd
       -0.011988264 -0.038074594 0.0029198825 -0.039322972
000140 ca 29 e7 3c 0d 21 07 bd ba 79 0b bd 97 13 0f 3d
       0.028218169 -0.032990504 -0.034051634 0.03493079
000150 27 83 fe bc bf 32 33 bd 84 92 7a 3c f8 25 5e bc
       -0.031068398 -0.043749567 0.015293721 -0.013558857
000160 ee ca 83 3c 11 33 2e 3d 38 8a 11 bd fb 36 10 3d
       0.016087975 0.04252917 -0.035532206 0.035208683
000170 40 73 1b ba 02 6d 9d 3c 40 92 b3 3a 14 0b 42 bc
       -0.00059299543 0.019217018 0.0013700202 -0.011843462
000180 98 90 36 bd ba 54 b4 bc b0 89 be bb 7f 02 1a 3d
       -0.04457149 -0.022013057 -0.0058147535 0.037600037
000190 e7 23 f1 3c 54 f1 82 bc 05 53 81 bd 2e 43 c1 3c
       0.029436065 -0.015984215 -0.06314663 0.023591604
0001a0 16 1f be 3c d7 03 03 bd d1 5b 11 3d da 50 10 bd
       0.023208182 -0.031986084 0.035487954 -0.035233356
0001b0 51 4d 24 3d 34 fa 21 3c ce 93 10 bd 60 4c 9b bc
       0.040112797 0.009886313 -0.035297208 -0.018957317
0001c0 13 db 0c 3d b0 24 85 3d 15 e8 14 bd 35 eb bf bd
       0.034388613 0.06501138 -0.036354143 -0.09371034
0001d0 a7 bd 4b bd 46 c8 ca 3c 1f 38 ac 3c f2 83 23 bd
       -0.049741413 0.024753701 0.021022854 -0.039920755
0001e0 a2 87 b4 3c 80 d8 82 3b 2c b7 20 bc f0 31 e6 bb
       0.022037331 0.003993094 -0.009809297 -0.007024996
0001f0 6e f9 ec 3c f9 cf 8e bb 93 50 ef 3b e5 0b cb 3a
       0.028927531 -0.0043582884 0.0073033064 0.0015491216
000200 fa 24 00 bd 67 9f 6d bd a0 4b 88 3a 02 f5 36 bd
       -0.031285264 -0.058013346 0.0010398515 -0.04466725
000210 98 93 6d bc 92 9b da 3b aa 7d bd bc b1 df e0 bc
       -0.014500521 0.0066713775 -0.02313121 -0.027450414
000220 38 a9 0e 3c a4 6d 6f 3c d5 97 cc bc 1e 22 d8 3c
       0.008707337 0.014613543 -0.024974743 0.026383456
000230 57 18 c3 bc e0 96 84 bc 8d f8 2e 3d 54 f6 28 bc
       -0.023815317 -0.016185224 0.042717505 -0.010312635
000240 8f 4b 44 3d e2 62 8a 3c d8 b4 df 3c 32 53 80 3c
       0.04792362 0.016892854 0.027307913 0.01566467
000250 23 5f eb 3c 91 aa 1a 3d 43 0e 48 3d 61 19 5c bc
       0.028731888 0.03776032 0.048841726 -0.013433785
000260 31 6d 4c 3d f8 0d 6b bc 28 a0 7a bc 08 a7 10 3c
       0.04990882 -0.014346592 -0.015296973 0.008828886
000270 ad 10 ab bc 01 dc 14 3d c9 bb 20 3c 4d 2b ac 3b
       -0.020881975 0.036342625 0.0098103965 0.0052541853
000280 14 e8 bc bc f4 24 89 bc e7 2d 6f bb 9f 2b 2a 3d
       -0.023059882 -0.016741253 -0.0036495866 0.041545507
000290 92 43 9c bc 88 d7 2d bc 8c ed 9c 3d 63 7f 1a 3d
       -0.019075189 -0.010610469 0.07662496 0.03771914
0002a0 e3 54 28 bd 7d 66 25 3d 6a 0b ea 3c 0a e4 05 3d
       -0.04109658 0.040380944 0.028569896 0.032688178
0002b0 79 64 25 3d d1 19 48 3d 9a bd 8c bc f1 06 05 3d
       0.04037902 0.048852745 -0.017180253 0.032477323
0002c0 b2 0f e1 3c 56 70 01 bd 80 94 1f bb ca e2 02 3d
       0.027473304 -0.031601273 -0.0024349988 0.031954564
0002d0 4a d4 b5 3c 56 fe f0 bd ec 61 96 bc ba cf 8a bc
       0.022195954 -0.11767261 -0.01835724 -0.016944755
0002e0 49 69 3a bd bb 3e 2d 3d f0 ab ea 3b 83 dc 10 3d
       -0.045510564 0.042296153 0.00716161 0.035366546
0002f0 58 71 e5 bb 9a ed 9f bc b2 7c e4 3c 8d a7 b7 bc
       -0.007002037 -0.019522477 0.02789149 -0.022418762
000300 05 f0 d0 3d 40 e0 c7 3c 9d 7a 0a bd 2f b2 90 bd
       0.1020203 0.024398923 -0.03380834 -0.07065236
000310 fa af e4 3c 65 c6 04 be e9 eb 20 3d 97 da 8f 3d
       0.027915943 -0.12966307 0.03928748 0.070241146
000320 e2 14 a5 3c 31 fa e8 3c 18 b0 6c bc 7c a8 53 3c
       0.02015156 0.028439613 -0.014446281 0.012918588
000330 ea 42 1d bd 77 93 c7 bc e8 4d bc bb 87 a3 43 3d
       -0.038393892 -0.024362309 -0.005746592 0.047763374
000340 90 72 ad bc 87 fe 47 bd 26 16 db 3c 6c 52 1c bc
       -0.021172792 -0.04882672 0.02674396 -0.009541135
000350 05 e2 fe 3c b8 6d 1b 3c 34 ec 97 3c 03 72 44 3d
       0.031113634 0.009486608 0.018545248 0.047960293
000360 40 49 d8 bb b7 90 35 bd cc c1 68 3c df ed 2b 3d
       -0.006600529 -0.044327464 0.014206361 0.0419749
000370 52 b6 c4 3c 60 17 2c bd bb 7c 31 bd 30 ab b5 3b
       0.024012718 -0.04201448 -0.043331843 0.005544089
000380 4a c1 ee 3c 0e 2d 2a 3c dc ff 12 3d 9a 5c b6 bc
       0.029144902 0.010386718 0.035888538 -0.022260953
000390 3a 40 ee bc 94 73 8b bc d7 1e af 3c 98 b5 f3 bb
       -0.02908336 -0.017022885 0.02137701 -0.007437419
0003a0 e3 77 32 3d 4e f7 04 bd 9d dd 56 bd 63 bc 09 3d
       0.043571364 -0.03246241 -0.05245744 0.033626925
0003b0 42 85 e0 3c e7 d7 16 3d 34 74 08 bc eb 23 0f bd
       0.027407292 0.036826994 -0.008328486 -0.034946363
0003c0 22 18 ce 3c da 2c 16 bd 25 20 05 bd 5d be 9d bc
       0.025157992 -0.036663868 -0.03250136 -0.019255811
0003d0 4c 72 63 bc 2c 9f fc 3c e3 79 9b bc 39 e9 38 bd
       -0.013882231 0.030837618 -0.018979019 -0.045144293
0003e0 fe 1b 98 3c e5 9e 0a bd b5 10 04 bd 9a 4b e1 3c
       0.018568035 -0.03384294 -0.032242496 0.02750187
0003f0 cb 41 17 bd 65 08 01 bd f7 a0 32 bd b7 30 48 bd
       -0.03692798 -0.031502146 -0.04361054 -0.048874583

fcs1.bias f4 [400]
000000 dc 15 1c 3e 36 ed f7 3d 68 22 bf 3d 53 81 6a 3d
       0.15242714 0.12105791 0.09332734 0.05725224
000010 c7 48 9e 3d 7a 12 a9 3d 78 55 e1 3d 7d 0c e7 bc
       0.07728725 0.08255477 0.1100263 -0.028204197
000020 24 be ce 3d 1f c2 82 bd 16 9b 15 3e 57 6b a9 3d
       0.1009486 -0.06384682 0.14609942 0.082724266
000030 51 27 3e bd 50 05 46 be f3 a0 96 3d 9b 47 85 bc
       -0.046424214 -0.19337964 0.073549174 -0.016269496
000040 d5 7d 27 bd d2 fc 09 be 79 44 cb bd 8e d0 dd 3d
       -0.040891487 -0.1347535 -0.099251695 0.10830794
000050 ca 21 0a be cb 4b a8 3d ab 35 23 3e f7 57 8e bd
       -0.13489452 0.08217581 0.15938441 -0.06950372
000060 18 bf ce bd 27 e2 c0 bd bf fd 9d bd 30 ef 5e bd
       -0.10095042 -0.09418135 -0.07714414 -0.054427326
000070 d2 61 21 bd 78 9d 1c be 08 a0 c8 bd 37 93 99 3d
       -0.03939993 -0.15294445 -0.097961485 0.07498782
000080 e8 47 10 3f d2 15 02 bd 3c d8 6f 3d 67 3b b6 bd
       0.5635972 -0.03175909 0.058555827 -0.08898049
000090 4b 23 8a bd 49 d6 0c be 5c 49 f5 3d af 69 95 bd
       -0.06745013 -0.13753618 0.11976883 -0.07295548
0000a0 45 5d aa bd 45 69 45 be 6e 00 e2 3d 01 26 10 be
       -0.08318571 -0.19278438 0.11035238 -0.14076997
0000b0 2c 5d 78 bd f4 b0 31 be e8 fa 3f bd 84 2e 41 3d
       -0.06063573 -0.17352659 -0.046870142 0.0471635
0000c0 45 07 be 3d 55 fe 47 be 02 2f 0a be 35 93 31 bc
       0.0927873 -0.19530614 -0.13494495 -0.01083832
0000d0 89 84 73 3e a5 54 05 be 18 8a 1d be 18 36 a4 3d
       0.23781027 -0.1302057 -0.1538471 0.0801813
0000e0 4e df af 3b 0b 1a 93 3d 3c b6 a9 bc b7 d0 24 3d
       0.005367196 0.07182702 -0.020716779 0.04023811
0000f0 e0 2b 0a bd 82 bd d7 bd 1e 7f 6d 3a bb f3 94 bc
       -0.03373325 -0.105341926 0.00090597745 -0.018182626
000100 4d de 48 be fd 09 9e 3d 49 79 32 be c2 a8 0b be
       -0.19616051 0.07716749 -0.17429079 -0.13638595
000110 60 69 5c bc 9b 3a 90 3d 0f df 1d be 48 40 a2 3c
       -0.013452858 0.07042428 -0.15417121 0.019806042
000120 46 bf 97 bc ca 17 92 bd 4d 00 c1 3c 81 79 25 be
       -0.018523823 -0.07133444 0.023559714 -0.16159631
000130 36 aa 2b bd 52 bc 3f be 0b 62 0d be c4 2c 09 be
       -0.041910373 -0.18724182 -0.13806932 -0.13395983
000140 40 2d 27 be 45 0c cc 3c a5 8e 09 be 3e cc 09 3b
       -0.16325855 0.024908194 -0.13433321 0.002102628
000150 1f 2b e2 bd 12 83 2d be fb be 01 3e 2b 71 e1 3d
       -0.11043381 -0.1694453 0.1267051 0.11007913
000160 e1 a8 d2 bd 83 68 1a be e4 36 e8 3d ce 11 1c 3e
       -0.10286117 -0.1507893 0.113385946 0.15241167
000170 18 89 b4 3d 73 5d b4 bd ac b3 01 be 0f 1e f6 3d
       0.08815211 -0.088068865 -0.12666196 0.12017452
000180 cd 14 ae 3d b0 82 2d be 18 64 1c 3d 61 82 0a be
       0.08500061 -0.16944385 0.038181394 -0.13526298
000190 b7 a9 fe bd b7 77 b0 3d 53 e3 2f bd 09 f9 cb 3d
       -0.12434714 0.08616584 -0.042941403 0.09959609
0001a0 36 c8 87 bb 31 39 26 bd dd ea 81 3d be 56 ca 3d
       -0.00414374 -0.040581886 0.06343625 0.09879826
0001b0 94 d1 1a be 15 d4 22 be 3a 54 f8 3d fc 34 29 3d
       -0.1511901 -0.15901215 0.1212544 0.041310295
0001c0 ef aa a2 3d 9f ae 1e be f7 0e 54 3c b0 ad b1 bd
       0.07942759 -0.154963 0.012943021 -0.086757064
0001d0 de b8 2d be 80 a5 b8 3c 5c 82 5d 3d fc f8 28 3e
       -0.16965052 0.022539854 0.0540794 0.1650123
0001e0 e1 97 d5 3d 7c 45 45 be 5b 8d a7 3d 3b db e4 3d
       0.10429359 -0.19264787 0.08181258 0.111746274
0001f0 f1 c6 1d be 25 5c 1b 3e d2 c7 c7 3d 6d 2c 9b 3d
       -0.15407921 0.15171869 0.097549096 0.07576833
000200 2b 8e 29 be 4c e2 a6 3d ad 8b 6c be cf 65 51 bb
       -0.16558139 0.081486315 -0.23100157 -0.0031951552
000210 24 6b 83 3d 78 7d 90 bd 18 e5 18 bd 48 86 be bd
       0.0641692 -0.07055181 -0.037327856 -0.09302956
000220 f5 e2 55 be 49 b3 23 be 58 3a 1f be 66 f7 09 be
       -0.20887358 -0.1598636 -0.155496 -0.13473281
000230 53 a8 f3 bd 93 02 a4 3d 26 25 32 be 16 63 19 3e
       -0.1189734 0.080083035 -0.17396984 0.14979205
000240 de 98 7c bc d8 15 0f be 44 12 90 3e 26 18 a4 3d
       -0.015417306 -0.13973176 0.28138936 0.080124184
000250 a4 8e 13 be cc 7c 1b 3e 25 28 e3 bd 2c 59 49 3d
       -0.14409882 0.15184325 -0.11091641 0.049157307
000260 bf 25 26 3d 50 a0 16 bc 5d 13 16 be a6 ad 6f 3e
       0.04056334 -0.009193495 -0.14655824 0.23406085
000270 13 ce 1a be 65 39 cb bd f0 36 30 bc e4 39 50 3c
       -0.15117674 -0.099230565 -0.010755286 0.012709115
000280 41 1e 12 3e 99 ec 9e bc ba 63 75 bd 16 9a 02 be
       0.14269353 -0.019399928 -0.05990956 -0.12754092
000290 8b f3 e8 3d a8 f6 33 be 3f 0d 04 be f3 87 a7 bd
       0.11374577 -0.1757456 -0.12895678 -0.08180227
0002a0 56 b2 1d be 02 2a dc 3c 1c ab 0f 3d c9 55 c6 3d
       -0.15400061 0.0268755 0.035075292 0.09684331
0002b0 e0 60 70 bc 99 13 31 be 47 f3 99 3d 84 e4 2a be
       -0.014671534 -0.17292632 0.075171046 -0.16688734
0002c0 0b 3a dc bd 5d 38 c5 3d 73 71 6c 3d a3 42 b9 3c
       -0.10753258 0.09629891 0.05772538 0.022614783
0002d0 64 60 12 be 76 9b bb bd 0c f5 1b bc e6 33 3c 3b
       -0.14294583 -0.09160511 -0.009518873 0.0028717457
0002e0 6c 99 52 bc 5b 45 b7 be 06 67 37 3f 28 f8 06 be
       -0.012853961 -0.35795102 0.71641576 -0.13180602
0002f0 5e c7 74 bd 93 1e 63 bc 18 54 15 bd 4b df d7 bd
       -0.059760444 -0.01386227 -0.03645715 -0.10540637
000300 12 30 5d bd ca 1b 05 be e8 73 be bd c1 de d5 bd
       -0.05400092 -0.12998882 -0.09299451 -0.104428776
000310 ab 35 21 be 4e bd e2 bd 72 ad 2b bd 9d f6 ab bd
       -0.15743129 -0.11071263 -0.041913457 -0.08396647
000320 62 ed 84 bd 61 a6 11 bd 78 a8 33 3d fb 8b 2b 3d
       -0.0649059 -0.035559062 0.043861836 0.041881543
000330 70 a7 8c 3d c5 26 cf bd bb 05 23 be 4d 0e de bd
       0.06867874 -0.101148166 -0.15920155 -0.108425714
000340 d8 76 c0 bc 3b 57 0d be f0 9d b0 bc c4 59 ea bd
       -0.02349417 -0.13802807 -0.021559685 -0.11442903
000350 55 47 3b be 56 8c b9 3c b8 37 e5 bc a4 62 67 bd
       -0.1828893 0.022649925 -0.02798067 -0.056490555
000360 92 b5 9c bc 3d 0c a6 bd a1 22 8e bd 30 92 1e 3e
       -0.019129548 -0.08107803 -0.06940199 0.15485454
000370 71 1c 83 3d 3a 26 11 be a5 f8 7b 3d 80 e1 df bd
       0.06401909 -0.14174739 0.061516423 -0.109316826
000380 73 32 2f bd 06 df 96 3d 34 6a ec 3d b7 d6 2f be
       -0.04277272 0.07366757 0.11543694 -0.17171751
000390 c0 3a e0 bd 26 3d 1b be ac 3c 27 be 41 fa 3c be
       -0.10948706 -0.15160045 -0.16331738 -0.1845484
0003a0 0e 71 0a be 2c 7b 68 bc b2 1d 8a 3d a6 2f db 3d
       -0.1351969 -0.014189523 0.06743945 0.107024476
0003b0 21 95 d8 3d 3e df 53 be 00 4e 7b 3b d1 07 23 be
       0.10575319 -0.20690629 0.0038346052 -0.1592095
0003c0 b2 f6 e0 3d 02 99 70 bd 02 57 76 3d 35 0e 57 be
       0.109845534 -0.05873967 0.06014157 -0.21001513
0003d0 1f ac 04 3e da 1b 06 be 55 3a 19 3d 40 1d a0 bd
       0.12956284 -0.13096562 0.037409145 -0.07818079
0003e0 5e 20 e3 bc a7 84 41 bd 8c 01 b6 3d 7a ec d7 bb
       -0.027725395 -0.047245648 0.08887014 -0.0065894695
0003f0 0c 13 c0 3d 1e 0a 73 bd 8a b9 d2 bd 97 dd 1e 3d
       0.09378633 -0.05933582 -0.10289295 0.038785543

fc2.weight f4 [300, 404]
000000 08 08 79 3c 02 15 18 bd 18 59 77 bc 4d a3 d5 3c
       0.015199669 -0.03712941 -0.015096925 0.026078844
000010 d0 b3 0b 3d bd 34 6b bd ee 67 2c bd 60 ac 6b bc
       0.03410703 -0.057423342 -0.042091303 -0.014384359
000020 0c a2 de 3c a2 e9 8a bc 85 22 59 bd fc b8 4f bc
       0.02717688 -0.016957108 -0.053011436 -0.012678381
000030 50 98 1c bd 98 2f b9 3c 49 07 d7 bc ac ae cf bc
       -0.038231194 0.022605702 -0.026248591 -0.025351845
000040 6f 56 bd bc 28 af 26 3d 2a bd 40 3d 0a c9 81 3d
       -0.023112504 0.040694386 0.0470554 0.06337173
000050 d6 fb b1 bc 9b 1b 46 3c c0 e7 50 3d d4 6a c4 3c
       -0.02172653 0.012091543 0.051002264 0.02397672
000060 a6 24 e5 bc d8 b9 3b bd b5 8b 7c 3c 00 52 51 3c
       -0.027971577 -0.04583153 0.015414168 0.012775898
000070 fa b2 5c bd c6 08 cd bc c2 24 64 bd 7e aa 45 bd
       -0.053881623 -0.025028598 -0.055699117 -0.048258297
000080 41 4b 19 3f 76 a2 e5 bc f2 79 78 3c 30 57 45 bc
       0.59880453 -0.028031569 0.015165793 -0.012044713
000090 f8 98 1b 3c a7 0d 5f bd b1 60 5e bd 2e 82 b4 bc
       0.00949692 -0.05445638 -0.05429143 -0.02203473
0000a0 24 2e 47 3d 7c b5 51 3d 73 7e 49 bd a0 0f 9e 3c
       0.048627988 0.051198468 -0.049192857 0.01929456
0000b0 31 54 0c 3d 70 f6 6c 3c b8 60 ec 3c 8f 36 b8 3c
       0.03425998 0.014463052 0.028854713 0.022486953
0000c0 70 fe 1a 3d 52 b2 b6 bb 54 48 3d 3d d6 6c 40 bd
       0.037840307 -0.0055754567 0.046211556 -0.046978794
0000d0 4d 4d 62 3e 28 ae 2b bd 30 ee 81 3b b1 de 47 bd
       0.220998 -0.041914135 0.0039651617 -0.04879636
0000e0 80 59 1c 3d a7 a0 73 bd 94 37 aa 3c 84 9f bb bc
       0.03817129 -0.059479382 0.020778455 -0.022903211
0000f0 f4 60 fa bc 47 aa 46 c0 08 dd 56 bc c0 94 b0 bc
       -0.030563809 -3.104143 -0.013114221 -0.021555305
000100 01 70 72 bc 30 8b 51 bb f0 7e 81 bc 54 a4 3b bd
       -0.014797212 -0.0031973831 -0.015807599 -0.045811012
000110 40 11 5b 3b 4e a5 05 3c 58 a6 9b 3c d4 10 01 3d
       0.003342703 0.0081570875 0.019000217 0.03151019
000120 c0 ad fb bb 5c c4 e2 3c 0b c2 a4 3c 14 87 00 bc
       -0.0076806247 0.027681522 0.020112058 -0.007844705
000130 50 55 81 3b 01 bd 5e bd f9 17 eb bc 4c ce 64 bd
       0.0039469376 -0.054379467 -0.028697954 -0.055860803
000140 e3 89 36 bd be f7 98 3c 80 65 fe 3b 72 df 57 3d
       -0.044565093 0.01867282 0.0077635646 0.05270333
000150 a5 88 1d bd 80 1c d5 3c d0 36 94 bb d7 4e 26 bd
       -0.038460393 0.026014566 -0.0045231357 -0.04060253
000160 1e 70 63 3d 1c d4 04 3d fa 90 49 3d 00 90 06 ba
       0.055526845 0.032428846 0.049210526 -0.0005133152
000170 2d 41 45 bd c4 1c ba 3c 60 3c 40 3d 2f 73 78 3d
       -0.04815786 0.022718795 0.046932578 0.060656723
000180 c8 dd 50 3d 8c b9 e9 3c be f9 11 3d 50 49 2e bb
       0.050992757 0.028530858 0.035638563 -0.002659399
000190 14 1f ec 3c a8 e3 94 3c 07 b4 ef 3c 5f 12 c9 bd
       0.028823413 0.018174961 0.029260648 -0.09817957
0001a0 bc 61 a9 bd 28 95 ba bc fe fe 6d bd b0 e4 a1 3b
       -0.082705945 -0.022776201 -0.058104508 0.0049405918
0001b0 e4 bc 52 3d cc 06 f6 3c 28 d8 73 3c 00 fd 5f 3a
       0.05144967 0.030032538 0.014883079 0.0008544475
0001c0 d5 1e 2f bd ae 49 96 bc 73 7e 69 bd 00 59 5f b9
       -0.042754013 -0.01834568 -0.057005357 -0.00021300092
0001d0 96 0c 31 bd aa f3 45 bc 38 53 de bc cf 0d 2b bd
       -0.043224894 -0.01208202 -0.027139291 -0.041761216
0001e0 7c b2 81 3c d8 15 a9 3c 18 d0 30 3d d4 b0 b4 bc
       0.015832178 0.020640299 0.043167204 -0.022056974
0001f0 28 26 c9 bb f0 ba 56 bc a4 9d 8b 3c 35 0c 80 bd
       -0.006138582 -0.013106093 0.017042942 -0.06252328
000200 40 e4 cc 3a e5 3d 16 3c b2 2a 03 3f 20 fd 17 bb
       0.0015631989 0.00917003 0.5123702 -0.0023191646
000210 ca 7e 4a 3c 92 87 18 3d d4 7d 62 bd df 5e 1c bd
       0.01235933 0.037238665 -0.05529578 -0.038176414
000220 70 32 a7 bb 80 e7 02 bb 14 03 1e bd 3c 00 3a 3d
       -0.005102448 -0.001997441 -0.038577154 0.04541038
000230 1e bf de 3c e8 38 e3 bc f4 7e 1e 3d 78 02 2e bd
       0.027190741 -0.027737096 0.03869529 -0.042482823
000240 c4 4b 56 3d b8 a5 56 3c 7b ba 3c 3f f7 3f c8 bd
       0.05231835 0.013101034 0.73722047 -0.09777825
000250 66 a4 3b bd 50 d8 93 3b e3 8e 6e 3c 1c 76 95 bc
       -0.04581108 0.0045118704 0.014560434 -0.018244796
000260 d2 3d 11 3d 60 1f 9c 3b ae 3d 8f bc 3f 18 15 c0
       0.035459347 0.0047644824 -0.017485466 -2.3296049
000270 98 1d 59 bc 70 47 b8 3b 30 4b 49 bc c5 e2 16 c0
       -0.013251685 0.0056237504 -0.0122859925 -2.357591
000280 ee a4 bb bc 73 e8 97 bc 30 ff 0b 3d 96 76 05 3d
       -0.022905793 -0.018543458 0.034178913 0.032583795
000290 ac 1c 02 bd 38 2a 9e bb cd fc 86 3b 2c 37 cf bc
       -0.031765625 -0.00482681 0.0041194917 -0.025294863
0002a0 ea bd 14 3d a2 db 4b bd 36 66 9f bc aa 88 e6 3b
       0.03631393 -0.049770005 -0.019457918 0.0070353346
0002b0 44 ce 5e bd 44 d2 d3 bc a4 0c 2a bd d1 bb 57 bd
       -0.05439593 -0.025857098 -0.04151596 -0.05266935
0002c0 0b 36 12 bd 6b a6 f8 bf 70 67 2e 3b 80 41 84 bb
       -0.03569607 -1.9425787 0.0026611947 -0.0040361285
0002d0 56 68 4a 3d dc c4 39 3d 58 97 07 3d 0b 92 03 3c
       0.04941591 0.045353755 0.033103317 0.008030425
0002e0 ac eb b8 3c 0b e6 99 bf 6c ad d3 be c0 4c 0a 3e
       0.022573315 -1.2023329 -0.41343248 0.1350584
0002f0 9c a0 d3 3c 62 f1 32 bd 08 34 aa bc d1 69 80 bd
       0.02583342 -0.04368723 -0.020776764 -0.06270183
000300 70 e5 d3 bc bd bf 92 bd 73 df 88 bd 3b 72 fd bc
       -0.02586624 -0.071654774 -0.066832446 -0.030938258
000310 bb 3b aa 3b 74 88 de 3c 8c 28 15 bd 58 a6 cc 3c
       0.0051951087 0.027164675 -0.03641562 0.024981663
000320 90 fb f3 3c 64 42 0a 3d 60 c9 df 3c 10 1c f8 3c
       0.02978304 0.03375472 0.027317703 0.030286819
000330 20 e6 41 bf f0 b9 d0 3b d2 1c a4 3c e0 a2 d7 3c
       -0.7574177 0.0063698217 0.020033274 0.026322782
000340 58 2f 9f bc 44 9b c7 bc 40 ab 22 3d 10 a2 b4 bc
       -0.019431755 -0.024366029 0.039714098 -0.022049934
000350 a4 0f 2e bd ae 83 be bc 54 00 3a bd e8 bb 3a bd
       -0.042495385 -0.02325615 -0.04541047 -0.045589358
000360 f0 06 18 bd 72 1b 31 bd ff 2a 4f bd e8 66 bb 3c
       -0.03711599 -0.043239065 -0.050578114 0.022876218
000370 b6 55 1e 3d a4 1d 04 bd d9 be 8e bd 95 e2 10 bd
       0.03865596 -0.03225483 -0.06969995 -0.035372335
000380 b0 79 38 bc aa 0d af bc 94 83 9b bc da 0d 00 bd
       -0.011259481 -0.02136882 -0.01898364 -0.03126321
000390 ec b6 0f 3d 00 f4 d2 bb 00 2a 89 b9 90 33 99 bb
       0.035086557 -0.0064377785 -0.0002616197 -0.004675336
0003a0 50 35 95 3c 81 61 d4 bc d0 e5 55 bd 9d 51 06 bd
       0.018213898 -0.0259254 -0.05222112 -0.032792676
0003b0 18 be 4e 3d dd 62 b4 bd af 9c 5e bd 7c 42 1b 3d
       0.050474256 -0.08807919 -0.054348644 0.0379052
0003c0 66 a7 d5 ba a0 6e 6c 3b b6 c7 17 3d d0 ff 6e bc
       -0.0016300499 0.003607668 0.037055694 -0.014587358
0003d0 aa e3 9e bc bc 30 a8 3c 94 91 33 3d ce e2 b3 bd
       -0.019395668 0.02053105 0.043840006 -0.08783494
0003e0 dc e9 53 bd 10 19 87 3b b5 11 ef 3c 3a f3 4c 3d
       -0.051736698 0.0041228607 0.029183248 0.050036646
0003f0 00 5c 37 39 74 cf f9 3c 70 aa eb bb ec d4 e2 3b
       0.00017486513 0.03049443 -0.0071919486 0.006922355

fc2.bias f4 [300]
000000 7a 26 af 3e ff 01 5b bd 51 e9 f7 3b 98 b2 c9 bd
       0.34209043 -0.0534687 0.0075656553 -0.09848517
000010 cd d7 58 bd 3c 14 f2 bc b8 62 0e 3f 6d 06 6e bd
       -0.05294018 -0.029550664 0.5561938 -0.058111597
000020 5b a2 0d be 7a 41 3c be 41 2b b9 bd 54 c5 c1 bc
       -0.13831465 -0.18384352 -0.09041453 -0.023653664
000030 7e 77 15 bd 4f 88 50 bd 6d b1 bf bd 40 ed 11 be
       -0.03649091 -0.050911244 -0.09360013 -0.1425066
000040 aa bf 45 bd 5b b2 14 40 0e 51 9e bd f6 bb 86 bd
       -0.04827849 2.323386 -0.07730304 -0.065788195
000050 65 52 91 bd 90 5b a6 3e 3d 43 ad bd 8d c5 a2 bd
       -0.07095794 0.32491732 -0.0846009 -0.07947836
000060 ae 3e 7b be fe 21 26 bd 28 e3 85 3d 37 80 b5 bc
       -0.24535629 -0.04055976 0.06537467 -0.022155864
000070 c6 01 07 be ff 4b d8 bd 9d 16 79 bd a2 cb 84 bd
       -0.1318427 -0.1056137 -0.06081258 -0.064841524
000080 1e ce 0d be 60 2d 8f bd 03 1c 80 bd 85 53 b6 3e
       -0.13848159 -0.069910765 -0.06255343 0.35610595
000090 da ce e4 be b6 56 89 be a0 9a c1 bd 9f 92 60 bd
       -0.44689065 -0.26823968 -0.094533205 -0.05482733
0000a0 d4 49 ab bd 19 92 9d 3f d3 d0 8e 3d 9f 36 87 3e
       -0.08363691 1.231021 0.06973424 0.2640886
0000b0 ef 44 b8 bd 18 bd ca bd 3b 2f db bd 76 26 7c bd
       -0.08997523 -0.09899348 -0.10702368 -0.061560117
0000c0 aa 64 9b bd e6 19 b1 bd 0e 1e b4 bd 91 34 79 bd
       -0.075875595 -0.08647518 -0.08794795 -0.060841147
0000d0 d3 22 af bd ee 9b 75 bd 0c 62 c8 bd d5 76 c0 bd
       -0.08551564 -0.05996316 -0.09784326 -0.093976654
0000e0 8b c1 29 bd f6 ca 79 bd bc 91 0f bd 20 ea 14 be
       -0.041444343 -0.060984574 -0.035051093 -0.14542437
0000f0 a6 4e f7 bd 86 53 6c bd 2b b6 4a bd 69 2e 15 3e
       -0.12075548 -0.05769684 -0.049490135 0.14568485
000100 26 65 9c 3f 70 23 6e bd b5 e7 38 3d 54 47 07 be
       1.2218368 -0.058139265 0.045142848 -0.13210803
000110 d3 ee 85 be 5b e3 56 bd 8e cf 1d be d3 1b 49 bd
       -0.2615877 -0.052462917 -0.15411207 -0.0490988
000120 b9 ef e7 bd 47 4e 9f be 47 b8 da bd 9f 62 e7 bd
       -0.1132502 -0.31114408 -0.10679679 -0.11298107
000130 13 e7 a4 bd bc 78 be bd 2d 40 af bd 30 ec 98 bd
       -0.080518864 -0.09300372 -0.085571624 -0.07466924
000140 6e 4b e3 bd 95 6f bd bd 3f ae 06 be aa ba 9d bd
       -0.110983714 -0.09249798 -0.13152407 -0.07701619
000150 34 5d a9 bd d7 79 97 bd 36 78 c1 bd 03 31 aa bd
       -0.0826973 -0.07396286 -0.094467565 -0.083101295
000160 a0 2c b5 bd 4c 48 75 bd 72 3b 61 bd 69 d9 8f bd
       -0.08846402 -0.0598834 -0.054988332 -0.070238896
000170 e6 ae b2 bd 3b 40 a6 bd 4e 91 75 bd 79 61 82 3b
       -0.087247655 -0.0811772 -0.059953026 0.003978905
000180 d0 e7 34 bd 4f 38 ab bd c6 e9 12 bd 0f 78 23 bd
       -0.044166386 -0.083603494 -0.035867475 -0.03990942
000190 dc 96 b1 bd 01 2d 9e 3e 92 f5 d1 bd 88 81 10 3f
       -0.08671352 0.3089371 -0.10251917 0.5644765
0001a0 17 3c 91 bd ee 87 31 bd 6e 5c 5a bd f0 42 a2 bd
       -0.07091539 -0.043342523 -0.053310804 -0.079229236
0001b0 59 ff e0 bd 72 83 67 bd cf d1 5f bd 8a 0b b6 bd
       -0.10986204 -0.05652184 -0.05464345 -0.0888892
0001c0 11 6c b1 bd f2 0c 81 bd c7 3f cc bd de 7d 92 3e
       -0.0866319 -0.06301297 -0.09973102 0.28611654
0001d0 d9 f3 85 bd 43 98 4b bd d5 9f 8f bc 9e f2 57 bd
       -0.06540651 -0.049705755 -0.017532269 -0.052721612
0001e0 9c a1 90 3f 41 ee 03 be bd b9 9c bd 89 a5 d8 bd
       1.1299319 -0.12883855 -0.07652614 -0.10578448
0001f0 1d 4c e5 3d d0 7b 86 bd c3 b6 92 bd 4e 2a 94 bd
       0.11196158 -0.06566584 -0.07163765 -0.072346315
000200 37 dc 3f bd 27 a8 e7 bd 74 5e dc bd cd c4 5e bd
       -0.046840873 -0.113113694 -0.10760203 -0.054386903
000210 b8 80 38 bd b0 f9 a0 be 46 63 d4 bd d6 72 28 bd
       -0.04504463 -0.31440496 -0.103704974 -0.04112514
000220 b9 8f d1 bd d1 6e 84 bd 21 6b 68 bd 50 8a a6 bd
       -0.10232491 -0.06466449 -0.05674279 -0.0813185
000230 e7 e0 cf bd 2e 3b a6 bd 7c 6d 4e bc 9a 51 d7 bd
       -0.101503186 -0.081167564 -0.012599345 -0.10513611
000240 ad 3e 60 bd bf bb d9 bd ac 9a c0 bd bf b3 72 bd
       -0.054747272 -0.10631513 -0.09404501 -0.05925345
000250 dd 6c db 3e 4a ee d5 bd a9 0f 20 bd 1c a8 a6 bc
       0.42856494 -0.10445841 -0.039077435 -0.020343833
000260 84 09 b3 bd 38 62 98 bd 73 1c e2 bd d7 9f eb bd
       -0.08742049 -0.07440609 -0.110405825 -0.115050964
000270 43 0b 66 bd f1 24 b1 bd 5b 39 9a be 10 64 24 be
       -0.056163084 -0.08649624 -0.30121884 -0.16053796
000280 1e 7b f1 bd a2 b2 0d be ad c0 88 bd 6e c6 a9 be
       -0.11791061 -0.13837674 -0.06677375 -0.33159202
000290 cd fa 05 be c2 73 c7 bd 4f 59 1e bf 36 d4 ac bd
       -0.13083954 -0.09738876 -0.61855024 -0.084389135
0002a0 9d 5c 67 bd f1 68 23 bd 83 0c 09 3f 03 50 bb bd
       -0.056484807 -0.039895 0.53534716 -0.091461204
0002b0 f0 b7 3b bd bf a8 b3 bd 92 06 80 bc a7 3a 90 bd
       -0.045829713 -0.0877242 -0.015628133 -0.07042437
0002c0 3f 37 0f 3f d4 60 73 bd 60 2b 7f bd 62 06 84 bd
       0.55943674 -0.059418514 -0.062297225 -0.0644653
0002d0 a8 d7 af bd b1 b8 c3 bd de dd d8 bd f9 10 1f bd
       -0.08586055 -0.095567115 -0.10589193 -0.038834546
0002e0 04 42 b2 bd ce cd 94 bd 92 68 aa bd a9 c9 68 bd
       -0.08703998 -0.07265817 -0.083207265 -0.056832943
0002f0 d3 00 bd bd de 31 8d bd 74 8e 8e bd b8 2c 41 bd
       -0.09228673 -0.06894277 -0.069607645 -0.047161788
000300 0a c3 29 be 86 87 ab bc 16 eb a3 bd 2b 3b 31 bd
       -0.16578308 -0.020938646 -0.080038235 -0.043269318
000310 e4 05 6b 3e 84 c2 8b bd 51 d1 0c 3d b1 3f 19 be
       0.22951466 -0.0682421 0.034379307 -0.14965703
000320 ba cc 19 bd 5b 5a 1b be 20 ed cc bd b2 ee 8d bd
       -0.037548758 -0.15171187 -0.100061655 -0.06930293
000330 92 27 89 bd a5 78 a1 bd 80 9c 56 bd b9 54 8d bd
       -0.066970006 -0.07884339 -0.052395344 -0.06900925
000340 9d 4c 51 bd f9 90 49 bd 63 6d ed 3c 85 69 8f bd
       -0.051098455 -0.049210522 0.028982824 -0.07002548
000350 3b ea db bd 2b a6 67 bd af 43 bc bd 1c ab ac bd
       -0.10738035 -0.056554954 -0.09192597 -0.08431074
000360 51 0b b3 3e 77 ff b3 3f 43 ea c5 bd fd 45 51 bd
       0.3496957 1.4062337 -0.096638225 -0.051092137
000370 3c e6 72 bd 1c 86 67 3e 69 df 07 3d dd c8 b4 be
       -0.0593016 0.22609752 0.033172045 -0.35309497
000380 41 db 49 bd 3a f1 2c 40 22 3e f8 bd 1c 8a b7 bd
       -0.049281362 2.7022233 -0.12121226 -0.08961889
000390 e3 a6 0e be 65 4c bd bd fd 29 00 be 36 a5 72 bd
       -0.1393085 -0.09243087 -0.12516017 -0.05923959
0003a0 42 87 91 3e e6 6a 54 bd 9c f2 f2 bd 30 83 8a bd
       0.28423506 -0.05185976 -0.1186268 -0.06763303
0003b0 13 49 31 bd 3e 4d 9c bd de c8 9a bd b3 8e 86 be
       -0.04328258 -0.0763192 -0.075578436 -0.26280746
0003c0 77 a4 a6 bd 4c b7 0d be d3 40 80 bd 77 1c 0e be
       -0.08136838 -0.13839453 -0.06262364 -0.13878046
0003d0 82 84 a5 bd d9 65 85 be 74 42 c6 be e1 50 19 be
       -0.080819145 -0.26054266 -0.38722575 -0.14972259
0003e0 21 79 ea bd 00 34 28 be 29 e7 ef bd ca fd 66 3e
       -0.11448885 -0.16426086 -0.11714012 0.2255775
0003f0 2d 5e 90 bd 01 b3 f1 bc 7d d7 23 be 3d e8 d7 bd
       -0.070492126 -0.029504301 -0.16000171 -0.10542343

fc3.weight f4 [1, 300]
000000 c8 f7 0b 40 e0 b4 81 3a 8d 97 16 c1 0a 9d a4 bc
       2.1869984 0.0009895824 -9.412 -0.020094413
000010 e4 a7 90 bb c1 91 af b9 1d 9b 49 40 6e 77 59 bb
       -0.0044145454 -0.00033487196 3.1500924 -0.0033182758
000020 80 b2 a6 bc a5 0f 27 41 df 47 9b bb 05 c9 06 3a
       -0.020348787 10.441319 -0.0047387923 0.00051416486
000030 37 bd 1f 3c ab ac 93 3b 4e 02 02 bd f7 e7 1c bd
       0.009749702 0.0045066676 -0.03174048 -0.038307156
000040 24 70 93 3b e8 40 36 40 10 cb 29 3b da 67 01 bd
       0.004499452 2.8477116 0.0025908388 -0.03159318
000050 10 0f 21 3c fa 3a 36 41 ac d0 65 3b ab 78 10 3c
       0.009830251 11.389399 0.0035067005 0.008817832
000060 f0 f7 0e c1 9c e2 42 bb 40 6e 36 c1 69 f8 ae bb
       -8.935532 -0.002973712 -11.4019165 -0.0053396714
000070 c5 38 5e 3c 97 4b 08 bd 83 a4 7a bb 34 dd b3 bc
       0.01356334 -0.033275213 -0.003824503 -0.021956064
000080 c3 81 d1 bc 06 fa 4a bc 47 7b 21 bb 15 62 3c 41
       -0.02557457 -0.012388712 -0.002464013 11.773946
000090 cf 7f c6 c0 b3 f0 f4 c0 59 8c cc 3c 1e fc b6 3b
       -6.2031016 -7.654382 0.024969267 0.005584254
0000a0 56 5b 34 c1 bc 15 a4 40 5d 72 13 41 67 95 88 41
       -11.272299 5.127653 9.215421 17.07295
0000b0 0d dd a4 3b 0b 42 78 3c 38 30 44 3b 41 a3 0f 3c
       0.005031234 0.015152465 0.0029935967 0.00876695
0000c0 18 a2 f4 3c b3 2a 9e 3b 68 a0 ff 3b cd 7b 1c bc
       0.029862449 0.0048268675 0.0078011043 -0.009551001
0000d0 25 eb e3 3b 56 e3 0d 3b 2d 06 e9 bc ac e1 c7 3b
       0.0069555216 0.0021650395 -0.028445328 0.0060999
0000e0 b6 4b 78 bb 1b ff 12 b8 b3 51 83 bc 6f 12 15 3e
       -0.0037886924 -3.5046698e-05 -0.016030168 0.14557813
0000f0 eb b9 fc 3c 84 d0 8f bc ea ec 3a 3c 7d fb 08 c1
       0.030850371 -0.017555483 0.011409024 -8.5613985
000100 86 61 30 40 b2 65 c3 3a 88 7b d2 c0 00 7d 18 3c
       2.7559524 0.0014907627 -6.5775795 0.009307146
000110 5d e2 32 c1 64 de ad 38 4f f3 bc 3c 93 ed 59 3a
       -11.180264 8.290706e-05 0.023065237 0.00083132944
000120 4f 23 52 bc 3f 96 2b c1 ce 7a 36 bc 1c e4 7a 3c
       -0.012825801 -10.724181 -0.011137677 0.015313175
000130 3d 74 ff ba 49 83 7e 3c 6f c9 bd ba 23 7a 3d 3c
       -0.0019489598 0.0155342305 -0.0014479588 0.011564764
000140 01 5e 0c 3d 13 1f d8 bc 92 63 f2 3c 04 fd be 3c
       0.034269337 -0.026382005 0.029588494 0.023314007
000150 f1 7e f0 39 91 db 83 38 ba ef 37 bc e4 7b e7 3c
       0.00045870946 6.287464e-05 -0.011226589 0.028257318
000160 23 d0 83 bc 10 1d 17 3c 2c e9 a0 b9 35 a3 09 bb
       -0.016090458 0.009223238 -0.00030691305 -0.002100182
000170 6c 4c 00 3d ea ee dd 3a 1c 10 d5 3c a4 f0 be c0
       0.03132288 0.0016932164 0.026008658 -5.966875
000180 a5 71 c5 bc 14 45 41 bc b0 e8 07 c1 20 fa e8 bb
       -0.024102041 -0.011796255 -8.494308 -0.0071098953
000190 40 15 f8 ba 51 d2 5b 40 af a8 3a bc 6e f3 d9 40
       -0.0018927231 3.4347117 -0.011392756 6.8109655
0001a0 64 82 7f 3b 6a 5a 7e 3b e8 05 8a ba ea f5 be 3c
       0.003898763 0.0038811215 -0.0010530325 0.02331062
0001b0 8f 41 36 bd a3 aa b3 3c b5 e8 cc bc 4e 90 06 3c
       -0.044496115 0.021931952 -0.025013307 0.008213116
0001c0 bd 72 a6 3c 13 bd 0f 3b ca 62 2c bd b4 b8 e6 40
       0.020318383 0.0021932765 -0.0420864 7.210047
0001d0 43 a2 d9 3b a6 0f c2 ba 0e 78 3f bb 75 a8 97 c0
       0.0066416576 -0.0014805689 -0.0029215845 -4.7393136
0001e0 f5 64 de 40 9e e4 d8 bc c7 54 83 bc 9d 8a b5 3c
       6.949824 -0.0264762 -0.016031636 0.022160823
0001f0 10 52 35 41 8c 06 17 3b c2 4a c5 3a a6 de 8b bb
       11.332535 0.0023044674 0.0015052187 -0.004268485
000200 46 e1 ae 3b eb dc 88 3c e5 ba 9d ba f0 7d 89 bc
       0.0053369133 0.016706904 -0.0012033848 -0.016783684
000210 9c 0e 2d b9 ab b5 25 c1 3e f2 f3 bc 56 49 de 3b
       -0.00016504008 -10.356853 -0.029778596 0.0067836447
000220 ad 57 6d 3c 4f 8c 0f 3d f0 bb 1c bd 19 b0 a4 3c
       0.014486236 0.035045918 -0.03826517 0.020103501
000230 2c a7 ae 3b 40 96 19 bc 08 46 d4 3c 2e ac 97 3c
       0.005329987 -0.009374201 0.0259123 0.018514719
000240 7e cc d2 ba 1b cc b2 bb 86 6a 31 bc cc 9f 8a bb
       -0.0016082672 -0.00545646 -0.01082862 -0.004230475
000250 04 93 43 40 6d b4 37 3c be 76 e0 38 aa 2b c8 3c
       3.0558481 0.01121245 0.0001070327 0.024434883
000260 3c 63 7c 3d b2 a2 f6 3c 1e 56 b2 3c ee d9 34 bc
       0.061618075 0.030106876 0.02176958 -0.011038287
000270 70 93 94 40 b4 0d 90 3b 38 38 32 c0 fc dd 3f c1
       4.6429977 0.004396165 -2.7846813 -11.991695
000280 b2 41 c6 3c 84 39 af 3b 38 2e 7a bb 36 fd 12 c1
       0.024201248 0.0053474326 -0.0038174521 -9.186819
000290 68 dc cb 3c be 06 bc 3a b2 4f 43 c1 6d 4f de bb
       0.024885371 0.0014345271 -12.206957 -0.0067843706
0002a0 63 45 9e 3c d6 d9 3d 3b dc a6 dd 40 8f cf 0f bc
       0.019320196 0.0028968952 6.9266186 -0.008777513
0002b0 9d b8 be b9 94 2a 34 41 51 0f 7d 3a e5 aa c2 ba
       -0.00036377172 11.260395 0.00096534664 -0.0014851956
0002c0 09 13 11 41 40 a8 d1 bb b7 ef 25 bc a3 85 21 bc
       9.067147 -0.006398231 -0.010127953 -0.009858522
0002d0 d0 87 80 bc 75 51 89 bc 35 c4 da 3c 71 99 b0 bb
       -0.01568976 -0.016762475 0.026704887 -0.0053893854
0002e0 17 f8 39 bb 5e b8 e6 3c 35 79 3d 3a 4b b2 4c 3b
       -0.0028376633 0.028164085 0.0007227839 0.00312342
0002f0 fd 62 0e 3b c3 20 27 bc 69 7d fd bc 59 15 0f 3c
       0.0021726482 -0.010200682 -0.03094359 0.008733117
000300 28 f4 b5 3c 42 c8 d3 38 80 5e c6 3c 57 52 4b 3b
       0.02221115 0.00010098565 0.024214983 0.003102442
000310 e7 c4 b4 40 09 38 ed bc f3 75 af 41 82 1c aa c0
       5.649036 -0.028957384 21.932592 -5.31598
000320 79 e3 ff 3b ae f4 26 c1 a6 c6 0d bc ca c7 85 ba
       0.0078090993 -10.434736 -0.0086533185 -0.0010206637
000330 b8 d6 f9 bc b3 f4 06 bc e6 bc 89 3a 22 2e cf 3b
       -0.030497894 -0.008237052 0.0010508567 0.006322638
000340 d0 60 95 3c 66 52 1d bc 78 db 09 c1 7d bc 1a bc
       0.01823464 -0.009602165 -8.616081 -0.009444353
000350 8e 6f 2c 3d 01 89 a4 3b ff f0 10 b9 28 47 90 3c
       0.042098574 0.005021215 -0.00013822688 0.017612055
000360 ba 90 77 41 20 37 9f 40 20 64 11 c0 1e 38 b2 c0
       15.472834 4.975479 -2.2717361 -5.5693502
000370 a7 c7 bb bc d0 03 d0 40 a9 78 82 40 69 ac 80 41
       -0.02292235 6.5004654 4.077229 16.084185
000380 b1 8f ef 3b 41 6d 81 40 70 d8 7e ba 0c 57 bb 3b
       0.0073108305 4.0445867 -0.0009721583 0.005717164
000390 58 74 b4 3c 64 19 96 bc 5d 32 5b 3c f2 a1 3f bc
       0.022028133 -0.018322654 0.013378707 -0.011696326
0003a0 ec 7f a8 41 13 a5 f1 3a 22 63 05 bd 98 71 27 3b
       21.062462 0.0018436037 -0.032565244 0.0025549885
0003b0 a8 23 72 3b 73 bc 58 bc 3e 0e 81 3c 1b c0 1e c1
       0.0036947522 -0.013228524 0.015753862 -9.921901
0003c0 06 83 b7 bc b4 f9 72 bc d7 1e a6 bc 36 5c be 3d
       -0.022401344 -0.014830042 -0.020278377 0.092949316
0003d0 31 bb 50 3c 3f 02 13 c1 17 13 3e c1 ca 6b 83 bc
       0.012739942 -9.188048 -11.879661 -0.016042609
0003e0 5d 6e e6 3c ef f3 26 ba 69 46 37 bd 17 6e 3b 41
       0.028128797 -0.00063687464 -0.044744883 11.714377
0003f0 0d 14 82 3c ad 04 b5 3a ff e5 16 c1 64 46 a9 3c
       0.015878702 0.0013810598 -9.431151 0.020663448
