p2_continuous-control/checkpoint_actor.pth (torch_old, 170414 bytes, 10 tensors)

fc1.weight f4 [256, 33]
0	0xbe8986cb	-0.2686065
1	0x3eb8dec3	0.36107454
2	0xbe6fa111	-0.23401286
3	0xbd233d18	-0.039853185
4	0x3e716714	0.23574477
5	0xbe31c4b5	-0.17360194
6	0xbf107b88	-0.56438494
7	0x3d941cb9	0.07232041
8	0xbe8bd6ce	-0.2731232
9	0xbf44cc37	-0.7687411
10	0xbe9cb302	-0.30605322
11	0xbf168bb4	-0.5880692
12	0x3edb8d58	0.42881274
13	0x3d99c675	0.07508556
14	0x3c9bf958	0.019039795
15	0x3e8e7c85	0.27829376
16	0xbe1e75e7	-0.15474664
17	0xbe79c278	-0.2439059
18	0xbdd88e94	-0.105740696
19	0x3d4ba8ff	0.049721714
20	0xbe015d6c	-0.12633294
21	0xbe9db3e5	-0.3080131
22	0x3ee6cc5d	0.45077792
23	0x3e63963e	0.22225282
24	0xbf16b34d	-0.5886734
25	0xbe6c53cf	-0.23078845
26	0xbcef3c0d	-0.02920344
27	0x3e966f3d	0.29381743
28	0x3df62f80	0.12020779
29	0xbe6dcd34	-0.2322281
30	0xbee27981	-0.44233325
31	0xbe97a828	-0.2962048
32	0xbed7a06d	-0.42114583
33	0xbecb5003	-0.39709482
34	0x3ca249ee	0.019810643
35	0xbe854814	-0.26031554
36	0x3e9b7f19	0.30370405
37	0x3e5d4527	0.21608411
38	0xbde460e7	-0.11151295
39	0xbda6c4e2	-0.08143021
40	0x3d4b71db	0.049669128
41	0xbed9d762	-0.42547137
42	0x3e4b2aa8	0.19840491
43	0x3e20705b	0.1566786
44	0xbe21dcb6	-0.15806851
45	0xbe67693e	-0.2259874
46	0xbf005241	-0.5012551
47	0x3d50b41d	0.05095302
48	0xbdffa4d0	-0.12482607
49	0xbe5c6d0a	-0.2152597
50	0x3d834e70	0.06411445
51	0x3edb9064	0.428836
52	0x3db4bd0a	0.08825119
53	0xbec68487	-0.38772985
54	0xbe8d7d62	-0.27634722
55	0x3d5e8505	0.054326076
56	0x3e811b13	0.25215968
57	0xbed0207d	-0.40649787
58	0x3dc839cb	0.09776648
59	0xbd7a81ee	-0.061159067
60	0x3f0adbe1	0.5424176
61	0xbf14982b	-0.5804469
62	0xbe95dd57	-0.2927043
63	0xbe70ed29	-0.2352797
64	0x3e39eb79	0.18156232
65	0x3ed4b940	0.41547585
66	0xbee2deb1	-0.44310525
67	0x3cf4aa8a	0.029866476
68	0xbe8014a9	-0.25015762
69	0xbe194a5c	-0.14969772
70	0xbe9e1ff6	-0.3088376
71	0x3dbf5a41	0.093433864
72	0xbe0f316f	-0.13983701
73	0xbe0ac279	-0.13550748
74	0xbf3aa00c	-0.7290046
75	0xbc9fe330	-0.019517511
76	0x3e0690ae	0.13141128
77	0xbe789a0d	-0.24277516
78	0xbe4bf602	-0.19918063
79	0xbf156d72	-0.58370125
80	0xbcca01eb	-0.024659118
81	0x3d290b82	0.04127074
82	0xbe09a18d	-0.13440533
83	0x3dee26ca	0.11628492
84	0xbf0fe53b	-0.5620915
85	0x3e1e1251	0.15436675
86	0xbe154332	-0.14576414
87	0xbe9587dc	-0.29205215
88	0x3ed1f939	0.41010454
89	0x3eadf5b9	0.33976534
90	0x3dce70da	0.100801185
91	0x3eece19e	0.46265882
92	0xbde369aa	-0.11104138
93	0xbcaf786b	-0.021419724
94	0x3ec113f1	0.37710527
95	0xbdd83a07	-0.10557943
96	0x3db98dba	0.09060235
97	0x3dd5a42c	0.10431704
98	0x3efc0f28	0.49230313
99	0x3cbe3bd6	0.023221891
100	0x3ddcad56	0.10775249
101	0x3ecb295c	0.39679992
102	0x3f42f5b5	0.7615617
103	0x3e8ff925	0.2811977
104	0xbe412c05	-0.18864448
105	0x3e51ede3	0.20500903
106	0x3ea7f22e	0.32801956
107	0x3e417f40	0.18896198
108	0xbe1597b4	-0.14608651
109	0x3c961d7a	0.018324602
110	0x3edd9a16	0.4328162
111	0xbe82f032	-0.2557388
112	0x3ee2e78c	0.4431728
113	0x3ebfc75e	0.37456793
114	0x3e4af024	0.19818169
115	0x3e8ae898	0.2713058
116	0xbdc83f57	-0.09777706
117	0xbf0b9b5d	-0.5453394
118	0x3e1952f0	0.14973044
119	0x3e29ccba	0.16582003
120	0x3e1d2f51	0.15350081
121	0xbd278f61	-0.04090822
122	0xbe9bb85f	-0.304141
123	0x3dd36e92	0.10323824
124	0x3cb518fc	0.02210664
125	0x39ed5eb4	0.00045274722
126	0x3de5a879	0.11213774
127	0x3ea48140	0.3212986
128	0xbe6cfbfd	-0.23143001
129	0x3e00a706	0.12563714
130	0x3dc02b51	0.09383262
131	0xbe8992fb	-0.2686995
132	0x3e0355e0	0.12825727
133	0x3d376058	0.044769615
134	0xbd70ee97	-0.058821287
135	0x3d14affe	0.03630065
136	0xbd9d9603	-0.07694628
137	0x3e56cb0a	0.20975891
138	0x3e8163c0	0.25271416
139	0xbe01fd66	-0.1269432
140	0x3e6316fe	0.2217674
141	0x3d98999e	0.07451175
142	0x3ec97995	0.39350572
143	0x3d076ca5	0.033062596
144	0x3c7b7016	0.015346548
145	0xbdb6a885	-0.08918861
146	0x3e253e0e	0.16136953
147	0xbecc7333	-0.3993164
148	0x3d7c9e38	0.061674327
149	0xbeac5ab8	-0.33662963
150	0xbe1431fc	-0.14472193
151	0x3dce9c21	0.10088373
152	0x3c23a10d	0.009987128
153	0x3da0e09f	0.07855343
154	0x3d7e37df	0.062065
155	0xbe2714eb	-0.16316573
156	0x3d8c12f5	0.06839553
157	0xbd47684a	-0.048683442
158	0xbdcf3077	-0.10116666
159	0x3f263200	0.64920044
160	0x3f41cd6b	0.7570407
161	0xbf184abc	-0.59489036
162	0xbe21e397	-0.15809475
163	0xbbf1b940	-0.00737682
164	0x3ec3a1b2	0.382093
165	0x3e32d735	0.17464907
166	0xbeaf29d0	-0.34211588
167	0x3e05c743	0.13064294
168	0x3e0b7fc6	0.1362296
169	0xbf0e10cb	-0.55494374
170	0x3e77aed5	0.24187787
171	0xbe19385c	-0.14962906
172	0x3e8dbe30	0.27684164
173	0x3da4dcd7	0.08049934
174	0x3d742c6f	0.059612688
175	0x3e079b67	0.13242875
176	0x3ecfd1e3	0.40589818
177	0x3cde9795	0.02717189
178	0x3f25ab38	0.64714384
179	0x3dd95c8b	0.10613354
180	0x3e495cc7	0.19664298
181	0xbebfa41a	-0.37429887
182	0xbed0a50c	-0.4075092
183	0xbe2f53bd	-0.17121787
184	0xbf05b9fe	-0.52236927
185	0x3ebd0053	0.3691431
186	0xbe3eced5	-0.18633588
187	0xbe8f837b	-0.2803
188	0x3e5ee665	0.21767576
189	0x3db23189	0.08700854
190	0xbebbf7d2	-0.3671251
191	0xbd78d32f	-0.060748275
192	0xbea63259	-0.32460287
193	0x3e7f491a	0.2493023
194	0x3ce44f4e	0.027869847
195	0xbe94b736	-0.2904603
196	0x3d350eed	0.044203687
197	0x3ec16ea2	0.3777972
198	0xbeb0ba5d	-0.34517184
199	0x3d123071	0.03569073
200	0xbe7d1102	-0.24713519
201	0xbf01e5bc	-0.5074117
202	0xbbd640ca	-0.006538485
203	0xbe6e4e2f	-0.23272012
204	0x3d258201	0.040407185
205	0x3e859f8f	0.26098296
206	0x3e2d5d09	0.16930021
207	0xbe5a8df5	-0.21343215
208	0xbe48fa59	-0.1962675
209	0x3d839d01	0.064264305
210	0x3e89c6ce	0.26909488
211	0xbeb0d2f9	-0.3453596
212	0x3eb010a2	0.3438769
213	0x3e008df7	0.12554155
214	0x3ea0a5d7	0.31376526
215	0x3f053e1c	0.52047896
216	0x3e5903ef	0.21192907
217	0x3e63a0a0	0.22229242
218	0x3ef381ef	0.4756007
219	0x3d76eee8	0.060286433
220	0x3e04c657	0.12966286
221	0xbeca248d	-0.3948101
222	0x3e4bc7bb	0.1990041
223	0x3eab44f6	0.3345105
224	0x3d3f9633	0.0467741
225	0xbdbf7294	-0.09348026
226	0xbe393e0d	-0.18090077
227	0x3c1bfe77	0.009521118
228	0x3d47e513	0.048802447
229	0xbc91faf6	-0.017819863
230	0x3f222b8e	0.6334771
231	0x3e8ac383	0.2710229
232	0xbdf77976	-0.12083714
233	0x3f4124e1	0.754469
234	0x3e96eb93	0.29476604
235	0xbdfff2c7	-0.12497478
236	0x3e338428	0.17530882
237	0x3e13e692	0.14443424
238	0xbe08750b	-0.13325898
239	0xbe436715	-0.19082291
240	0xbf63388c	-0.8875816
241	0xbcd1e58a	-0.025622148
242	0x3ee8a5f0	0.454391
243	0x3dc7f8ee	0.097642764
244	0xbf01ee05	-0.50753814
245	0x3ec59533	0.38590392
246	0xbe416118	-0.18884695
247	0x3f5fe720	0.87462044
248	0xbe4d6ba2	-0.2006059
249	0x3eed67fb	0.46368393
250	0x3d144aad	0.03620403
251	0xbc471989	-0.012152084
252	0xbe43a8d4	-0.19107372
253	0xbd025d8a	-0.031827487
254	0xbe16461d	-0.14675184
255	0xbcf4ade3	-0.029868072

fc1.bias f4 [256]
0	0x3b74cc78	0.0037353318
1	0x3e77ffe9	0.24218716
2	0x3e3ba56a	0.18324819
3	0x3d8ea91b	0.06965848
4	0xbd0a1b1e	-0.033717267
5	0xbe14cbd4	-0.1453088
6	0xbd9ddb97	-0.07707899
7	0x3d7e2405	0.06204607
8	0xbd2c51f7	-0.042070355
9	0xbd46e7f3	-0.048561048
10	0x3bcac778	0.0061883293
11	0xbd80fe5a	-0.06298514
12	0x3dc99786	0.09843354
13	0x3c99573c	0.018718354
14	0x3e845818	0.2584846
15	0x3c6115a9	0.013738074
16	0x3e965b25	0.29366413
17	0xbe098eea	-0.13433424
18	0x3e263c5f	0.16233967
19	0x3e76e028	0.24108946
20	0xbd79ebfe	-0.061016075
21	0x3e095a83	0.13413434
22	0x3ec345ee	0.3813929
23	0x3d05253c	0.032506213
24	0x3d9b76c5	0.07591013
25	0x3e2dd45b	0.16975538
26	0xbe219a10	-0.15781426
27	0x3dd7b7d5	0.1053311
28	0x3d4e66b1	0.050390903
29	0x3e7fc12b	0.24976031
30	0x3eba32aa	0.3636678
31	0x3e16d3a3	0.1472917
32	0x3eac9f3d	0.3371524
33	0x3e222c94	0.15837318
34	0x3dbddc56	0.09270541
35	0xbe18b09e	-0.14911124
36	0x3e058103	0.13037495
37	0xbce19c58	-0.02754037
38	0xbd7425cc	-0.05960636
39	0x3d353901	0.044243816
40	0x3e2d8765	0.1694618
41	0x3e54d445	0.207841
42	0xbd2ccdd7	-0.04218849
43	0x3e289bdc	0.16465706
44	0xbda06a7e	-0.07832812
45	0x3de19e97	0.11016577
46	0x3e845271	0.25844148
47	0x3e466ef4	0.19378263
48	0x3d0d98bf	0.0345695
49	0x3c7720d7	0.015083513
50	0xbcb70af0	-0.022344083
51	0x3e0d1853	0.1377881
52	0x3e547bcb	0.20750348
53	0x3dfea6ad	0.12434135
54	0x3dac659b	0.08417817
55	0xbd85d21e	-0.06534217
56	0x3e436479	0.19081296
57	0xbcfa070f	-0.030520944
58	0x3d8a90d6	0.067659065
59	0x3e4e2a63	0.20133357
60	0x3dfd3eeb	0.12365516
61	0x3e59692d	0.21231528
62	0x3d6bc819	0.057563875
63	0x3e1c47b4	0.15261728
64	0xbd2488a3	-0.04016937
65	0x3daa153a	0.0830483
66	0x3e837ab5	0.25679556
67	0xbe23ef89	-0.16009344
68	0x3e9867be	0.2976665
69	0x3da9f97c	0.082995385
70	0x3d3bb92a	0.045830883
71	0x3df5db54	0.12004724
72	0xbdb30ba4	-0.08742455
73	0x3da39556	0.07987468
74	0xbd98273e	-0.0742936
75	0xbd924e4a	-0.07143839
76	0x3c063566	0.008191442
77	0xbd9a95c8	-0.075481
78	0x3d0ab1b8	0.033860892
79	0xbca052c6	-0.01957072
80	0x3e34bc32	0.17649916
81	0x3b166896	0.0022950522
82	0xbdd4fa64	-0.10399321
83	0xbe125970	-0.1429193
84	0x3e3b6854	0.18301517
85	0x3e5b65c9	0.21425547
86	0xbdcdceeb	-0.10049232
87	0x3da54d33	0.08071365
88	0x3d589d80	0.05288458
89	0x3d64ba1a	0.055841543
90	0x3e38f522	0.18062261
91	0x3d318e92	0.043348856
92	0xbd4d93eb	-0.050189894
93	0x3e625024	0.22100884
94	0x3db4fecc	0.08837661
95	0x3e33df0b	0.17565553
96	0x3e93129a	0.2872513
97	0xbd2e8170	-0.04260391
98	0xbd8a90c6	-0.067658946
99	0xbde61fef	-0.112365596
100	0xbe3fbffa	-0.18725577
101	0x3ebbd0a9	0.36682633
102	0x3e2aa34a	0.16663852
103	0x3e7082a6	0.23487338
104	0x3ead0cfc	0.3379897
105	0xbdd391f4	-0.10330573
106	0x3e3911f3	0.18073253
107	0xbe100df6	-0.14067826
108	0xbcce53c9	-0.025186436
109	0x3e09d242	0.13459113
110	0x3e10376f	0.14083646
111	0x3e8f9f7a	0.28051358
112	0x3e240d43	0.16020684
113	0x3eb20bd7	0.34774658
114	0x3e85e55d	0.26151553
115	0x3ce5d985	0.028057823
116	0x3e05a336	0.13050541
117	0x3e006589	0.12538733
118	0x3dd66a6f	0.10469519
119	0x3ca2b824	0.019863196
120	0xbc604946	-0.013689345
121	0x3dbecf6e	0.09316908
122	0x3cd90e4b	0.026496073
123	0xbd99c9f6	-0.07509224
124	0xbe3aef65	-0.18255384
125	0x3e0e2d43	0.13884453
126	0x3eadce7c	0.33946598
127	0x3e841c26	0.25802726
128	0x3e1e2113	0.15442304
129	0xbe164381	-0.14674188
130	0x3e314294	0.17310554
131	0x3d965930	0.0734123
132	0xbe4fedbd	-0.20305534
133	0x3d416b8d	0.04722171
134	0x3d466bb5	0.04844256
135	0xbcd25d2f	-0.025679199
136	0x3e8a0489	0.26956585
137	0x3e20401a	0.15649453
138	0xbd199575	-0.03749605
139	0x3e0f43d3	0.13990717
140	0x3e088ee4	0.13335758
141	0xbd8ce25a	-0.06879111
142	0x3e65cbe5	0.22441061
143	0x3eb3911f	0.35071656
144	0x3df9ac79	0.121911
145	0x3d6aae87	0.05729535
146	0x3db32404	0.08747104
147	0xbcabdd27	-0.020979477
148	0x3d7c81ef	0.06164735
149	0x3e193c99	0.14964522
150	0x3e6092ea	0.21931043
151	0x3d59e2f1	0.053194944
152	0x3e284c2a	0.16435304
153	0x3d18dfc0	0.03732276
154	0xbdb1c9d3	-0.08681073
155	0x3e7ef6ac	0.24898785
156	0xbd5071c0	-0.05088973
157	0xbc805904	-0.015667446
158	0x3ab0c4e2	0.001348641
159	0x3e5e10c1	0.21686079
160	0xbd8e0101	-0.06933785
161	0xbc64b1eb	-0.013958435
162	0x3ce16863	0.027515596
163	0x3e22ffe0	0.15917921
164	0xbe388f19	-0.18023337
165	0x3b2c8514	0.0026324438
166	0x3d14a703	0.036292087
167	0x3d95bded	0.07311616
168	0xbdfb87fe	-0.12281798
169	0xbe58691f	-0.2113385
170	0xbdd44805	-0.10365299
171	0x3e832c4a	0.25619727
172	0x3e3e15aa	0.18562952
173	0x3dd61760	0.10453677
174	0x3ecfcabe	0.40584368
175	0x3e5349c5	0.2063361
176	0x3e242cca	0.1603271
177	0x3e16d0f4	0.14728147
178	0xbe20f0e1	-0.15716888
179	0x3df42086	0.11920266
180	0x3c809607	0.015696539
181	0x3c0f3c46	0.008742398
182	0xbdb97129	-0.09054787
183	0x3e587423	0.21138053
184	0x3e3c4633	0.18386154
185	0x3e3c8c6e	0.18412945
186	0xbd2a8c8c	-0.041637942
187	0xbe709516	-0.23494372
188	0x3e977079	0.29577997
189	0xbc8452b6	-0.01615272
190	0xbcab8a36	-0.020939928
191	0x3d1727ef	0.036903318
192	0xbd0941d3	-0.03351004
193	0x3ec69e39	0.3879259
194	0x3e27773c	0.16354078
195	0x3d840e56	0.06448047
196	0x3caedced	0.02134558
197	0xbe02775b	-0.12740843
198	0xbdcd2b1f	-0.1001799
199	0xbe257884	-0.16159254
200	0xbd444aa9	-0.047922764
201	0xbde3abdb	-0.11116763
202	0x3e275145	0.16339596
203	0x3ddda131	0.108217604
204	0x3da076bf	0.07835149
205	0x3e2ccb8a	0.16874519
206	0x39f08722	0.0004587705
207	0x3dbb97a5	0.09159783
208	0xbed52319	-0.4162834
209	0x3d9e262f	0.07722127
210	0xbe0344c8	-0.12819207
211	0x3e01d6cf	0.12679599
212	0x3e7476f5	0.23873504
213	0xbdf3eae4	-0.11910036
214	0x3e1781eb	0.14795654
215	0x3eaa454f	0.33256003
216	0xbe0d797f	-0.13815878
217	0xbdcf6230	-0.1012615
218	0x3e883161	0.26600173
219	0xbd8f25dc	-0.06989643
220	0x3dfaf635	0.122539915
221	0x3dd9a762	0.10627629
222	0x3ebe92d9	0.3722141
223	0xbc6b4e95	-0.014361997
224	0x3df273c9	0.118384905
225	0xbd85a180	-0.06524944
226	0xbdbe54cf	-0.0929352
227	0x3e075229	0.13214935
228	0x3ab1e63c	0.0013572644
229	0x3e02e646	0.12783155
230	0x3dc24b1f	0.094869845
231	0x3e8c0a66	0.27351683
232	0x3d8bc66e	0.06824957
233	0x3df3bc76	0.119011804
234	0x3e44208d	0.19153042
235	0x3e2672a7	0.16254674
236	0xbc885778	-0.01664327
237	0x3e432c52	0.19059876
238	0xbcba78b3	-0.022762632
239	0xbd9a27ce	-0.075271234
240	0x3c8e8b7e	0.0174005
241	0x3e9018d9	0.28143957
242	0x3e144e22	0.1448293
243	0x3ea9c866	0.33160704
244	0x3e1fe5d9	0.15615024
245	0x3dfae790	0.12251198
246	0x3d0e4f34	0.034743503
247	0x3e7a371a	0.24435082
248	0x3d4519d0	0.04812032
249	0x3c497843	0.012296739
250	0x3e96c081	0.29443744
251	0x3d83e22a	0.06439622
252	0x3e9f17fc	0.31072986
253	0xbe0a5df1	-0.13512398
254	0xbdb27661	-0.08713985
255	0x3e8a6541	0.27030376

fc2.weight f4 [128, 256]
0	0x3e25eccc	0.16203612
1	0x3d8bbd63	0.06823232
2	0xbd681f1f	-0.056670304
3	0x3d5fe051	0.054657284
4	0x3e842e76	0.25816697
5	0xbcf472d1	-0.029839905
6	0xbd6edb6a	-0.05831472
7	0xbd9460f3	-0.07245054
8	0xbd1faa7f	-0.038980957
9	0x3dbcfeb6	0.0922827
10	0xbdd6f020	-0.10495019
11	0xbdd9179d	-0.10600207
12	0xbe67f94a	-0.2265369
13	0xbeb0afaa	-0.3450902
14	0x3cf747d9	0.030185627
15	0xbe21cc47	-0.15800582
16	0x3d129984	0.035790935
17	0x3b6181ca	0.0034409636
18	0x3e328f4b	0.17437474
19	0xbd867e1c	-0.06567022
20	0xbd630715	-0.055426676
21	0xbcfdec15	-0.030996362
22	0xbe0c2325	-0.13685282
23	0xbdf9c504	-0.12195781
24	0xbd8593ab	-0.06522306
25	0xbe35ec3b	-0.17765896
26	0xbd639462	-0.05556143
27	0x3d0d3726	0.03447642
28	0x3d762be3	0.060100447
29	0x3c8847af	0.016635744
30	0x3b4003b7	0.002929909
31	0x3c08a7d3	0.008340794
32	0x3dc21fbe	0.094787106
33	0xbde52183	-0.111880325
34	0x3df5fdc1	0.1201129
35	0x3deb45ca	0.114879206
36	0x3e0fbaa4	0.14036041
37	0x3e4b12d4	0.19831401
38	0xbe448649	-0.1919185
39	0xbd34abcc	-0.04410915
40	0xbda083d0	-0.07837641
41	0x3e13e7ce	0.14443895
42	0x3d8acd29	0.067774124
43	0xbe15d6f9	-0.14632787
44	0xbe57c92d	-0.21072836
45	0x3d7fdd92	0.062467165
46	0xbe1b53e7	-0.15168725
47	0xbe3d8e1d	-0.18511243
48	0xbd6342a3	-0.05548347
49	0x3c0304d3	0.007996756
50	0x3cfd1af4	0.030896641
51	0xbe76436b	-0.24049155
52	0x3d77a33e	0.060458414
53	0x3c27a7e1	0.010232897
54	0x3d82e941	0.06392146
55	0xbdc3afd3	-0.0955502
56	0xbbabc2d2	-0.0052417303
57	0x3d44fe94	0.048094347
58	0xbe3dfb34	-0.18552858
59	0x3d07b28f	0.03312927
60	0x3db9cf8a	0.09072788
61	0x3d1ba18b	0.037995856
62	0xbe339cd5	-0.17540295
63	0x3c599c67	0.013281918
64	0xbdc2bcad	-0.09508643
65	0x3daa7659	0.08323354
66	0x3bcaafd1	0.0061855097
67	0x3ead1f4e	0.33812946
68	0x3d69e0ec	0.057099268
69	0xbde7983c	-0.11308333
70	0x3df1a490	0.11798966
71	0x3c44dcd2	0.012015538
72	0x3ddcf278	0.10788435
73	0x3ee131b3	0.4398323
74	0xbe646e15	-0.22307618
75	0xbe8cdbf9	-0.27511576
76	0x3e79f173	0.24408512
77	0x3d6caab0	0.057779968
78	0xbd2a61f9	-0.04159734
79	0x3c1d28a0	0.009592205
80	0x3d18a634	0.03726788
81	0xbdf036db	-0.11729213
82	0x3a3efc5e	0.00072855304
83	0x3df8b442	0.121437564
84	0xbe304a85	-0.17215927
85	0x3ead5e8d	0.338612
86	0x3d98c8b1	0.07460154
87	0xbe2edd4c	-0.17076606
88	0x3aa25dfe	0.0012387631
89	0x3d0c61a0	0.03427279
90	0xbc9e45a1	-0.019320311
91	0x3d89b6a8	0.06724292
92	0x3e9cf86a	0.30658275
93	0x3ce399e6	0.027783345
94	0x3e4798b8	0.19491851
95	0x3d9ba09a	0.07598992
96	0x3e5c5715	0.21517594
97	0xbd0893b8	-0.033344
98	0x3e1b9c16	0.15196261
99	0x3d3b5802	0.045738228
100	0xbbc3cafe	-0.0059751263
101	0x3c81bd23	0.015837258
102	0x3e718170	0.23584533
103	0x3ea6d554	0.3258463
104	0xbbb56ee7	-0.005536902
105	0xbdf64fdb	-0.1202695
106	0x3eb3af51	0.35094693
107	0x3d984f76	0.07437031
108	0xbd1839e7	-0.037164595
109	0x3c0c2f19	0.008556151
110	0xbd4d8372	-0.050174184
111	0x3d8a9301	0.0676632
112	0xbd8f601a	-0.07000752
113	0xbe0d7286	-0.13813218
114	0xbea8cadd	-0.32967272
115	0x3c646cf8	0.013941996
116	0xbd652d2f	-0.055951294
117	0xbe4691c9	-0.1939155
118	0xbd36e6c8	-0.044653684
119	0xbd680bd0	-0.05665189
120	0xbcfe7545	-0.031061778
121	0x3dd36547	0.103220515
122	0x3c2a1922	0.010381969
123	0x3e436d9d	0.19084783
124	0x3cd4f9e8	0.02599807
125	0xbba082b1	-0.004898392
126	0xbc94c6f4	-0.018161274
127	0xbe7a7665	-0.24459226
128	0x3d30222b	0.043001335
129	0xbdccd555	-0.10001627
130	0x3cab6f25	0.020927021
131	0xbd45f88a	-0.04833273
132	0xbd99b1ea	-0.075046375
133	0x3db25420	0.08707452
134	0xbe3d605a	-0.18493786
135	0xbd72e0b8	-0.05929634
136	0x3e8a04e4	0.26956856
137	0xbb093800	-0.002093792
138	0xbd8cea87	-0.0688067
139	0x3d9a6664	0.07539061
140	0xbe092949	-0.13394655
141	0xbd065ff3	-0.032806348
142	0x3e2bc145	0.16772945
143	0x3d86d00b	0.0658265
144	0xbdab676c	-0.083693355
145	0xbcda7a4a	-0.02666964
146	0xb9a5736c	-0.00031557248
147	0x3d4b8ff7	0.049697842
148	0x3c6da258	0.014504038
149	0x3cefc7f3	0.029270148
150	0x3dc24914	0.09486595
151	0xbe1ffb03	-0.15623097
152	0xbcf6a6e6	-0.03010888
153	0x3ce0ce67	0.02744217
154	0xbe0bb010	-0.13641381
155	0xbe090a9e	-0.13382956
156	0x3e379acb	0.17930143
157	0x3daefaf9	0.08543963
158	0x3d125012	0.035720892
159	0x3d92258b	0.07136067
160	0xbcf99e7b	-0.030471077
161	0xbc09d9c6	-0.008413738
162	0xbddf347c	-0.108986825
163	0x3d863be4	0.06554392
164	0x3e1e7919	0.15475883
165	0xbdf8075d	-0.121107794
166	0x3da9b7d9	0.08287019
167	0x3e1e15e2	0.15438035
168	0x3c85fb0d	0.016355062
169	0x3d8dd988	0.069262564
170	0x3e044270	0.12915969
171	0xbe3907e6	-0.1806942
172	0x3e4f4861	0.20242454
173	0xbdc53d5a	-0.096308425
174	0xbe9b4264	-0.3032409
175	0xbe6f6010	-0.23376489
176	0x3d19e4ad	0.037571598
177	0xbdbddc6e	-0.09270559
178	0x3e857336	0.2606446
179	0x3e1c5fa3	0.15270858
180	0xbd20d74c	-0.039267823
181	0xbba876e8	-0.005141128
182	0x3cd7ac24	0.0263272
183	0xbdb6acdf	-0.08919691
184	0x3d923d49	0.071405955
185	0x3e31a5db	0.17348425
186	0x3d9f8b35	0.077902235
187	0xbd23a893	-0.039955687
188	0x3de5071e	0.11182998
189	0x3e12b58e	0.1432707
190	0xbcca90a1	-0.024727168
191	0x3d4a3076	0.049362622
192	0x3d000c1f	0.03126156
193	0xbd9dc105	-0.07702831
194	0xbe0af10d	-0.13568516
195	0xbe735794	-0.23763877
196	0xbd0f4314	-0.03497608
197	0x3d60a191	0.05484158
198	0x3cfd6578	0.030932173
199	0x3d47dec1	0.04879642
200	0x3d105e09	0.03524593
201	0x3d905687	0.07047754
202	0xbe0613ce	-0.13093492
203	0xbcc948e4	-0.02457089
204	0x3e56a816	0.20962557
205	0x3dd934fa	0.106058076
206	0xbd9fc82e	-0.07801853
207	0xbe7588a4	-0.23977906
208	0x3e40f918	0.18845022
209	0xbdb75456	-0.08951633
210	0xbdad2644	-0.08454564
211	0x3d3bfd83	0.045896064
212	0x3db42907	0.08796888
213	0x3ddc1ed0	0.107480645
214	0xbd01ca6c	-0.031687185
215	0xbcc64cb5	-0.024206499
216	0x3e300fb2	0.17193487
217	0x3e1ce4d8	0.15321672
218	0xbd15569f	-0.03645956
219	0xbd0b80b7	-0.0340583
220	0x3dd51957	0.10405224
221	0x3e0f6530	0.14003444
222	0x3d6237dd	0.055229057
223	0x3e0d8ed9	0.13824023
224	0x3dd78ff2	0.10525502
225	0x3df78bf8	0.12087244
226	0xbd4c771f	-0.04991829
227	0x3dabfc5b	0.08397742
228	0x3d105555	0.03523763
229	0xbdcb4e0d	-0.099269964
230	0x3d03a83e	0.03214287
231	0x3de7c06d	0.11315999
232	0x3e345351	0.17609908
233	0x3c87c0b1	0.016571375
234	0xbe1061a9	-0.14099754
235	0xbdc4ddfe	-0.09612654
236	0x3bc59865	0.0060301297
237	0x3a1a2541	0.0005880185
238	0xbd2dcc50	-0.042431176
239	0x3d6f7564	0.05846156
240	0x3d4cb81b	0.049980264
241	0x3e5f70a8	0.21820319
242	0xbdc69b46	-0.09697585
243	0x3e653da5	0.22386797
244	0xbd605d96	-0.05477675
245	0x3e5a7593	0.21333914
246	0xbda7c08e	-0.08191024
247	0x3e199bc4	0.15000826
248	0x3e9248ce	0.2857117
249	0x3dd80b97	0.105490856
250	0x3d0fc833	0.035103034
251	0x3ddc4ebf	0.10757207
252	0x3d1390b8	0.036026686
253	0x3e6581dd	0.2241282
254	0x3e44ce28	0.19219267
255	0x3e5461b8	0.20740402

fc2.bias f4 [128]
0	0x3d8101b8	0.06299156
1	0x3db2381e	0.0870211
2	0x3c969e30	0.018385977
3	0x3d94dfc5	0.07269243
4	0xbd533518	-0.051564306
5	0xbd0d1e9c	-0.03445302
6	0x3cb41553	0.021982824
7	0x3db9f5a6	0.09080057
8	0x3c5435cd	0.01295228
9	0x3df454a7	0.11930209
10	0xbb5eaa0a	-0.0033975863
11	0x3d0e18e5	0.03469171
12	0x3d121b59	0.035670612
13	0x3d2081e2	0.039186366
14	0x3d4f6d4a	0.050641336
15	0xbab2b9e8	-0.0013635727
16	0xbcab8d02	-0.020941261
17	0x3d1567a9	0.03647581
18	0x3d854a8e	0.06508361
19	0x3c8be159	0.017075228
20	0x3d9c2c55	0.07625643
21	0x3dc61de6	0.096736714
22	0xbda1f173	-0.07907381
23	0xbca5941b	-0.020212224
24	0xbd3e60ac	-0.046478912
25	0xbcea44db	-0.028597286
26	0xbc14af18	-0.009074949
27	0xbddd2f32	-0.108000174
28	0xbc29b361	-0.010357709
29	0xbdf8104f	-0.121124856
30	0x3c8c5496	0.017130177
31	0x3dfb1b6c	0.1226109
32	0x3dcf3c58	0.101189315
33	0x3d06f4be	0.032948248
34	0xbda6867a	-0.08131118
35	0xbcd1f488	-0.025629297
36	0x3d4af4ac	0.049549744
37	0xbcd5fcfe	-0.026121613
38	0x3ccdffbc	0.025146358
39	0x3dd83a41	0.10557986
40	0x3d9740ae	0.073853835
41	0xbd51c78b	-0.05121569
42	0xbe1a9594	-0.15096122
43	0x3dbf4794	0.09339824
44	0x3d52b979	0.05144641
45	0xbc9e151d	-0.019297177
46	0xbc8ee485	-0.017442951
47	0x3d6efad6	0.058344685
48	0xbd04e368	-0.032443434
49	0x3d2e228a	0.042513408
50	0xbd35b08a	-0.044357814
51	0xbdb680e9	-0.089113064
52	0x3d15825c	0.036501274
53	0xbd58a02b	-0.052887123
54	0xbbcd5dd5	-0.006267289
55	0x3cf01cfb	0.029310694
56	0xbcad6d7b	-0.021170368
57	0x3dcee6b4	0.10102597
58	0xbd510070	-0.051025808
59	0xb90c2e47	-0.0001336868
60	0xbd39ab28	-0.045329243
61	0x3a29c4e4	0.00064761774
62	0x3d186c34	0.037212566
63	0xbd6b761d	-0.05748569
64	0x3d56e4b4	0.052464202
65	0x3d8becff	0.06832313
66	0xbc1a9c95	-0.009436746
67	0xbd7f2d68	-0.062299162
68	0xbdec3f98	-0.11535567
69	0x3d912358	0.070868194
70	0x3b0325e4	0.0020011598
71	0x3cc4528a	0.023965139
72	0x3aba3105	0.0014205283
73	0xbc2a2103	-0.010383847
74	0x3c4dfc3f	0.012572347
75	0x3db3cd8d	0.0877944
76	0x3d65007b	0.05590866
77	0x3cc50161	0.02404851
78	0xbd789c76	-0.060696088
79	0xbdd3438f	-0.1031562
80	0x3d34c2c2	0.044131048
81	0xbdaae5b6	-0.08344595
82	0xbd586a93	-0.052836012
83	0xbd5ae1d4	-0.053438023
84	0x3b8c954e	0.0042902594
85	0xbd1c0b38	-0.038096637
86	0x3e187076	0.1488665
87	0x3cc0072c	0.02344092
88	0x3d8896d6	0.06669395
89	0x3d867409	0.06565101
90	0x3d93b64b	0.07212504
91	0x3d8e602c	0.06951937
92	0xbd47780a	-0.048698463
93	0xbb33e182	-0.0027447646
94	0x3d1a4ccd	0.0376709
95	0x3c0825c4	0.008309785
96	0xbc05f18f	-0.008175268
97	0x3bcf5b52	0.006328025
98	0xbc589f65	-0.013221596
99	0x3d29c34e	0.041446023
100	0xbc0fa467	-0.008767224
101	0x3c822cde	0.015890535
102	0x3def1406	0.11673741
103	0x3d3f6dcb	0.046735566
104	0xbe1089bd	-0.14115043
105	0x3cfebe28	0.031096533
106	0xbd7fc95d	-0.062447894
107	0xbd5f5ddd	-0.054532874
108	0x3cd763e9	0.026292758
109	0x3ba7601c	0.0051078927
110	0xbbba894b	-0.005692636
111	0x3d846d1c	0.064661235
112	0x3d78f1f2	0.060777612
113	0x3d8e31d8	0.06943101
114	0x3ca16532	0.019701574
115	0x3e15cb4f	0.14628337
116	0xbcd7ebca	-0.02635755
117	0x3d9d6ac4	0.076863796
118	0x3cf0962c	0.029368483
119	0x3d1beb78	0.038066357
120	0x3bbb7f81	0.0057219868
121	0xbc86b002	-0.016441349
122	0xbd45d106	-0.048295043
123	0x3d8167f0	0.06318653
124	0x3d0f18a5	0.034935612
125	0x3b2a8268	0.002601767
126	0x3c00db27	0.00786475
127	0x3d8516f8	0.064985216

fc3.weight f4 [4, 128]
0	0xbda16ad5	-0.07881705
1	0x3da1cf29	0.07900841
2	0xbd4ba5c7	-0.049718644
3	0x3d1e28b6	0.038613044
4	0x3da21e76	0.07915966
5	0xbd378385	-0.04480316
6	0xbf10ef61	-0.56615263
7	0xbc7c9751	-0.015416936
8	0x3e264600	0.1623764
9	0xbe40df71	-0.18835236
10	0xbdada803	-0.08479311
11	0x3c28ddbe	0.010306774
12	0xbcd39df6	-0.025832158
13	0xbe96c35c	-0.29445922
14	0xbdbf8120	-0.093508005
15	0xbe9f4e28	-0.31114316
16	0x3f17bed4	0.59275556
17	0x3e226260	0.1585784
18	0xbe419343	-0.18903832
19	0xbf1189a3	-0.5685064
20	0xbe148ac3	-0.14506058
21	0x3d42fd63	0.04760493
22	0x3c886939	0.016651737
23	0x3e87f513	0.26554164
24	0xbe9dda56	-0.3083064
25	0x3eb4e5c7	0.35331556
26	0x3e15a59b	0.14613955
27	0x3dcea406	0.10089879
28	0x3dc850d6	0.09781043
29	0xbf0a531d	-0.5403307
30	0xbd30d760	-0.043174148
31	0xbd775fba	-0.060394026
32	0x3b7dc9b9	0.0038724972
33	0x3e89766e	0.26848167
34	0xbe05fa29	-0.1308371
35	0x3e6fa1d3	0.23401575
36	0xbd9e1793	-0.0771934
37	0x3e2867d5	0.16445859
38	0xbe404e8d	-0.18779965
39	0xbe840cd9	-0.25791052
40	0xbe503edf	-0.20336483
41	0xbd8d094d	-0.068865396
42	0xbf0bfb45	-0.5468028
43	0x3d90d26f	0.07071387
44	0x3d2a3b00	0.041560173
45	0xbd661712	-0.056174345
46	0x3e55e223	0.20887046
47	0xbd73c803	-0.059516918
48	0x3dea063b	0.114269696
49	0xbb48179c	-0.003053165
50	0xbed18056	-0.40918225
51	0xbe723e25	-0.23656519
52	0x3e5f6d6b	0.21819083
53	0x3c8883c9	0.016664403
54	0xbe07db25	-0.13267191
55	0x3d04cd11	0.03242213
56	0xbd13f04a	-0.03611783
57	0xbeaa6398	-0.3327911
58	0xbd5af3df	-0.05345523
59	0xbe883a28	-0.2660687
60	0x3e65bed5	0.22436078
61	0xbdc523a8	-0.096259415
62	0x3e570659	0.20998515
63	0x3d94785a	0.07249518
64	0x3ec95983	0.39326105
65	0x3e6d63f3	0.23182659
66	0x3da0be35	0.07848779
67	0x3ea3bb14	0.31978667
68	0x3ead02e2	0.33791262
69	0xbe627c29	-0.22117676
70	0xbd3a77ea	-0.045524515
71	0xbdb74de5	-0.08950404
72	0x3f0611e2	0.52371037
73	0x3e9cc6a2	0.30620295
74	0xbdedda3b	-0.1161389
75	0xbd2587a2	-0.040412553
76	0xbe6755ca	-0.2259132
77	0x3e09e5d9	0.13466586
78	0x3e04d810	0.12973046
79	0xbe31d130	-0.17364955
80	0x3d9c33fb	0.07627102
81	0x3ef9c6b5	0.48784414
82	0xbeb0639f	-0.34451005
83	0xbe11f645	-0.142541
84	0xbd976fe0	-0.07394385
85	0xbf37e87c	-0.7183912
86	0x3c568520	0.013093263
87	0x3e60ea6e	0.21964428
88	0x3e746f30	0.2387054
89	0xbcc72f17	-0.024314446
90	0xbe624b7d	-0.22099109
91	0xbe2ac448	-0.16676438
92	0x3cc1bd54	0.023649849
93	0x3e9dbb7c	0.30807102
94	0x3e189548	0.14900696
95	0xbd207daa	-0.039182343
96	0xbdbdddc7	-0.09270816
97	0x3debccd9	0.11513681
98	0x3ce022ed	0.027360404
99	0x3e7ec117	0.24878345
100	0x3e9026e4	0.2815467
101	0xbe3b6c18	-0.18302953
102	0x3d240b18	0.040049642
103	0x3dc16884	0.09443763
104	0x3ec6441c	0.38723838
105	0x3d377a89	0.044794593
106	0xbe9bf3e5	-0.30459514
107	0x3e5d7df5	0.2163008
108	0xbe2fa965	-0.17154463
109	0xbbbc3385	-0.0057434463
110	0xbe297d82	-0.16551784
111	0x3bfadb0a	0.007655506
112	0x3dc140fb	0.09436222
113	0xbe6207ab	-0.22073238
114	0xbe3708a2	-0.17874387
115	0x3e1173a2	0.14204267
116	0x3d3e7497	0.046497907
117	0xbd7842fb	-0.060610753
118	0xbe01fec0	-0.12694836
119	0xbedc2f05	-0.43004623
120	0x39384c9c	0.00017576147
121	0xbdbca199	-0.0921051
122	0xbe499ea1	-0.19689418
123	0xbe27d85b	-0.16391127
124	0x3e764c34	0.24052507
125	0x3e9277ad	0.2860693
126	0x3d3ec8d2	0.046578236
127	0x3ca52c0c	0.020162605
128	0xbe3372db	-0.17524283
129	0xbd5dab5d	-0.054118503
130	0xbe7bde17	-0.2459644
131	0xbc20d24c	-0.009815764
132	0xbea59142	-0.32337385
133	0xbf00b878	-0.50281477
134	0x3c454a57	0.01204165
135	0x3e3093df	0.17243908
136	0x3ecd7cd8	0.4013431
137	0xbdb69c5c	-0.08916542
138	0xbe07399f	-0.13205574
139	0xbf0e190e	-0.5550698
140	0x3ebc82e1	0.36818603
141	0x3ee99a96	0.45625752
142	0x3d3f606a	0.046722807
143	0x3d69f83b	0.057121497
144	0x3ca41bad	0.020032728
145	0xbd364fb6	-0.044509612
146	0xbcddc392	-0.027070794
147	0x3d60934a	0.054827966
148	0x3d84b7ff	0.06480407
149	0x3e0bb6af	0.13643907
150	0x3ed61619	0.41813734
151	0x3ddbccec	0.10732445
152	0x3e2645e6	0.16237602
153	0x3b54784b	0.0032420333
154	0xbedcf847	-0.4315817
155	0x3ca2efd2	0.019889746
156	0xbec80d52	-0.39072663
157	0x3e1d3a9e	0.15354392
158	0x3d889ba9	0.06670315
159	0x3cfdd5ff	0.03098583
160	0x3dd9b428	0.10630065
161	0x3e289220	0.16461992
162	0xbd941cf6	-0.07232086
163	0xbf1090b1	-0.5647078
164	0x3e2ec40b	0.17066972
165	0x3e28afc2	0.16473296
166	0xbeb592a7	-0.3546345
167	0x3d6ac609	0.057317767
168	0x3e80b6fd	0.2513961
169	0xbe4b9f77	-0.1988505
170	0xbed2f959	-0.41205862
171	0x3e49af04	0.1969567
172	0xbdac73eb	-0.08420547
173	0xbee06784	-0.43828976
174	0xbdf4be20	-0.11950326
175	0xbd41f3bc	-0.047351584
176	0xbee26168	-0.4421494
177	0x3e76aed4	0.24090129
178	0xbf0fbb49	-0.5614515
179	0xbe9dff56	-0.30858868
180	0xbe44f08f	-0.19232391
181	0xbf0f489c	-0.5597017
182	0xbe41b3c9	-0.18916239
183	0x3e0f648f	0.14003204
184	0xbe49a49d	-0.19691701
185	0x3e949e8e	0.29027218
186	0xbe7ac1ab	-0.24487941
187	0x3db2e162	0.087343946
188	0xbea7fa38	-0.3280809
189	0xbdec75b3	-0.11545887
190	0x3e2b29cd	0.16715164
191	0xbe2ef471	-0.17085434
192	0x3e76fe0c	0.24120349
193	0x3de175f7	0.11008828
194	0x3d7d665d	0.0618652
195	0x3d8406c5	0.06446604
196	0x3e7cc51c	0.24684566
197	0x3ea816d9	0.3282993
198	0x3e9eb8bf	0.31000325
199	0xbe6501f9	-0.22364034
200	0xbebb45a5	-0.36576572
201	0xbebe03c8	-0.3711226
202	0xbea3ba54	-0.31978095
203	0x3ec216b9	0.3790796
204	0xbd48bee2	-0.049010165
205	0x3d20dd50	0.03927356
206	0x3e00ff13	0.12597303
207	0x3ee934f3	0.4554821
208	0xbb99d5fd	-0.004694699
209	0x3d1a41a0	0.03766024
210	0xbf1d3cfc	-0.6142118
211	0xbf1918ba	-0.59803355
212	0xbd9a9128	-0.075472176
213	0x3cb15f9b	0.021652034
214	0x3e93a6f7	0.28838322
215	0x3e509549	0.20369448
216	0x3e1bda35	0.15219958
217	0xbea5c305	-0.3237535
218	0x3d0e76c9	0.03478125
219	0x3d580835	0.0527422
220	0x39183a11	0.00014517481
221	0xbee7469a	-0.45171052
222	0x3e3ed703	0.18636708
223	0x3d253cd2	0.040341206
224	0xbe575a06	-0.21030435
225	0x3da90f9c	0.082549304
226	0x3e2f2557	0.17104088
227	0x3e4394b3	0.19099693
228	0x3e5de449	0.21669115
229	0x3e59c05c	0.21264786
230	0x3c4664e0	0.012109011
231	0x3cf5d2b2	0.030007694
232	0xbe1969eb	-0.14981811
233	0xbe30d423	-0.17268424
234	0xbdcd4cc1	-0.10024405
235	0xbdf24296	-0.118291065
236	0xbde67dca	-0.11254461
237	0xbed4bf2e	-0.4155211
238	0x3e4ccaf2	0.19999292
239	0x3e6765b5	0.22597392
240	0xbf0bfe4d	-0.5468491
241	0xbe60dcc2	-0.21959212
242	0xbe324c32	-0.17411879
243	0x3eaee3ac	0.34158075
244	0x3e89af57	0.26891586
245	0x3e17cf49	0.14825167
246	0xbd53272c	-0.05155103
247	0x3d1f6717	0.038916674
248	0x3e4f5f61	0.20251228
249	0xbe704f36	-0.23467717
250	0xbed2b36b	-0.4115251
251	0x3d1e9d7b	0.038724404
252	0xbe5754be	-0.2102842
253	0x3e8f6f40	0.28014565
254	0x3cd3c7c0	0.025852084
255	0x3ce74e54	0.028235592

fc3.bias f4 [4]
0	0x3d38d8c3	0.045128595
1	0xb9e38d0d	-0.00043401905
2	0xbd704002	-0.058654793
3	0xbd737b67	-0.059443858

bn.weight f4 [33]
0	0x3f58f46e	0.8474797
1	0x3f469acd	0.7757996
2	0x3f8fdc5b	1.1239122
3	0x3e5e191c	0.21689266
4	0x3e894947	0.2681372
5	0x3e881fe6	0.26586837
6	0x3e984c1b	0.29745564
7	0x3ea21b5e	0.31661505
8	0x3e8323c5	0.25613227
9	0x3ec26400	0.3796692
10	0x3ea62320	0.32448673
11	0x3e625fbb	0.22106831
12	0x3e9fddad	0.31223813
13	0x3f7468a5	0.95472175
14	0x3f7669b8	0.96255064
15	0x3f87720b	1.0581678
16	0x3f6329ab	0.88735455
17	0x3f72d8cc	0.94862056
18	0x3f11427c	0.5674207
19	0x3f48f714	0.7850201
20	0x3e962041	0.29321483
21	0x3eb48c91	0.35263494
22	0x3def6742	0.11689617
23	0x3f675347	0.90361446
24	0x3efcd6d4	0.4938265
25	0x3f17c6b2	0.5928756
26	0x3fb542b1	1.4160978
27	0x3f1d93b7	0.6155352
28	0x3fc0ab16	1.5052211
29	0x3f3da7d4	0.7408421
30	0x3f169fef	0.5883779
31	0x3f60f45f	0.8787288
32	0x3fb419ce	1.4070375

bn.bias f4 [33]
0	0x3be29896	0.0069151623
1	0xbe837adf	-0.2567968
2	0xbc9968f0	-0.018726796
3	0x3efe9a81	0.49727252
4	0x3e7e85ab	0.24855678
5	0xbe8adefb	-0.27123246
6	0xbdaa7ebc	-0.08324954
7	0x3d69de10	0.05709654
8	0x3e7fb36d	0.24970789
9	0xbe03c464	-0.12867886
10	0xbd114f4d	-0.035476018
11	0xbef6f616	-0.48234624
12	0x3d710bb6	0.05884906
13	0x3bc5ef75	0.0060405084
14	0x3d131bd5	0.035915215
15	0x3d8a84e6	0.067636296
16	0x3c8f52a9	0.01749547
17	0xbd354271	-0.044252817
18	0x3e383344	0.17988306
19	0x3e23a0cc	0.15979308
20	0xbe9e7f49	-0.30956486
21	0xbd10f9f6	-0.03539463
22	0xbe44ed18	-0.19231069
23	0xbd1549da	-0.036447383
24	0x3c87b2f9	0.016564833
25	0x3cd47cfa	0.0259385
26	0xbdab7bd6	-0.08373229
27	0x3eddc67e	0.433155
28	0x3dead537	0.11466449
29	0xbe699c9e	-0.22813651
30	0xbede713c	-0.43445766
31	0xbeaed51b	-0.34146962
32	0xbd110ca6	-0.035412453

bn.running_mean f4 [33]
0	0x3f76b3a2	0.9636785
1	0xc02c0a29	-2.6881201
2	0xbf1c72ac	-0.61112475
3	0x3f64f954	0.89442945
4	0x3df784bb	0.12085863
5	0x3c26a53b	0.01017123
6	0xbdc58dde	-0.096462
7	0x3aec1d5e	0.0018014123
8	0xbbf340c9	-0.0074234945
9	0x3b82be18	0.003989946
10	0x3c648aee	0.013949139
11	0x3bddecf4	0.006772632
12	0xbb92f470	-0.0044847056
13	0x3f4e6051	0.8061572
14	0xc05681cf	-3.351673
15	0xbee5d9e3	-0.44892797
16	0x3de73239	0.11288876
17	0xbe244b32	-0.1604431
18	0x3db189ab	0.08668836
19	0x3eb0262f	0.34404132
20	0x3db7524b	0.08951243
21	0x3cb3db67	0.021955205
22	0x3d54fc95	0.051998693
23	0x3c49eac3	0.012324038
24	0x3dee7e48	0.1164518
25	0x3b65ce64	0.0035065645
26	0xbd8d2427	-0.06891661
27	0xbf7ffffc	-0.99999976
28	0x3d72a8a0	0.059242845
29	0x00000000	0.0
30	0x3f7ffffc	0.99999976
31	0x00000000	0.0
32	0xbc9f0991	-0.019413741

bn.running_var f4 [33]
0	0x4050bd01	3.261536
1	0x3efd396d	0.49457875
2	0x40714193	3.7696273
3	0x3cb0d47f	0.021585701
4	0x3d6076eb	0.05480091
5	0x3c77c10f	0.015121712
6	0x3dacfc21	0.08446527
7	0x3e6972e0	0.22797728
8	0x3d34cf77	0.044143166
9	0x3da99907	0.08281141
10	0x3fd27c93	1.6444267
11	0x3f74b633	0.95590514
12	0x3ff9c6f4	1.9513841
13	0x418c38a8	17.527664
14	0x3fe37f37	1.7773198
15	0x41a15f34	20.171486
16	0x3e03bdc7	0.12865363
17	0x3e83e028	0.25756955
18	0x3dffe1e1	0.12494255
19	0x3ea62e2d	0.32457104
20	0x40385a80	2.8805237
21	0x3f0aa748	0.541615
22	0x3f06d832	0.5267364
23	0x40e1ffb7	7.062465
24	0x403a274f	2.9086492
25	0x4100c931	8.049119
26	0x41ff8bc1	31.94324
27	0x00000004	6e-45
28	0x42003fc5	32.062275
29	0x00000004	6e-45
30	0x00000004	6e-45
31	0x00000004	6e-45
32	0x3eaa4ff5	0.33264127
